RL gym coherence/models/Taxi_GCN_UUS_URS_16.pt (torch, 4160 bytes, 5 tensors)

conv1.bias f4 [16]
000000 fc 08 b7 bb e6 46 d2 81 4d 88 b3 b3 d3 c6 c1 bf
       -0.005585788 -7.724355e-38 -8.36013e-08 -1.5138801
000010 b7 6d fe bb 2b 12 00 80 65 d5 00 80 62 2f a2 bd
       -0.007764544 -6.517e-42 -7.6552e-41 -0.07919194
000020 03 c0 0b a5 82 fe 66 b7 a9 e1 f7 bd f6 7d 5b ba
       -1.2121384e-16 -1.37683255e-05 -0.12103588 -0.00083729567
000030 e4 04 a1 bc de 00 c5 9a 24 f4 b7 bf a6 ac a6 bf
       -0.019655652 -8.147869e-23 -1.4371381 -1.3021438

conv1.lin.weight f4 [16, 1]
000000 45 a9 22 3a 12 48 c1 a5 db 2a c8 b7 9a 5e 7b 3f
       0.00062050327 -3.3529e-16 -2.3861814e-05 0.98191226
000010 69 9d 39 bd 26 54 d4 9c 81 8b 81 9e 32 1c c6 bd
       -0.045316134 -1.4050735e-21 -1.3716104e-20 -0.096733466
000020 ea e0 aa b2 05 6f 55 bb 84 a1 e8 3c 45 03 aa ba
       -1.9892884e-08 -0.0032567394 0.02839733 -0.0012970945
000030 4b 26 8c 3b b9 87 24 b1 ae b7 6a 3f 79 9f 3e 3f
       0.004277026 -2.394229e-09 0.9168652 0.74462086

conv2.bias f4 [16]
000000 92 67 94 bd b8 5d 84 bc b4 0a 49 3f 58 2c ca 3f
       -0.07246317 -0.01615797 0.78531957 1.5794783
000010 83 b6 e2 bf f7 70 01 bf 4a f4 05 40 f8 fe 19 bd
       -1.7711948 -0.50562996 2.0930352 -0.037596673
000020 69 61 38 3b 35 b1 fd 3f 0a 99 bd ba 77 50 25 3f
       0.0028134233 1.9819704 -0.0014465165 0.64575905
000030 cc 49 0c c0 be 84 ec 3f 35 63 9f 3f a0 66 86 3a
       -2.1920042 1.847801 1.245215 0.0010253973

conv2.lin.weight f4 [16, 16]
000000 1b 0d 01 38 ce b3 03 80 6b c2 00 80 f4 65 73 3d
       3.0768202e-05 -3.40008e-40 -6.9744e-41 0.059423402
000010 d2 45 13 1e f8 5a 00 00 94 ca 00 00 30 04 ed 3a
       7.796554e-21 3.2633e-41 7.2671e-41 0.0018082913
000020 20 ec 00 80 88 07 11 8f b0 22 2f 37 6f 66 99 9f
       -8.4706e-41 -7.1505024e-30 1.0438889e-05 -6.496748e-20
000030 30 e6 c7 38 b6 de 00 80 e4 27 c5 3c 6e d2 6f 3c
       9.531935e-05 -7.9894e-41 0.024066873 0.014637573
000040 8b 5c a8 a7 a9 1c 1a 00 c3 35 00 00 bc b5 1e 3d
       -4.6729702e-15 2.398004e-39 1.9286e-41 0.038747534
000050 ba 22 6e 1d 9b 19 00 00 87 bd 00 80 ea a5 a5 3d
       3.151699e-21 9.186e-42 -6.799e-41 0.08088286
000060 ea fc 00 00 66 c0 37 0f e4 53 6d b7 f1 89 d6 a7
       9.0728e-41 9.059651e-30 -1.4145833e-05 -5.954649e-15
000070 d8 4d dd b5 1c 51 00 00 a6 93 ff 3c 65 b1 c7 3c
       -1.6488439e-06 2.9097e-41 0.031198334 0.02437658
000080 da 96 a1 38 b9 71 99 80 7c 96 00 00 18 a3 d0 be
       7.7051765e-05 -1.4091627e-38 5.3984e-41 -0.4074943
000090 1e c9 e7 aa 70 42 00 00 e6 4c 03 00 90 51 0d be
       -4.1173396e-13 2.3833e-41 3.03092e-40 -0.13800645
0000a0 d3 04 01 00 b0 8b 24 0d cf 49 09 3a 01 94 8f 2d
       9.3566e-41 5.0704544e-31 0.00052371336 1.6322945e-11
0000b0 f9 53 cd 38 6c ba 00 80 f9 d1 9c be 64 8c 90 be
       9.790803e-05 -6.6876e-41 -0.30628946 -0.2823211
0000c0 2b 3d 3b b9 98 64 30 82 d6 77 84 88 7d 18 3e bf
       -0.00017856497 -1.2959307e-37 -7.972634e-34 -0.74256116
0000d0 5d 4b b9 b9 be 38 01 80 d3 2e 00 80 88 6f ef bd
       -0.000353421 -1.12191e-40 -1.6797e-41 -0.11691195
0000e0 83 f7 00 00 c7 e4 93 9f ee c5 2d 3b f9 99 f5 b1
       8.879e-41 -6.26354e-20 0.002651568 -7.147943e-09
0000f0 f6 d4 23 3a 00 02 00 80 88 79 5c bf 12 2e a3 be
       0.000624969 -7.17e-43 -0.8612294 -0.31871086
000100 e6 6f 44 b5 f6 f9 13 02 70 45 00 80 66 09 82 3f
       -7.3178524e-07 1.087159e-37 -2.491e-41 1.0159118
000110 f2 6b 19 3a 04 2b 01 80 b8 c4 00 00 69 da ee 3d
       0.0005852572 -1.07267e-40 7.057e-41 0.11662752
000120 21 ef 00 80 6f 59 bc a4 a0 2e 17 bb b9 40 60 95
       -8.5783e-41 -8.168351e-17 -0.0023068562 -4.5287497e-26
000130 0e c6 ca b9 3d 62 01 80 e0 2f 30 3f e0 36 01 3f
       -0.00038676005 -1.27077e-40 0.6882305 0.5047436
000140 90 11 e4 b2 59 de 17 80 7d 4f 00 80 1b da 91 3e
       -2.655068e-08 -2.19198e-39 -2.8515e-41 0.28486714
000150 b6 6d ea 1e ef 99 00 00 14 2f 01 80 a4 b9 21 3e
       2.4821089e-20 5.5221e-41 -1.08724e-40 0.15793473
000160 ee 41 01 80 6c 58 09 90 7c ba c4 b8 bf 1d 4a 2c
       -1.15487e-40 -2.7086604e-29 -9.380744e-05 2.872244e-12
000170 be c8 86 b7 27 2c 00 00 db 30 71 3e d1 e1 eb 3d
       -1.6067523e-05 1.5839e-41 0.23553793 0.115176804
000180 8a 68 07 31 ca e0 a7 82 3a 8a 00 00 fb 83 97 bf
       1.970451e-09 -2.4667467e-37 4.9586e-41 -1.1837152
000190 f2 27 04 bb 8b 58 01 80 9c 27 01 80 69 3e d7 bd
       -0.002016541 -1.23599e-40 -1.06045e-40 -0.10509951
0001a0 a0 22 01 80 b2 20 89 2e 6e d5 4c 3b e1 77 46 28
       -1.04257e-40 6.2358466e-11 0.0031255144 1.10172025e-14
0001b0 8b f1 27 3a 61 09 01 00 d5 bc 6a bf f4 4d 21 bf
       0.0006406537 9.52e-41 -0.91694385 -0.6300957
0001c0 fa 04 36 21 8c 7c 04 80 e9 64 00 80 70 32 20 3d
       6.1670585e-19 -4.12021e-40 -3.62e-41 0.0391106
0001d0 88 07 19 9c cf 92 00 00 fa 79 01 80 76 db ab 3c
       -5.0633187e-22 5.2665e-41 -1.35592e-40 0.02097867
0001e0 86 1d 00 80 e8 28 e1 0e 1b e8 16 b7 8e b2 28 0e
       -1.0591e-41 5.5506174e-30 -8.994738e-06 2.079357e-30
0001f0 ff c7 3b b5 b1 9a 00 00 82 ff d1 3c e4 e0 82 3c
       -6.995396e-07 5.5493e-41 0.025634531 0.015976377
000200 5d 58 83 b2 6f 00 00 00 76 ab 00 00 6d 05 bb 3b
       -1.529059e-08 1.56e-43 6.1509e-41 0.005707434
000210 f0 aa 13 1c 37 3f 00 80 ac 22 04 00 a4 02 89 bc
       4.885915e-22 -2.2677e-41 3.7978e-40 -0.016724892
000220 8a 98 00 00 4a a0 95 8d a2 af d7 b5 c3 a4 26 ab
       5.4721e-41 -9.221422e-31 -1.6069864e-06 -5.92037e-13
000230 45 a8 35 35 1e 41 01 80 08 1c 91 3b 22 7f 80 3b
       6.767262e-07 -1.15195e-40 0.0044283904 0.0039214054
000240 ff 9f 17 38 66 b2 2c 02 e0 e4 66 23 ed a2 6f bf
       3.6150213e-05 1.2687762e-37 1.2516791e-17 -0.9360798
000250 49 15 3b bb 69 20 01 00 da da 00 80 62 16 0e be
       -0.0028546622 1.03462e-40 -7.8509e-41 -0.13875726
000260 fa 49 00 80 8e bb a1 30 25 b0 5b 3b fe 5e 10 b7
       -2.6538e-41 1.1767598e-09 0.0033521738 -8.605186e-06
000270 67 0e 18 3c 32 17 01 80 6c 65 96 bf aa 4f 00 bf
       0.009280778 -1.00156e-40 -1.1749701 -0.5012156
000280 df a8 9a a6 62 ce 1a 80 db 9f 01 00 31 39 99 bc
       -1.0731669e-15 -2.461759e-39 1.49181e-40 -0.018704029
000290 be ce fe 1c 51 21 01 80 60 91 01 00 a9 83 00 bd
       1.6861752e-21 -1.03787e-40 1.43986e-40 -0.03137556
0002a0 10 44 00 80 f8 e6 81 8e 38 21 05 36 04 c5 24 20
       -2.4416e-41 -3.202337e-30 1.983788e-06 1.3956527e-19
0002b0 8c 05 90 35 1b 1a 00 80 cf 29 86 bc 22 aa 66 bc
       1.073045e-06 -9.365e-42 -0.016377358 -0.014078649
0002c0 3d 5d 44 39 5b 69 2c 00 70 b2 5f a1 bb 1d da be
       0.0001872675 4.078556e-39 -7.57915e-19 -0.42600808
0002d0 2e a5 54 22 3b 4d 01 80 10 02 01 00 c0 72 1a be
       2.8818803e-18 -1.1954e-40 9.2575e-41 -0.15082836
0002e0 e4 8d 00 00 de 65 2c 10 1a 40 f2 3a 86 8b eb 37
       5.0901e-41 3.3999495e-29 0.0018482239 2.8079154e-05
0002f0 1d 75 4d 3c 15 19 00 00 4f 29 38 be 3b c3 4c be
       0.012540129 8.998e-42 -0.17984508 -0.1999635
000300 69 af a2 af 2f 97 d5 02 77 25 00 80 db ee 9a 3f
       -2.9592265e-10 3.1384312e-37 -1.344e-41 1.2104143
000310 55 d9 45 3b 47 13 01 00 e7 ab 00 00 1b 44 02 3e
       0.0030189354 9.8751e-41 6.1667e-41 0.12721293
000320 8d 97 01 80 b4 27 f8 b0 c5 80 3d bb c4 66 4e ae
       -1.46202e-40 -1.8055659e-09 -0.0028915864 -4.693025e-11
000330 48 2b 24 ba 14 de 00 00 60 14 6d 3f 35 15 61 3f
       -0.0006262553 7.9667e-41 0.92609215 0.87922984
000340 02 43 c9 b9 31 b5 a0 02 1f 50 98 2e 42 cc 94 bf
       -0.00038387632 2.3613886e-37 6.926392e-11 -1.1624835
000350 c4 94 83 ba 37 d5 00 80 d6 6f 00 00 1d 9b 1f be
       -0.0010038842 -7.6487e-41 4.0119e-41 -0.15586515
000360 fb 30 2f 16 ef 3d dd 2a 33 21 ec bc d7 0f cd ba
       1.4151843e-25 3.930046e-13 -0.028824424 -0.001564498
000370 7e 91 af bc f7 3b 00 80 01 2f 60 bf 06 fc 4b bf
       -0.02143168 -2.1511e-41 -0.8757172 -0.7968143
000380 49 3a e2 ba 05 87 b7 80 b4 6c 18 23 05 c6 21 bf
       -0.0017259802 -1.6854332e-38 8.262955e-18 -0.6319278
000390 2d 71 f5 b6 f2 70 00 80 0a 8c 01 80 3c cd ef bd
       -7.3147444e-06 -4.0517e-41 -1.42072e-40 -0.11709067
0003a0 34 cc 00 00 6b 12 84 90 fd 80 4e 3c ea 89 68 38
       7.3254e-41 -5.20932e-29 0.012603995 5.5441553e-05
0003b0 45 c7 d6 3b 9e 83 00 80 ce 11 f0 be f4 2b c5 be
       0.0065545165 -4.7215e-41 -0.46888584 -0.38510096
0003c0 ab 0d 77 2e 34 a8 00 00 3f 64 00 80 10 75 8d 3b
       5.6173437e-11 6.034e-41 -3.5962e-41 0.0043169335
0003d0 d4 76 9f 1d b0 32 01 80 03 bd 03 00 5a a1 33 bc
       4.2209815e-21 -1.10019e-40 3.43311e-40 -0.010963762
0003e0 e1 45 01 00 c2 a8 98 0d e1 1d 99 b5 ca e0 57 ac
       1.16903e-40 9.40835e-31 -1.1408084e-06 -3.067812e-12
0003f0 cf 71 a6 b4 0d 25 00 80 9a 5c f0 3b 5e b7 ab 3b
       -3.1002716e-07 -1.3291e-41 0.0073352577 0.005240365

linear.weight f4 [1, 16]
000000 21 75 a6 3a cc 05 3c 3c ec 10 98 3e a5 9c 01 40
       0.0012699702 0.011475991 0.2970041 2.0251858
000010 c7 9e 13 c0 d0 6b 93 bd 6a f3 46 40 24 f2 c8 3b
       -2.306566 -0.07198298 3.1086068 0.006132381
000020 74 23 77 3b 48 43 56 40 36 2f e1 bb d4 e5 3d 3e
       0.003771034 3.3478565 -0.006872083 0.18544704
000030 89 69 5d c0 aa 56 22 40 af f6 92 3f 6c 05 51 3b
       -3.4595664 2.5365396 1.1481532 0.00318941
