RL gym coherence/models/Taxi_GCN_USS_URS_19.pt (torch, 4160 bytes, 5 tensors)

conv1.bias f4 [16]
00000000: 68e7 0080 40b4 2db4 6100 37bb 2234 c4a7
00000010: f49c 0380 7767 ecb4 a4a6 66bf f7e8 c5aa
00000020: 6e21 32b5 fd46 33bf d21d 54bf 06cb 75a3
00000030: a92c 613f 159e 3fbf 1c1f 63bf 892f 08bc
-8.3013e-41 -1.6177455e-07 -0.002792381 -5.445745e-15 -3.3181e-40 -4.4033706e-07 -0.90098023 -3.5155882e-13
-6.6358814e-07 -0.70030195 -0.82858 -1.33244685e-17 0.8795877 -0.7485059 -0.88719344 -0.0083121145

conv1.lin.weight f4 [16, 1]
00000000: 58b3 089a 66b4 de32 d84a 173a c99a d4a5
00000010: cc5e 0691 58c6 1eb6 3fa5 063f 5be1 abaa
00000020: bf27 31b4 fae2 993e 6439 0c3f 7fa0 17ac
00000030: 2e89 8ebe d627 bf3e 66f1 043f e775 2abd
-2.8269014e-23 2.5926237e-08 0.00057713455 -3.6881024e-16 -1.0599948e-28 -2.3659286e-06 0.52595896 -3.0532074e-13
-1.6498869e-07 0.30055982 0.5477507 -2.1547484e-12 -0.27839035 0.3733508 0.51930845 -0.041616347

conv2.bias f4 [16]
00000000: 2abf 213f 5a50 96be 9e83 093f f029 413f
00000010: 2a5e 8bbe a8e9 343f 2d4b 343f 2e36 2c3f
00000020: 9754 2f3f 6056 323f 9fc3 23bf 4954 35bf
00000030: 21b7 4cbf 1f9c 54bf ebf2 ab3e 12d0 4dbf
0.6318232 -0.29358178 0.53716457 0.75454617 -0.2722028 0.7066903 0.7042721 0.6727017
0.6848845 0.6966305 -0.6397037 -0.70831734 -0.7996693 -0.8305072 0.3358377 -0.80395615

conv2.lin.weight f4 [16, 16]
00000000: b1a3 0500 447c 9829 0e2f fcb7 ae13 5a23
00000010: 1f7f 0880 60ed 12b6 e686 ffbe 4086 07a8
00000020: 3953 aab4 46e1 90be ef22 0abf ec42 3198
00000030: 99af 1e3f ee9d 78be 0aa2 37bf cb34 92b4
00000040: 16d6 0480 ec7f 7aab 7909 fd35 84df baa3
00000050: ca43 0080 d83b b3b2 6d18 313e 2bfa daa5
00000060: 9855 43b2 37ab b73c 3386 903e 72c9 1395
00000070: f259 3ebe 48d1 f23d 4847 913e 62f0 0080
00000080: a44a 0800 a83d 752d ce12 64b7 1ee0 8b23
00000090: d638 0080 b401 6235 c44e 28bf 2c89 a327
000000a0: 0d9d b733 3b9e a5be 723e 0abf 3140 5018
000000b0: ad6d 023f 6685 9fbd 5ec0 8abe c2ee 12b2
000000c0: dd9c 0900 90de 23a9 a9fa 73b8 4d18 dda4
000000d0: aa4a 0f80 3df7 ab35 30a2 23bf 42c5 8da8
000000e0: e296 06b5 52e6 29be 2656 51bf b780 3523
000000f0: 6a7a 423f 808b 1bbf 6997 e6be dd6b 07b8
00000100: 2684 0100 b121 e6ab 4da4 d135 3858 0aa3
00000110: d14f 0100 fe0d b9b2 577c be3e c496 b725
00000120: 3ab3 40b2 0b4f d93c f0f3 b93d 4df5 1297
00000130: 4539 22be 8a1d 953d b283 823e 86a5 0200
00000140: 08fe 0000 de0b af2d 1e7b 8eb7 4064 8da5
00000150: e52a 0280 ba99 9435 c1a6 b5be 008a f524
00000160: c239 2334 43ba b5be b60c 33bf de1d 2699
00000170: 3ef1 3a3f 0791 bebe a30c 6bbf fe8b a9b5
00000180: 73a4 0280 e117 ae29 c362 65b8 69b1 d9a3
00000190: e08e 0300 b664 c935 6cf3 6bbf a839 89a9
000001a0: 9a77 d2b4 df62 33be 7e6b d3be 5025 ba20
000001b0: 4f26 3e3f be62 82be ed67 46bf e499 7fb7
000001c0: dbb6 0d00 db44 f12c 81b5 20b7 87f5 24a5
000001d0: 9f1f 0700 d066 1035 15bb 50bf 18a4 bf25
000001e0: fa1c ba33 3867 6bbe ac02 38bf c31d 9f17
000001f0: 23e7 1e3f bd7e fabe f88b 1dbf a166 36ae
00000200: 97d1 0500 2dd6 742a 7903 5238 cd0f c1a5
00000210: 5257 3480 40c0 4936 8710 26bf 09d4 9c2a
00000220: 9663 adb4 11ec 59be 3490 15bf db28 3d99
00000230: 2c4a 283f 9bea d9be 0e28 1dbf 9f80 aeb5
00000240: 7d21 0780 42d9 7ba8 624d 20b8 87ff f5a4
00000250: 1034 0000 a654 c034 2fe7 cdbe 9c00 b028
00000260: d395 8eb4 dd42 a8bd a07e 1ebf 8972 2925
00000270: bfd0 473f 9d64 26bf c7dd 54bf bde5 6bb8
00000280: 9ac4 0300 d82d 33ae 4f52 b137 197b 4124
00000290: 99c5 0280 7021 deb5 feb8 443f c9dc 2628
000002a0: 1260 acb3 825e 983e 13bc 293f b6a0 6f97
000002b0: 27fb 1dbf bddc 033f cf59 143f 7689 fe2d
000002c0: 2c42 0780 f1e9 09ae c31a 9537 a08f 0b26
000002d0: 97a2 0000 67e1 f7b5 af62 073f 2063 6427
000002e0: 813d 1eb4 f8ce 813d 1071 503f 28eb a718
000002f0: 191d 33bf f8b0 a03e 0712 3f3f 83ab 0d35
00000300: 4061 0300 255a 25ab 195a 3438 125c 69a8
00000310: f11c 0180 3a87 39b6 3660 213f 60c2 bca9
00000320: c434 f1b4 014f 943e 312f 5e3f e3bd 51ab
00000330: 82b2 58bf ab90 873e ffdf 293f 1cbc a539
00000340: 61fe 0e80 3c25 1faa fab4 d337 4d18 1424
00000350: dfa4 8180 e63b 7fb4 bdf1 603f 7c39 d5a9
00000360: 2055 71b5 4f50 ae3e af60 273f ad48 5919
00000370: 4c3c 3bbf 7a85 0b3f aa14 173f 406c b435
00000380: 584a 0400 2986 462b c37f 5cb6 899d 79a4
00000390: c813 0200 be5c 0434 876a b2be f786 dc26
000003a0: a8b8 8e32 bf3a 45be 33d6 58be 27fe ad96
000003b0: fd69 863e f2ae 68bd 6dfe aebe e65f bc83
000003c0: 674a 1d00 3c6c 9a29 ec14 1238 8ad4 b126
000003d0: 6000 0380 b20e 7db6 8c9e 603f 8c7e b1a7
000003e0: f2a3 9e34 31f2 173e e841 2b3f 67f3 e5a0
000003f0: 4fcd 4dbf fd29 ea3e 127c 483f dca7 9337
5.17899e-40 6.7717126e-14 -3.0062653e-05 1.1821971e-17 -7.80286e-40 -2.1893866e-06 -0.49907607 -7.523116e-15
-3.172552e-07 -0.2829687 -0.53959554 -2.29105e-24 0.6198669 -0.24278995 -0.71731627 -2.723303e-07
-4.44142e-40 -8.899537e-13 1.8852726e-06 -2.0260823e-17 -2.4318e-41 -2.0865556e-08 0.17294474 -3.7986492e-16
-1.1369956e-08 0.022420509 0.28227386 -2.9845326e-26 -0.18588999 0.118563235 0.28374696 -8.6233e-41
7.6146e-40 1.3940328e-11 -1.3594237e-05 1.5165328e-17 -2.0389e-41 8.419404e-07 -0.65745187 4.539031e-15
8.550169e-08 -0.32347283 -0.54001534 2.6915778e-24 0.509486 -0.077891156 -0.2709989 -8.552606e-09
8.82791e-40 -3.6386313e-14 -5.816916e-05 -9.588464e-17 -1.404317e-39 1.2812449e-06 -0.63919353 -1.5739692e-14
-5.0138453e-07 -0.16591766 -0.8177208 9.839286e-18 0.7596804 -0.60759735 -0.45037392 -3.2286964e-05
1.39241e-40 -1.6351834e-12 1.5619531e-06 -7.499676e-18 1.20468e-40 -2.1543197e-08 0.3720424 3.1847602e-16
-1.1216622e-08 0.026526948 0.090797305 -4.7484757e-25 -0.15842159 0.07281025 0.254911 2.4305e-40
9.1129e-41 1.9900467e-11 -1.698505e-05 -2.4527533e-16 -1.99059e-40 1.10716e-06 -0.35478786 1.06485594e-16
1.520157e-07 -0.3549367 -0.6994127 -8.5880305e-24 0.73024356 -0.37220022 -0.9181616 -1.2632224e-06
-2.42664e-40 7.7312946e-14 -5.4689834e-05 -2.3602323e-17 3.2676e-40 1.5004978e-06 -0.9216831 -6.094024e-14
-3.920257e-07 -0.17518185 -0.41292948 3.1534317e-19 0.74277204 -0.2546596 -0.7750233 -1.5235015e-05
1.259458e-39 6.8572765e-12 -9.579003e-06 -1.430792e-16 6.54192e-40 5.379379e-07 -0.81535465 3.3244413e-16
8.666571e-08 -0.22988594 -0.71879077 1.0282647e-24 0.62071437 -0.4892482 -0.615417 -4.147316e-11
5.34364e-40 2.174586e-13 5.0071136e-05 -3.349087e-16 -4.80677e-39 3.0063238e-06 -0.6486897 2.7858296e-13
-3.229622e-07 -0.21281458 -0.5842316 -9.779322e-24 0.6573818 -0.42561802 -0.61389244 -1.3001444e-06
-6.54862e-40 -1.3980409e-14 -3.821904e-05 -1.0668469e-16 1.8677e-41 3.5824377e-07 -0.40215442 1.954019e-14
-2.6558573e-07 -0.08215878 -0.61911964 1.469722e-16 0.78052896 -0.64997274 -0.83150905 -5.6242327e-05
3.46034e-40 -4.0740605e-11 2.1138372e-05 4.195447e-17 -2.54556e-40 -1.655002e-06 0.76844776 9.262726e-15
-8.026849e-08 0.29759604 0.66302603 -7.742791e-25 -0.61711353 0.51508695 0.5794954 2.8937502e-11
-6.66586e-40 -3.1357975e-11 1.7774646e-05 4.841996e-16 5.8326e-41 -1.8468535e-06 0.52884954 3.1695092e-15
-1.4737272e-07 0.06338304 0.8142252 4.3405935e-24 -0.69966274 0.31385016 0.7463688 5.2776176e-07
3.10393e-40 -5.8744876e-13 4.2999254e-05 -1.2954063e-14 -1.02218e-40 -2.764586e-06 0.6303743 -8.382596e-14
-4.492814e-07 0.28966525 0.8679076 -7.4515237e-13 -0.8464738 0.2647756 0.66357416 0.00031611405
-1.376951e-39 -1.4134955e-13 2.5237434e-05 3.2112968e-17 -1.1905924e-38 -2.3770517e-07 0.87868863 -9.469072e-14
-8.990337e-07 0.34045646 0.653819 1.1233314e-23 -0.7313888 0.54500544 0.59015906 1.344255e-06
3.94011e-40 7.0529915e-13 -3.2856922e-06 -5.4126706e-17 1.90767e-40 1.2327197e-07 -0.348469 1.5302149e-15
1.6614948e-08 -0.19260691 -0.2117546 -2.811005e-25 0.26252738 -0.056807466 -0.34178486 -1.1071664e-36
2.68992e-39 6.8577495e-14 3.4828598e-05 1.2339451e-15 -2.75641e-40 -3.7708492e-06 0.87741923 -4.926457e-15
2.954908e-07 0.14838482 0.6689744 -3.895518e-19 -0.803914 0.4573516 0.78314316 1.7601931e-05

linear.weight f4 [1, 16]
00000000: 2d1b e0bf e8a9 253e d88d a2bf 0f5e 24c0
00000010: 5935 143e e533 01c0 8c87 1cc0 dd92 95bf
00000020: 782f 01c0 9856 26c0 5dcb 913f 6734 f43f
00000030: c482 5240 adde 0f40 41a5 8bbe 1bab 2540
-1.7508293 0.16178095 -1.2699537 -2.568241 0.14473476 -2.0187924 -2.4457731 -1.1685444
-2.0185223 -2.5990353 1.1390187 1.9078492 3.2892313 2.247966 -0.27274516 2.5885684
