RL gym coherence/models/Taxi_GCN_UUS_URS_3.pt (torch, 4150 bytes, 5 tensors)

conv1.bias f4 [16]
00000000: 2d5a cdb9 d730 02bb 6694 16b9 8e5a c2bf
00000010: 6236 1290 c10c 83b4 c261 bbbf 1f3b c52e
00000020: aa70 55bb 5935 0180 cedc 0ab2 3c59 54ae
00000030: 326c b2bd eecc dfb5 10f0 f7be ddd8 278b
-0.00039167833 -0.0019865537 -0.00014360397 -1.5183885 -2.8835318e-29 -2.440993e-07 -1.4639208 8.969025e-11
-0.0032568374 -1.10973e-40 -8.082862e-09 -4.8282475e-11 -0.08712043 -1.6674437e-06 -0.4842534 -3.232618e-32

conv1.lin.weight f4 [16, 1]
00000000: bb38 b438 dd1f b639 0a52 79b5 df9e 7d3f
00000010: 46a5 9d90 e34a 57bb d15b 733f 537d 12af
00000020: 83b8 413a a980 679e 0030 06b8 209c 37b7
00000030: 502d a03c 62cc 6234 fb29 f23d a9e2 7eac
8.593636e-05 0.00034737485 -9.287911e-07 0.99070543 -6.2180225e-29 -0.0032851032 0.95061976 -1.3323147e-10
0.000738986 -1.22556445e-20 -3.1992793e-05 -1.0944001e-05 0.019552857 2.1122244e-07 0.118244134 -3.6221393e-12

conv2.bias f4 [16]
00000000: 7873 d2bf fc5e e93f 0b6b 5bbf 6367 b83f
00000010: 4b97 aabf ec56 8ebf 993d 3d3d aaa6 7c3b
00000020: 9f8f f13f 8783 873d 414b b73f e0a8 9bbc
00000030: f0e2 933c 3788 d23f 31c3 223d 19cd ec3f
-1.6441488 1.8232112 -0.8571021 1.4406551 -1.3327421 -1.1120276 0.046201322 0.0038551488
1.8871955 0.06616884 1.4319841 -0.019001424 0.018052548 1.644782 0.03973693 1.8500091

conv2.lin.weight f4 [16, 16]
00000000: 2b03 3f35 a44a f0b7 5a05 e1b3 33c7 843f
00000010: 849b 788e f6cd 2314 6f56 513f d3e7 96ae
00000020: 60d6 b435 b5ea 0080 b7e7 0800 246e 0080
00000030: be73 87bb 44e5 5a21 e82c 14bc 40e1 728a
00000040: 7d80 6eb6 2a7e da38 9a6d dab6 1815 a7bf
00000050: 50f9 238e b0f2 90b4 3d25 a9bf 5525 442e
00000060: bcfa 1eb8 f934 0180 6c59 0180 9d9e fa2f
00000070: 503b 38bd a6c6 5e30 fcd3 2dbe 42e6 8d88
00000080: 99b1 d9b4 4d7c e4b7 ad8b d135 d174 e93e
00000090: f44c d28c 0115 0000 9623 fc3e 1ddc cdad
000000a0: 3ddd 0137 7d00 0000 77f6 0000 6155 0180
000000b0: efdf 14bb 8d5f 15af 6702 17bb 6450 9a89
000000c0: b037 b2b4 4e17 3b3a 8100 a236 8f5d 44bf
000000d0: d871 760e 3e3b 922c 698f 57bf 12e0 8a2e
000000e0: c128 7db9 edc7 0000 6fa6 0100 b6f9 0000
000000f0: 735e 043c f944 9431 3a62 403c 450b 8b0a
00000100: f8ec 03b6 5edc 3ab7 7c77 8836 434d 343f
00000110: 60b9 fe0e cc26 3c08 51b8 453f bae1 c5ae
00000120: f0aa a737 9525 0000 56a5 0100 08e8 0000
00000130: 4add 56bb 64e8 94b0 e203 edbb c7b0 fe8a
00000140: d868 e1b2 c530 e13a 3fdc 12b5 0f9a 1b3f
00000150: 38cb a08d de6a c4ae 7ed0 1c3f 685c 0fae
00000160: 53bc eab9 0780 0000 d21f 0000 9b01 0000
00000170: c0b6 72bc 5eaa 84b3 0306 bcbb 305b 918a
00000180: c576 53b3 c510 9439 6e5f c334 6a71 903d
00000190: 685f e90b 5299 7087 48fb 963d 8e7e 73ab
000001a0: aab4 49b8 04fc 0000 2f66 0000 5ff0 0000
000001b0: 719a 38bb a8b7 b3af b035 7eb9 2013 cc88
000001c0: e817 69b3 b6e2 06ae f700 b830 81ff cfbc
000001d0: 59f1 108b 7e5a 0000 6e00 bebc 83ee 81ab
000001e0: 7279 11b4 2e7b 0000 b00b 0000 c003 0100
000001f0: 3215 b6b5 9a00 6a24 fa72 acb7 3403 7906
00000200: 64ff 2cb5 7727 a5ba c48e 43b7 4c13 77bf
00000210: d133 840e 2ad7 83a9 09f1 a2bf 46d5 d52e
00000220: 620c eab8 b62e 0100 d91a 0000 671c 5204
00000230: 224b 903c 48cb 1f32 4a73 ed3c 5a69 158a
00000240: 3625 fab2 60e0 0833 0372 95af bcc4 87bd
00000250: 1de2 278b f142 0080 2c5d 3cbd 3907 6eaa
00000260: 465b afb4 e5ad 0000 34fe 0000 b874 0100
00000270: 9813 4737 be02 44a0 bcc8 b6b7 1166 0707
00000280: 65f4 4d35 ada6 0434 c3c0 abb6 4993 38bf
00000290: bf1a e70e 0d12 0080 a171 61bf c0b0 662e
000002a0: 107f f9b7 447a 0000 1acc 0000 443e 0080
000002b0: c680 8e3b 1ef1 0b30 605a 263c 4cb2 e50a
000002c0: e233 d5b3 45a0 1c32 9c90 97ae b8e0 1fbd
000002d0: 66f7 8c89 c673 0000 3dde 15bd fd65 d5aa
000002e0: c88a 55b5 6945 0180 d252 0180 a301 0100
000002f0: fb84 85b6 f8e9 0f9f 59da eab8 c329 7d07
00000300: e8f3 6633 6e7f 69b2 42e6 a4af 946d 043d
00000310: c812 bd09 581c f598 2139 fb3c 224f d92a
00000320: 1fa4 fa34 6426 0100 17c3 0000 250c 0100
00000330: 9130 e235 3619 33a4 49c0 9138 a843 6a87
00000340: 6887 9336 4672 f637 846b 6cb6 0380 83bf
00000350: 15bc 6b8f 90f9 0000 ab09 54bf b103 db2e
00000360: 35bb 82b7 661e 0000 d709 0180 500d 0000
00000370: 189c 7e3b 8ad7 252b f32d 293c 86ae d80a
00000380: 18bc 8934 d96f 3936 ec7e 8fb2 15b5 aa3d
00000390: 00a8 670a 3cac 1f05 eeaf 9a3d d8ad a32b
000003a0: 47f2 2035 4678 0000 6a15 0180 d426 0080
000003b0: 17ab 5239 1773 1aac 54b6 b138 9318 5388
000003c0: 9002 8a32 6b2c 6f3a 9678 8b37 3f73 b0bf
000003d0: e6db 4e0e 9406 a4ae ca82 49bf 6ceb cd2e
000003e0: 56a5 2839 c1b4 0000 5a5e 0100 d910 4212
000003f0: 998d 88bc bee4 2433 a107 bb3b 4841 ef89
7.1157655e-07 -2.8644987e-05 -1.04783524e-07 1.0373291 -3.0643238e-30 8.2700156e-27 0.8177251 -6.8623905e-11
1.3473436e-06 -8.4197e-41 8.17808e-40 -3.9511e-41 -0.0041336706 7.4164704e-19 -0.00904391 -1.1694241e-32
-3.5539554e-06 0.0001041855 -6.5096656e-06 -1.3053312 -2.021134e-30 -2.6998669e-07 -1.3214489 4.4598398e-11
-3.790365e-05 -1.10839e-40 -1.23914e-40 4.5587437e-10 -0.04497844 8.1045426e-10 -0.16975397 -8.540262e-34
-4.054862e-07 -2.72376e-05 1.5612364e-06 0.45596936 -3.2401938e-31 7.535e-42 0.492459 -2.3403552e-11
7.74051e-06 1.75e-43 8.8415e-41 -1.22464e-40 -0.0022716483 -1.3585418e-10 -0.0023042203 -3.714975e-33
-3.3195602e-07 0.00071369566 4.828035e-06 -0.7670526 3.0376655e-30 4.1561468e-12 -0.842032 6.315316e-11
-0.00024143142 7.172e-41 1.5154e-40 8.958e-41 0.008079159 4.315208e-09 0.011742169 1.3389452e-32
-1.9658455e-06 -1.1137772e-05 4.0670257e-06 0.7043039 6.2794344e-30 5.6619798e-34 0.7723437 -8.99862e-11
1.998755e-05 1.3482e-41 1.51147e-40 8.3237e-41 -0.0032785707 -1.0834467e-09 -0.007233129 -2.4525807e-32
-2.6241125e-08 0.0017180672 -5.470974e-07 0.6078195 -9.909684e-31 -8.9320315e-11 0.61255634 -3.259651e-11
-0.0004477227 4.5928e-41 1.1415e-41 5.76e-43 -0.014814079 -6.1777186e-08 -0.0057380213 -1.3997293e-32
-4.9235286e-08 0.00028241254 3.6391015e-07 0.07052882 8.9891887e-32 -1.810065e-34 0.07372147 -8.650657e-13
-4.809039e-05 9.0406e-41 3.6657e-41 8.6229e-41 -0.0028168226 -3.2690406e-10 -0.00024243328 -1.22823e-33
-5.4271283e-08 -3.0669432e-11 1.3388036e-09 -0.025390388 -2.791496e-32 3.2462e-41 -0.023193564 -9.232202e-13
-1.3548359e-07 4.4189e-41 4.193e-42 9.3181e-41 -1.3566225e-06 5.074117e-17 -2.0557538e-05 4.6834048e-35
-6.4446635e-07 -0.0012600262 -1.1656146e-05 -0.9651382 3.259041e-30 -5.854894e-14 -1.2729808 9.7240035e-11
-0.00011160296 1.08592e-40 9.631e-42 2.4698423e-36 0.017613951 9.301239e-09 0.028985638 -7.1939035e-33
-2.9120752e-08 3.1869035e-08 -2.7183952e-10 -0.06629321 -3.233314e-32 -2.4014e-41 -0.045987293 -2.1141152e-13
-3.26627e-07 6.2382e-41 9.1191e-41 1.33706e-40 1.1865886e-05 -1.6602753e-19 -2.1789565e-05 1.0186266e-34
7.672409e-07 1.2354094e-07 -5.1186375e-06 -0.7209974 5.6971652e-30 -6.475e-42 -0.8806401 5.245293e-11
-2.9742281e-05 4.386e-41 7.3218e-41 -2.2337e-41 0.004348847 5.0910554e-10 0.010153383 2.2118966e-32
-9.928023e-08 9.116836e-09 -6.892373e-11 -0.039032668 -3.3936426e-33 4.1532e-41 -0.036588896 -3.790717e-13
-7.9550637e-07 -1.16735e-40 -1.21546e-40 9.2423e-41 -3.97919e-06 -3.0474962e-20 -0.0001119866 1.9045877e-34
5.377288e-08 -1.3591359e-08 -2.9995034e-10 0.032331064 4.5517757e-33 -6.3359636e-24 0.03066689 3.8601853e-13
4.6685543e-07 1.05607e-40 6.9985e-41 9.6192e-41 1.6852447e-06 -3.8835792e-17 6.949955e-05 -1.7624086e-34
4.3967048e-06 2.9378698e-05 -3.5229323e-06 -1.0273441 -1.1622618e-29 8.9526e-41 -0.8282725 9.959623e-11
-1.5584383e-05 1.0905e-41 -9.5365e-41 4.776e-42 0.0038850363 5.8918896e-13 0.010325897 2.0865692e-32
2.5655095e-07 2.7632252e-06 -1.6705108e-08 0.0833532 1.1153843e-32 7.5077785e-36 0.07553087 1.1630098e-12
5.9957205e-07 4.3146e-41 -9.9517e-41 -1.3929e-41 0.00020090897 -2.1948604e-12 8.473979e-05 -6.352439e-34
1.606648e-08 0.0009123745 1.6626243e-05 -1.378517 2.5497338e-30 -7.459025e-11 -0.78715193 9.36414e-11
0.00016083321 6.4842e-41 1.25682e-40 6.1236373e-28 -0.016669082 3.8392265e-08 0.0057076965 -5.7598547e-33

linear.weight f4 [1, 16]
00000000: 6ce7 13c0 9102 2740 3b26 06bf 6dfc f93f
00000010: 6101 cdbf 52f9 91bf 1620 373d 86c8 17bc
00000020: 1941 6840 e638 14bc 9874 f33f dc2e cebc
00000030: 2ece e23c 601a 1240 13b0 8f3d b87f 6240
-2.3109999 2.6095316 -0.52402085 1.9530159 -1.6016046 -1.1404212 0.044708334 -0.009264117
3.6289732 -0.009046769 1.9019957 -0.025168829 0.027686205 2.2828598 0.07016005 3.5390453
