RL gym coherence/models/Taxi_GCN_USS_URS_25.pt (torch, 4160 bytes, 5 tensors)

conv1.bias f4 [16]
000000 39 a1 3f bc 21 ac ac 9f d3 d0 a4 a5 17 c7 56 bf
       -0.011696153 -7.31296e-20 -2.859097e-16 -0.83897537
000010 84 8f 6a bf e5 f9 1f bb 71 ad 7e bf 49 47 58 bd
       -0.9162524 -0.0024410423 -0.994834 -0.052802358
000020 55 3c 07 99 6e 82 06 bb a7 6f e5 b6 83 7e 65 bf
       -6.99152e-24 -0.002052452 -6.83773e-06 -0.89646167
000030 6a 44 88 01 fa 93 ab bc 65 06 92 85 0d 4b 37 3f
       5.005668e-38 -0.020944584 -1.3732123e-35 0.71598893

conv1.lin.weight f4 [16, 1]
000000 10 ac 41 bc 8d 4c 99 b0 77 50 38 b3 4f cb e6 3e
       -0.011820808 -1.1153972e-09 -4.291402e-08 0.45076987
000010 0b f5 03 3f 86 8a a3 39 cd 6e 16 3f dd 4e 6a bd
       0.5154578 0.0003119299 0.5876282 -0.057204116
000020 38 71 19 99 03 ab cc bb d6 68 d7 ba 4c 45 f7 3e
       -7.932779e-24 -0.006245972 -0.0016434442 0.48295057
000030 4c dd c7 a7 6b d7 9d bc 7c 57 b2 90 0e 2a 8d be
       -5.5473526e-15 -0.019267758 -7.034341e-29 -0.27571148

conv2.bias f4 [16]
000000 8e ea 48 3f e2 c3 46 bf ad e9 4a 3f 43 9a 4c 3f
       0.784829 -0.77642643 0.7926281 0.79922885
000010 b2 6d 10 3f 69 98 62 3f 81 bf 56 bf 1b 17 c3 3e
       0.5641738 0.8851381 -0.8388596 0.38103566
000020 83 b1 ea be 18 4e 54 bf 3e 46 1d 3f 82 fa 38 3f
       -0.45838556 -0.8293166 0.61435306 0.72257245
000030 d3 a0 38 3f e7 b6 6f bf 7c a4 0b 3f 78 b4 20 bf
       0.721204 -0.9363846 0.5454786 -0.62775373

conv2.lin.weight f4 [16, 16]
000000 02 ff bc 39 bf 88 02 80 71 65 01 80 f6 da 9e be
       0.0003604815 -2.32726e-40 -1.28226e-40 -0.3102643
000010 4a 80 5d bf c5 f2 a8 bc d9 b8 5f bf 83 9b 26 bd
       -0.8652388 -0.020623574 -0.8739143 -0.04067565
000020 5b 27 3c 98 ec 8a 10 3d 31 1a 19 ad 88 20 00 bf
       -2.43183e-24 0.035288736 -8.702859e-12 -0.5004964
000030 18 55 3c 81 cb 70 b6 bb f9 91 de 84 5a a4 02 3f
       -3.4591198e-38 -0.005567645 -5.2326004e-36 0.5103203
000040 eb cc 1c b9 74 41 01 00 0d 76 02 80 73 0a 00 3f
       -0.00014953657 1.15316e-40 -2.2602e-40 0.50015944
000050 7c 72 5f 3f 91 1d fb b6 16 b0 33 3f 47 d4 33 3d
       0.87284064 -7.483825e-06 0.7019056 0.043903615
000060 e1 04 5b 18 65 8f ff b8 f2 57 8f 1f 3d ac c3 3e
       2.830755e-24 -0.00012186057 6.070835e-20 0.38217345
000070 3e 0e 04 00 af 5d c2 3b de 45 d7 04 50 87 0c bf
       3.72451e-40 0.005931578 5.061042e-36 -0.5489397
000080 07 02 2a 3a e8 11 00 00 76 b7 01 80 8b 81 fe be
       0.00064852874 6.424e-42 -1.57649e-40 -0.49708208
000090 91 db ca be b4 df 70 bb 23 56 62 bf fb 5d 24 bd
       -0.3962064 -0.0036754431 -0.88412684 -0.04012869
0000a0 6e 88 21 98 35 2a e6 3c 69 d8 f2 ab df 0a 6c bf
       -2.0877642e-24 0.028096298 -1.72552e-12 -0.9220409
0000b0 69 ca 26 81 2c 3d b5 bb 03 1b 06 85 9e 16 02 3f
       -3.0634607e-38 -0.005530974 -6.305611e-36 0.5081576
0000c0 f0 7c c3 39 15 67 00 00 c6 18 02 00 31 fb 59 bf
       0.00037286384 3.6979e-41 1.92558e-40 -0.8514891
0000d0 5a 10 e0 be a2 52 8e 38 c8 01 4a bf a1 12 2f bd
       -0.43762475 6.786479e-05 -0.7890897 -0.042742375
0000e0 d8 a3 63 98 09 db 0d ba ea 21 83 a9 13 77 e0 be
       -2.9421782e-24 -0.0005411362 -5.823452e-14 -0.43840846
0000f0 8b 4a 73 80 f1 3b c4 bb 40 72 9d 81 d6 51 11 3f
       -1.0587823e-38 -0.005988591 -5.783663e-38 0.56765497
000100 8c 1c 75 35 71 6e 01 00 9f 96 01 80 d7 72 30 bf
       9.1311153e-07 1.31454e-40 -1.45868e-40 -0.6892523
000110 43 ad 98 be 4d 92 61 bc 9d 2f b2 be 30 2e fb bc
       -0.29819688 -0.013767791 -0.3480195 -0.030661672
000120 50 11 40 95 f3 c5 f8 b9 b4 41 14 80 d2 a2 01 bf
       -3.8787748e-26 -0.0004744973 -1.86028e-39 -0.5063907
000130 8d 88 14 00 ca 99 80 bb 43 28 e0 84 3e 9d b4 3e
       1.885695e-39 -0.003924583 -5.269912e-36 0.35276216
000140 9d fc 4b 3a c1 9c 00 00 d8 95 00 80 30 b8 51 bf
       0.0007781478 5.6233e-41 -5.3754e-41 -0.8192167
000150 be 8d 6a bf 6f 9c e0 3a 06 a9 fe be 36 e8 29 bd
       -0.9162253 0.0017136465 -0.4973833 -0.04148122
000160 0e cb 58 98 57 b6 7f 3b 4f dd d1 ab e8 c6 51 bf
       -2.8019862e-24 0.0039018595 -1.4911769e-12 -0.8194413
000170 6e f7 3e 81 bf 44 d9 bb 94 ec 9f 84 49 6e 15 3f
       -3.507501e-38 -0.0066305096 -3.7597983e-36 0.58371407
000180 ee 47 0b b5 54 c3 03 80 43 b4 00 00 27 94 0b 3f
       -5.1886207e-07 -3.45577e-40 6.4666e-41 0.5452294
000190 d4 12 32 3f b9 19 c9 b2 49 5d 39 3f d2 4a 24 3d
       0.6955998 -2.3411177e-08 0.72407967 0.040110417
0001a0 fa fe 31 18 52 b9 01 29 38 0c 01 80 f7 b8 2b 3f
       2.3005444e-24 2.8804494e-14 -9.6219e-41 0.6707911
0001b0 ab 00 0b 00 10 e6 be 3b 96 3e dc 04 ff 4c 00 bf
       1.01043e-39 0.0058257654 5.1779228e-36 -0.50117487
0001c0 df fa 00 00 53 5f 03 80 4c 46 02 80 e9 d8 87 be
       8.9996e-41 -3.09702e-40 -2.08889e-40 -0.26532677
0001d0 89 13 90 be f2 eb d9 31 cd 80 a3 be 75 c2 d9 bb
       -0.28139904 6.342355e-09 -0.31934205 -0.0066454955
0001e0 5a a3 2d 17 b7 da 98 a9 f9 81 00 80 2b 71 91 be
       5.6105493e-25 -6.788097e-14 -4.6625e-41 -0.28406653
0001f0 12 c7 01 80 29 de 3b ba 0e af 98 84 9b e2 06 3e
       -1.63248e-40 -0.00071665883 -3.589579e-36 0.1317238
000200 24 1d dc af 09 82 00 00 e8 b0 01 00 0d 31 c4 3e
       -4.0038473e-10 4.6648e-41 1.55298e-40 0.38318673
000210 00 d5 5d 3e 5a 97 fa ba 35 10 cb 3e 26 d5 82 3c
       0.21663284 -0.0019118593 0.39660802 0.015970778
000220 aa cd ce 97 5a 71 2b 3c 81 20 02 00 f6 95 c9 3e
       -1.3364355e-24 0.010464037 1.95331e-40 0.39372224
000230 2b 21 66 00 a0 38 e7 3a f6 84 e1 83 cf dd 44 be
       9.379119e-39 0.0017640777 -1.3254838e-36 -0.19225238
000240 6f a5 ef b9 d9 0b 01 80 d5 3d 00 00 0f d8 24 3f
       -0.0004570889 -9.6086e-41 2.2181e-41 0.6439218
000250 0a e6 73 3f ae 3e 98 39 17 ef d3 3e fc 2a 2e 3d
       0.95272887 0.000290384 0.4139335 0.04252146
000260 de 41 5b 18 15 56 39 3b d8 d0 a6 29 7c bc 26 3f
       2.8338341e-24 0.0028280069 7.4081095e-14 0.65131354
000270 de fb a7 00 93 d4 f7 3b 4a 7d 8e 04 f8 55 0a bf
       1.5426881e-38 0.0075631826 3.34991e-36 -0.5403743
000280 c1 5c 93 29 31 5e 03 80 54 07 02 00 e0 f4 1b bf
       6.5442016e-14 -3.09296e-40 1.863e-40 -0.60920525
000290 fb 12 0a bf 86 bc 07 35 fb a5 07 bf 40 17 14 bd
       -0.5393521 5.0565757e-07 -0.5298764 -0.036154985
0002a0 4c b5 84 97 fd f6 a0 b6 6d bb 00 80 d4 88 9a be
       -8.576066e-25 -4.797125e-06 -6.7236e-41 -0.30182517
0002b0 3f b9 97 81 d5 8e b2 bb 90 f1 0d 85 2b 43 ca 3e
       -5.5734455e-38 -0.005449156 -6.674156e-36 0.3950437
0002c0 1b 3b c5 38 c9 31 00 80 db 69 80 00 c8 d9 20 bf
       9.404701e-05 -1.786e-41 1.1792917e-38 -0.6283231
0002d0 d6 85 2a bf 65 fa a0 3c 8b c3 23 bf 86 08 f4 bc
       -0.6661047 0.019650647 -0.6397025 -0.02978922
0002e0 ec 2d 88 16 e4 74 0b bd d4 3e 0f a0 a9 86 57 bf
       2.2000966e-25 -0.034047022 -1.2133359e-19 -0.8418985
0002f0 37 fe 71 00 cc df 5e bb 26 72 3e 85 a0 95 c8 3e
       1.0468606e-38 -0.0034007905 -8.954723e-36 0.39176655
000300 a7 54 04 38 42 b4 00 00 cd 68 01 80 07 17 fb be
       3.155009e-05 6.4664e-41 -1.29431e-40 -0.49041006
000310 70 64 1b bf 87 50 19 37 d4 1d 2e bf 60 30 2a bd
       -0.6070013 9.13826e-06 -0.68014264 -0.04155004
000320 3b 09 44 98 02 1c a2 b7 bd 2f 63 97 f0 95 06 bf
       -2.5337066e-24 -1.9324947e-05 -7.340791e-25 -0.52572536
000330 26 da 8e 81 cf a5 b5 bb ea d4 11 85 21 0f 03 3f
       -5.247559e-38 -0.0055434476 -6.8569734e-36 0.5119496
000340 e1 d1 f1 b7 9e 13 00 80 fd 68 01 00 61 10 2c 3f
       -2.8827171e-05 -7.037e-42 1.29498e-40 0.6721249
000350 d8 7b 15 3f fe 93 03 b5 24 36 5f 3f d1 83 21 3d
       0.58392096 -4.901666e-07 0.8719199 0.03943235
000360 1e c1 27 18 1e 43 a8 35 5d 70 4f 1a 06 e5 36 3f
       2.1681743e-24 1.2536509e-06 4.2897363e-23 0.7144321
000370 a3 6e 34 01 10 cc ae 3b d0 73 d2 04 e1 44 fe be
       3.3140157e-38 0.0053343847 4.947712e-36 -0.49661925
000380 13 41 ce 32 de 23 02 80 01 4f 03 80 db 46 3f be
       2.4011149e-08 -1.96538e-40 -3.03848e-40 -0.18679373
000390 ac 92 12 bf c3 59 89 ba 3e 0c 09 bf 4d 77 f1 bc
       -0.57255054 -0.0010479022 -0.53534305 -0.029475832
0003a0 54 69 d6 16 a2 fb 0a bc 50 47 00 00 67 da b7 be
       3.4640036e-25 -0.0084828455 2.5582e-41 -0.35908815
0003b0 ce b6 06 81 d3 e3 6b bb a1 cf 1b 85 2c fb a3 3e
       -2.474307e-38 -0.0035993948 -7.3262004e-36 0.32027566
0003c0 dc f9 df 99 3e 00 00 80 33 b2 01 00 62 bd c9 3e
       -2.3158577e-23 -8.7e-44 1.55761e-40 0.394023
0003d0 c7 fc e1 3e ad ef e3 b3 ae fa 2f 3f 9f ca 0a 3d
       0.44138166 -1.0614108e-07 0.6874188 0.03388464
0003e0 16 14 53 17 ca e7 10 2f ac 73 00 00 a7 3a e3 3e
       6.820313e-25 1.3179072e-10 4.1495e-41 0.44380686
0003f0 8a 62 f9 00 1f 51 ba 3b 54 78 3b 05 dd 54 ca be
       2.2902388e-38 0.00568594 8.8147985e-36 -0.3951787

linear.weight f4 [1, 16]
000000 de e5 19 c0 3f d1 2b 40 7e 4f 0d c0 88 b1 31 c0
       -2.404655 2.6846464 -2.2079768 -2.7764606
000010 f3 8d 98 bf 20 4e 2c c0 68 17 1c 40 18 cb a0 be
       -1.191832 -2.6922684 2.4389286 -0.31404948
000020 53 52 17 3f fa 1f 2c 40 eb f2 ca bf 23 d3 9f bf
       0.5910999 2.6894517 -1.5855383 -1.2486309
000030 6b be 1b c0 b7 e5 1a 40 10 c4 91 bf 3c 20 ce 3f
       -2.4334972 2.4202707 -1.1387959 1.6103587
