RL gym coherence/models/Taxi_GCN_UUS_URS_18.pt (torch, 4160 bytes, 5 tensors)

conv1.bias f4 [16]
-1.2133578 -4.791979e-05 -0.5013217 3.115798e-33 -0.0002130502 -4.7103354e-15 -1.4613914 -0.0019750318
-1.2542825 -2.955e-42 -1.0048787e-28 -0.0007445491 -0.27310315 -5.7228754e-32 -3.7565036e-13 -6.783541e-05
00000000: 4f4f 9bbf 7cfd 48b8 9e56 00bf d96c 8109
00000010: 3a66 5fb9 2db5 a9a7 e00e bbbf 896f 01bb
00000020: 548c a0bf 3d08 0080 5bc4 fe90 d82d 43ba
00000030: 2dd4 8bbe 0893 948b ec78 d3aa dc42 8eb8

conv1.lin.weight f4 [16, 1]
0.64055806 -8.229706e-06 0.12294509 -2.7705417e-23 2.6932452e-05 -6.259833e-15 1.0548785 0.00043310688
0.7107853 -1.3155154e-16 -1.2131557e-28 0.00016436625 0.06449693 -8.697916e-11 -4.904286e-06 -0.0013612855
00000000: 9dfb 233f 5112 0ab7 a3ca fb3d a5f9 059a
00000010: 00ed e137 c588 e1a7 4206 873f 9f12 e339
00000020: 07f6 353f 29ab 17a5 27c9 1991 bb59 2c39
00000030: f716 843d ea44 bfae 7f8f a4b6 296d b2ba

conv2.bias f4 [16]
-1.5340496 1.0686973 -0.24178521 -1.8206819 1.2635013 1.6335135 -0.9571662 0.031077676
1.9309607 0.08275981 1.8383641 0.04798156 -0.016868705 -1.3090262 1.6777934 -1.2810025
00000000: bd5b c4bf 13cb 883f 8b96 77be 1b0c e9bf
00000010: 69ba a13f f816 d13f d808 75bf 9c96 fe3c
00000020: b829 f73f fa7d a93d 844f eb3f 5088 443d
00000030: 3d30 8abc 2c8e a7bf efc1 d63f e4f7 a3bf

conv2.lin.weight f4 [16, 16]
0.33579716 -1.6433338e-05 -0.014122624 -3.4516026e-33 -0.00015260556 3.8618323e-16 0.9651687 1.7156442e-05
0.5674013 -6.4954e-41 5.535355e-29 -4.6479374e-07 -0.0030100974 1.1886801e-31 -4.993e-41 -2.2768852e-07
-0.14531286 -1.723117e-05 0.0024115986 2.5565333e-33 -5.845344e-07 -1.4146633e-16 -0.7635006 -2.7032766e-06
-0.25154555 -6.1982e-41 4.319538e-29 -6.302207e-08 0.0012498377 5.4362294e-32 1.19046e-40 2.541512e-18
0.035549376 3.159276e-07 -0.00016332918 -4.3659703e-35 5.1715006e-09 -1.742829e-18 0.19292983 7.9020346e-08
0.060668726 -1.02474e-40 -3.931801e-31 1.970709e-08 -1.7252474e-05 -1.6005526e-33 -4.252e-41 -1.6358285e-13
0.6041723 0.0003028754 -0.002144981 -4.8114475e-33 2.8168004e-06 7.5949855e-16 1.1919937 -4.564937e-06
0.5417312 1.7068e-41 -1.8910954e-28 9.769992e-07 -0.0052880556 1.456708e-31 9.3548e-41 -1.9196e-41
-0.20853046 2.464854e-05 0.00878882 3.3196313e-33 1.516878e-05 -3.0807584e-16 -0.7370308 -1.1844865e-05
-0.57134587 1.27515e-40 -5.2851165e-29 -6.535836e-07 0.0021794485 -9.7857483e-32 -2.68e-42 -1.2626666e-08
-0.5872761 5.1658553e-05 -0.05930108 2.0265067e-33 -9.519072e-06 1.008925e-16 -1.3541125 -2.5165486e-06
-0.5719724 5.1458e-41 -3.830637e-29 -3.6635192e-06 -0.042057674 -4.6095527e-32 -1.2776631e-15 2.2769707e-10
0.13143069 -3.5113568e-05 -0.0011530656 -1.7377687e-33 4.9668694e-07 2.4430362e-16 0.65368426 1.6969844e-06
0.27918753 8.328e-41 2.8320093e-29 -8.544377e-07 -0.0008656025 -1.8994749e-32 1.14322e-40 1.921368e-31
-0.022500325 -1.9044536e-07 -3.1896485e-05 -2.4721002e-35 -8.905987e-09 -3.223521e-18 -0.060977742 -2.2521805e-07
-0.029086461 -4.335e-41 2.136125e-31 -5.5795965e-08 -3.12555e-05 -5.4158804e-34 1.20188e-40 8.648907e-24
-0.6200788 7.1951727e-06 -0.002525506 3.640299e-33 -3.257613e-06 -1.8073798e-15 -1.2497578 5.0347016e-06
-0.67234933 1.0101e-40 -1.9615267e-28 3.0875187e-06 0.0055833976 -4.4031165e-32 4.6952e-41 -4.337e-42
-0.021853138 1.2369419e-07 6.661938e-05 -4.6680686e-36 1.7557966e-08 3.9530598e-18 -0.0870578 -7.063661e-08
-0.02745786 1.2864e-41 -1.0048302e-32 -6.871933e-09 -1.3539919e-05 -6.668979e-36 2.6179e-41 3.524451e-13
-0.5438807 3.0827014e-05 0.0471275 3.440218e-33 -7.970025e-06 -7.5267967e-16 -1.2785784 2.6292919e-05
-0.4843575 6.3676e-41 -8.883202e-29 -4.3636135e-08 0.0072260927 3.2654428e-32 -6.49e-43 3.2068536e-07
0.038966313 -4.5457335e-07 0.0002597526 1.1562137e-34 3.825603e-07 4.8148984e-18 0.07237277 4.1079707e-07
0.0683877 9.2463e-41 4.412011e-31 1.1844858e-07 9.349723e-05 8.642712e-34 5.3843e-41 1.7646428e-11
-0.06655148 2.9768826e-06 -0.00023580997 -1.120859e-34 -5.3254457e-08 -1.5665739e-17 -0.109865196 -2.4758594e-06
-0.07418955 1.07353e-40 2.3171457e-30 -2.7089416e-07 -6.8999776e-05 -2.470138e-33 -1.20408e-40 6.0018e-41
0.28624701 -3.6998877e-05 -0.012690085 -3.4392614e-33 -3.0401096e-05 2.2237738e-17 0.87518054 6.890685e-06
0.33679786 6.8835e-41 6.558511e-29 6.845365e-07 -0.002432532 1.3710852e-31 -3.8412e-41 -9.381271e-09
-0.39802614 -3.980489e-05 -0.13390057 2.6634707e-33 -1.551645e-06 1.6665495e-16 -1.3237815 -3.509381e-06
-0.85059166 -6.3856e-41 4.810209e-29 6.3088726e-07 -0.03285547 -2.9485025e-32 -2.2400257e-16 -3.408699e-13
0.24520332 4.7304544e-05 -0.004756375 -3.7477728e-33 8.822786e-07 2.4191817e-16 0.84966344 3.885919e-06
0.36349308 -4.7147e-41 -7.031761e-29 3.6974149e-07 -0.0017729395 -5.100216e-32 9.392e-42 -1.6542441e-17
00000000: 9bed ab3e 53da 89b7 9462 67bc bc5f 8f89
00000010: be04 20b9 969e de25 4c15 773f 2eeb 8f37
00000020: 3641 113f 11b5 0080 8256 8c10 c488 f9b4
00000030: 0e45 45bb ac4c 1a0c 2f8b 0080 8b7a 74b4
00000040: e5cc 14be a88b 90b7 e90b 1e3b 7363 5409
00000050: e6e8 1cb5 7e19 23a5 c674 43bf f069 35b6
00000060: 94ca 80be c8ac 0080 cf06 5b10 c056 87b3
00000070: 98d1 a33a f121 8d0b da4b 0100 ce87 3b22
00000080: 399c 113d c29c a934 5843 2bb9 8222 6886
00000090: 00b1 b131 1c99 00a2 668f 453e e5b1 a933
000000a0: c57f 783d a81d 0180 4030 ff8c 5948 a932
000000b0: 68b9 90b7 fdf7 0489 8776 0080 8c2d 38aa
000000c0: 09ab 1a3f 40cb 9e39 cf92 0cbb 16dc c789
000000d0: 4308 3d36 1ae9 5a26 4093 983f 832c 99b6
000000e0: e5ae 0a3f 942f 0000 8eb9 6f91 7021 8335
000000f0: 6d47 adbb 6d17 3d0c c604 0100 8335 0080
00000100: 0289 55be 56c4 ce37 fcfe 0f3c 60e4 8909
00000110: 6a7d 7e37 f897 b1a5 0dae 3cbf 4fb9 46b7
00000120: b943 12bf 7663 0100 5efe 8590 ec71 2fb5
00000130: 14d5 0e3b 740d fe8b 7907 0080 aaec 58b2
00000140: ba57 16bf f3ab 5838 b0e5 72bd 085b 2809
00000150: 1ab4 1fb7 6ca4 e824 8f53 adbf fae1 28b6
00000160: c96c 12bf 728f 0000 833c 4290 c8da 75b6
00000170: ab44 2cbd 7757 6f8b 7321 b8a6 075b 7a2f
00000180: c495 063e e846 13b8 7622 97ba 415e 1089
00000190: 1154 0535 dad4 8c25 da57 273f f1c3 e335
000001a0: abf1 8e3e 27e8 0000 9599 0f10 835c 65b5
000001b0: 9ae9 62ba b440 c58a af3e 0100 6768 790c
000001c0: 9a52 b8bc 397d 4cb4 97c8 05b8 7c70 0386
000001d0: f200 19b2 97da 6da2 ccc3 79bd 77d3 71b4
000001e0: bb46 eebc d878 0080 77a4 8a0c 50a4 6fb3
000001f0: 5618 03b8 37f9 3388 094f 0100 504b 2719
00000200: 7cbd 1ebf 106e f136 f682 25bb 4c36 9709
00000210: 5d9d 5ab6 463c 02a7 10f8 9fbf c2ef a836
00000220: 161f 2cbf 9319 0100 2ea7 7891 2b33 4f36
00000230: eff4 b63b 759f 648b e282 0000 170c 0080
00000240: 5a05 b3bc cdd0 0434 02b6 8b38 c48e c684
00000250: 60d2 9632 98d7 9122 5c4b b2bd e3b0 97b3
00000260: 4eef e0bc dc23 0000 f0b1 508a 291e ecb1
00000270: 8229 63b7 60d5 0d85 fa48 0000 b168 c62a
00000280: c43b 0bbf 414c 0138 c408 413d ace6 8e09
00000290: ffb6 05b7 f5f1 58a6 75a8 a3bf 9d8f dc37
000002a0: b5fd f7be 81b1 0000 4737 e190 706a 3bb3
000002b0: dcc8 ec3b 2e8d 290b cf01 0080 a92a ac34
000002c0: 249b 1f3d 160c f4b4 672f 8839 eaaf 1907
000002d0: b062 cd34 6ea3 b122 2d38 943d 858b dc34
000002e0: da0e 8c3d c001 0100 8e2d 0f0d cc5d fe33
000002f0: f113 c438 089a 8f08 1896 0000 3938 9b2d
00000300: 244c 88bd 74c6 4736 c243 77b9 dbfc 1487
00000310: e5b9 64b3 ae7d 90a3 0101 e1bd f126 26b6
00000320: b1f0 97bd 422b 0100 3cfd 3b0e 696f 91b4
00000330: f9b3 90b8 0636 4d89 a64f 0180 4ea7 0000
00000340: f88e 923e 3e2f 1bb8 13ea 4fbc 80dc 8e89
00000350: db05 ffb7 601b cd23 d50b 603f 8936 e736
00000360: c570 ac3e e2bf 0000 2c47 a610 fdc0 3735
00000370: 1d6b 1fbb 1ffa 310c 146b 0080 442b 21b2
00000380: 15ca cbbe 2df4 26b8 3b1d 09be c245 5d09
00000390: 1e42 d0b5 dc23 4025 ac71 a9bf b582 6bb6
000003a0: 60c0 59bf 01b2 0080 15e8 7310 3e5a 2935
000003b0: 7593 06bd 5218 198b f220 81a5 88e4 bfaa
000003c0: 9416 7b3e de68 4638 5edb 9bbb 28ad 9b89
000003d0: b9d5 6c35 d274 8b25 8b83 593f ca63 8236
000003e0: c41b ba3e 6d83 0080 bd46 b290 e280 c634
000003f0: fa61 e8ba c068 848b 2e1a 0000 bc93 98a3

linear.weight f4 [1, 16]
-2.196739 0.894339 -0.008762096 -2.798806 1.387793 2.1587381 -0.619196 -0.01667996
3.0377614 -0.0095537 3.3242104 0.04982641 -0.06727348 -1.6052253 2.1340976 -1.3820822
00000000: 5f97 0cc0 67f3 643f e58e 0fbc a31f 33c0
00000010: 33a3 b13f c428 0a40 a183 1ebf 69a4 88bc
00000020: af6a 4240 1f87 1cbc ddbf 5440 c716 4c3d
00000030: aec6 89bd 0678 cdbf 0e95 0840 12e8 b0bf
