RL gym coherence/models/Taxi_GCN_UUS_URS_17.pt (torch, 4160 bytes, 5 tensors)

conv1.bias f4 [16]
-0.8269971 -3.6149172e-06 -0.026437791 -0.07454445 -1.5497935 -0.26363638 6.843193e-29 -0.0034695414
-0.0497923 -0.0037628156 -0.03662585 -2.6123415e-08 -1.442598e-39 -6.07326e-07 -0.004517208 -0.0015664852
00000000: 15b6 53bf ce97 72b6 1194 d8bc c3aa 98bd
00000010: a25f c6bf 59fb 86be dd7e ad10 3f61 63bb
00000020: 03f3 4bbd 9299 76bb fd04 16bd ff65 e0b2
00000030: 60b5 0f80 2007 23b5 1605 94bb 8552 cdba

conv1.lin.weight f4 [16, 1]
0.2064035 -1.1072343e-05 0.007651758 0.016884074 1.1870133 -0.27706 -2.2276873e-15 0.0007217817
0.011475414 -0.014247667 0.008503302 -0.0003523996 -1.28742305e-23 -0.00064811547 -0.058741797 -0.043353785
00000000: 705b 533e 5ac3 39b7 99bb fa3b 7850 8a3c
00000010: 0df0 973f cfda 8dbe 9485 20a7 f335 3d3a
00000020: 6003 3c3c 0c6f 69bc 6f51 0b3c 46c2 b8b9
00000030: 1a06 7999 4be6 29ba 3d9b 70bd bd93 31bd

conv2.bias f4 [16]
1.6906884 0.7826515 -0.5420545 -1.4154798 -0.22134121 1.5237199 1.4974786 1.0280925
-0.39159518 -1.7586988 1.7128038 1.3899733 -0.8958529 1.6674503 -0.19831301 -0.99137056
00000000: 7a68 d83f d95b 483f 15c4 0abf 712e b5bf
00000010: 45a7 62be 4109 c33f 61ad bf3f 8998 833f
00000020: 2a7f c8be 0b1d e1bf 283d db3f a5ea b13f
00000030: 9e56 65bf 036f d53f 9112 4bbe 76ca 7dbf

conv2.lin.weight f4 [16, 16]
0.001203562 2.6976356e-06 0.0014837378 -0.00021220077 -1.3888364 -0.22790758 1.409231e-29 7.991387e-06
-0.00013921024 2.4482526e-15 0.0010495508 -8.9516e-41 1.365404e-39 -1.26143e-40 -2.5269705e-07 -0.02985759
0.006056306 4.28122e-07 0.006943075 -1.7410948e-05 -0.63980263 -0.10174733 7.295825e-30 1.202388e-06
-2.5900232e-05 1.849122e-34 0.00014235602 8.4748e-41 -8.14366e-40 -5.6788e-41 -1.2523666e-20 -0.023932857
-0.0010800257 -1.5172427e-07 -0.016270127 -5.0202607e-06 0.45490685 0.03051493 -6.021727e-32 -2.1972914e-05
-0.005579383 -2.7918935e-07 0.0074811694 -4.7774e-41 -8.0052e-41 -2.1495e-41 2.5181404e-23 0.010808468
-0.022087587 -1.8746022e-06 0.0005447374 1.9803321e-05 1.136586 0.20897107 -1.8160833e-29 -7.0406268e-06
0.00016809347 -4.0252e-41 -0.0005691639 -2.952027e-39 4.054304e-39 8.205e-42 3.2412142e-11 0.042921912
-0.0016492223 1.6728234e-07 -0.036288776 4.839183e-06 0.18794759 8.013707e-09 -3.9875e-32 -3.2328666e-07
-0.00011228894 -8.68524e-12 0.00050286116 8.5247e-41 6.02654e-40 1.491e-42 -4.567e-41 3.6166691e-06
-0.036641598 4.8032234e-07 0.0022528807 0.0011647458 -1.4409102 -0.20594122 -2.8525896e-30 5.250624e-06
-0.00020754928 5.357956e-35 0.0017640468 -1.5323867e-12 -1.474844e-39 -9.7848e-41 -0.0016458038 -0.016115047
-0.0121889 -2.3449143e-06 0.00037207984 -0.0001242864 -1.2013172 -0.21026391 4.8485994e-30 4.854425e-06
-0.00041463325 -7.709455e-10 0.0029998983 5.0429e-41 -1.648663e-39 6.044e-42 -8.255184e-10 -0.043324165
0.036534507 -1.4106817e-08 0.0027743913 0.00079515285 -0.81910247 -0.17286506 -1.5800544e-31 0.00023231067
-0.0008335423 1.2628847e-05 -0.009778112 -1.03138e-40 -1.491382e-39 -2.9304e-41 -1.4146899e-25 -0.043715548
-0.0016706064 -3.9337394e-08 -0.03054301 -1.5048543e-05 0.33073482 0.00040500943 -2.6775966e-32 -1.4659543e-07
-4.4850385e-05 -5.479e-42 -3.0177576e-05 -6.0117e-41 -8.5458e-41 -5.0444e-41 1.39609e-40 0.0011378189
-0.020982072 -3.6212543e-06 -0.0013292484 -2.4753026e-05 1.4937247 0.23957457 -3.6793853e-29 -1.23712e-05
0.0002703811 2.2925e-41 -0.0010976987 1.4826296e-17 2.215383e-39 1.32728e-40 0.00023904354 0.022523709
0.003317913 3.2539413e-06 -0.00016152504 -8.473424e-06 -1.4263575 -0.23528866 -9.987128e-29 1.1594932e-05
-0.00019666365 -6.3526e-41 0.00096931274 -9.239166e-33 -1.780627e-39 -1.26696e-40 -9.2386545e-06 -0.034218565
0.035730638 -5.765569e-06 -0.0010117627 -0.00019588924 -1.1146986 -0.2092122 8.3813206e-30 5.9771232e-06
-0.00022559345 1.0762185e-12 0.0007918288 -4.1114e-41 3.782941e-39 8.95e-43 -1.8313917e-10 -0.048980705
-0.01087624 -3.5528788e-07 -0.0029735581 3.7549446e-05 0.7219074 0.12941797 -9.623767e-31 -6.1097026e-06
-0.00087708083 -7.421687e-09 -0.0004923486 6.648e-41 -1.204838e-39 -2.3765e-41 1.1535033e-33 0.031307362
-0.18849292 1.4974023e-06 0.0013915023 -0.004721959 -1.4375206 -0.22829132 2.2075713e-29 8.1072985e-06
-0.0003281465 1.6481666e-16 -0.0055563385 -5.7701877e-10 -1.55505e-39 1.06028e-40 -0.0041354545 -0.022455458
-0.00032141118 6.406353e-08 -0.022531653 1.307145e-05 0.1754833 -1.0374445e-08 -1.5175867e-33 -1.2575575e-07
-3.6255904e-05 1.3305252e-12 -1.2758188e-05 -2.2026e-41 1.76942e-40 -5.729e-42 2.7105e-41 4.859893e-10
-0.011765597 1.3096911e-06 -0.0023529865 8.4540356e-05 0.79642177 0.15087815 -6.277929e-30 -2.3272305e-06
7.783494e-05 1.481041e-16 -0.00027389725 6.8543e-41 -2.92262e-40 -4.156e-41 1.4185266e-16 0.032100596
00000000: d7c0 9d3a 0709 3536 fb79 c23a 3682 5eb9
00000010: 64c5 b1bf 9b60 69be bae9 8e0f bf12 0637
00000020: f7f8 11b9 4a6a 3027 1591 893a 89f9 0080
00000030: 31de 0e00 a35f 0180 6baa 87b4 e897 f4bc
00000040: fa73 c63b a4d8 e534 bc82 e33b ba0d 92b7
00000050: 1bca 23bf e760 d0bd 17fa 130f bd61 a135
00000060: 5344 d9b7 5cca 7507 6745 1539 3eec 0000
00000070: 1fde 0880 4d9e 0080 bc90 6c9e d70e c4bc
00000080: a68f 8dba a6e9 22b4 ee48 85bc b673 a8b6
00000090: 8de9 e83e 72fa f93c 3e55 9c8b 7952 b8b7
000000a0: 42d3 b6bb 7ee3 95b4 9924 f53b 2d85 0080
000000b0: 27df 0080 eb3b 0080 238a f319 0016 313c
000000c0: 07f1 b4bc d79a fbb5 b5cc 0e3a 4f1f a637
000000d0: a67b 913f 83fc 553e 382c b88f 863e ecb6
000000e0: 3f42 3039 3570 0080 f133 15ba 0d25 2080
000000f0: c025 2c00 df16 0000 d48c 0e2e e3ce 2f3d
00000100: b82a d8ba 389e 3334 8aa3 14bd 4460 a236
00000110: 5575 403e a8ac 0932 f70a 4f8b 2e90 adb4
00000120: aa7c ebb8 d8ca 18ad 71d2 033a a2ed 0000
00000130: f48f 0600 2804 0000 4f7f 0080 e7b5 7236
00000140: 8015 16bd 80ef 0035 11a5 133b 62aa 983a
00000150: bf6f b8bf 41e2 52be f86d 678e 842e b036
00000160: 96a1 59b9 5c70 8e06 9737 e73a 0daa d7ab
00000170: 440f 1080 c310 0180 03b8 d7ba b403 84bc
00000180: f4b3 47bc 525d 1db6 b613 c339 e052 02b9
00000190: c3c4 99bf 6c4f 57be bcae c40e 31e3 a236
000001a0: 2263 d9b9 77ea 53b0 f199 443b 938c 0000
000001b0: cdf3 1180 d910 0000 b1ea 62b0 ae74 31bd
000001c0: 35a5 153d 705a 72b2 90d2 353b ce71 503a
000001d0: b3b0 51bf 8a03 31be 501a 4d8c 6c98 7339
000001e0: 1482 5aba 7ce0 5337 6034 20bc 821f 0180
000001f0: 5e3d 1080 b051 0080 5021 2f96 130f 33bd
00000200: 40f8 daba ecf3 28b3 5635 fabc 0079 7cb7
00000210: 1356 a93e 7257 d439 5d07 0b8b d867 1db4
00000220: bc1d 3cb8 460f 0080 da25 fdb7 95a7 0080
00000230: 39ee 0080 9e8c 0080 2c85 0100 de22 953a
00000240: 98e2 abbc ad04 73b6 2d3a aeba b8a4 cfb7
00000250: 5f32 bf3f 0953 753e 2791 3a90 e68d 4fb7
00000260: f0c1 8d39 e83f 0000 a8e0 8fba 9abf 8823
00000270: 961f 1800 fe71 0100 c3a7 7a39 a483 b83c
00000280: 5871 593b 495e 5a36 0c5f 29b9 1429 0eb7
00000290: e292 b6bf 83ef 70be 2b34 fd90 db87 4237
000002a0: 7f37 4eb9 16b1 0080 7a19 7e3a d5e3 3f8a
000002b0: aa63 1380 2d61 0180 b8ff 1ab7 c428 0cbd
000002c0: 4a5a 123d dc75 c1b6 1f9d 84ba 9e67 4db9
000002d0: 72ae 8ebf b93b 56be 4efe 290f 198f c836
000002e0: 488d 6cb9 dc76 972b bb92 4f3a 9c72 0080
000002f0: 4d31 2900 7f02 0000 185d 49af fe9f 48bd
00000300: 4232 32bc 65be beb4 07e0 42bb 697e 1d38
00000310: ecce 383f 2586 043e 9027 9c8d f201 cdb6
00000320: e6eb 65ba d901 ffb1 f510 01ba 52b9 0000
00000330: 991e 0d80 3f42 0080 9ba8 bf08 263c 003d
00000340: 4a04 41be 5afa c835 1263 b63a aaba 9abb
00000350: ad00 b8bf 33c5 69be d4df df0f 9504 0837
00000360: 140b acb9 4b05 3e25 f211 b6bb 169c 1eb0
00000370: d9ee 1080 9027 0100 b582 87bb 82f4 b7bc
00000380: 1483 a8b9 4c93 8933 4d94 b8bc 734d 5b37
00000390: e5b1 333e 4b3b 32b2 0027 fc88 7a07 07b4
000003a0: 7b11 18b8 3941 bb2b 000c 56b7 663d 0080
000003b0: 3eed 0100 f80f 0080 8f4b 0000 7596 0530
000003c0: 7ec4 40bc a5c8 af35 9034 1abb 424b b138
000003d0: 4ce2 4b3f cd7f 1a3e bea9 fe8e 842d 1cb6
000003e0: 513b a338 9dc0 2a25 de99 8fb9 12bf 0000
000003f0: b52e 0380 da73 0080 848b 2325 ea7b 033d

linear.weight f4 [1, 16]
2.9430857 0.43646917 -0.13527457 -2.0167978 -0.014255026 2.0845385 2.1085515 1.0745575
-0.044799637 -3.5275896 3.1587436 2.0169768 -0.63024837 2.991679 -0.00444096 -0.8366635
00000000: 845b 3c40 e378 df3e 6b85 0abe 3713 01c0
00000010: ea8d 69bc 1469 0540 82f2 0640 1a8b 893f
00000020: d37f 37bd 07c4 61c0 db28 4a40 2616 0140
00000030: f557 21bf ab77 3f40 7985 91bb 942f 56bf
