RL gym coherence/models/Taxi_GCN_UUS_URS_14.pt (torch, 4160 bytes, 5 tensors)

conv1.bias f4 [16]
0	0x8f63c421	-1.1229737e-29
1	0xbfac41bc	-1.345756
2	0xbe14053f	-0.14455126
3	0xbe880c15	-0.26571718
4	0xb90f72c5	-0.00013680298
5	0xa890d87e	-1.60811e-14
6	0xbbb7a633	-0.0056045293
7	0xbd12c481	-0.035831932
8	0xbfc65562	-1.5494807
9	0xaea86f48	-7.659523e-11
10	0xbd42c7ff	-0.047554012
11	0xbc2d62b6	-0.010582617
12	0xbd63bdec	-0.055601045
13	0xa102d624	-4.4329126e-19
14	0xb66083d2	-3.345533e-06
15	0xa6c789d4	-1.3845757e-15

conv1.lin.weight f4 [16, 1]
0	0xaed5d0c8	-9.7232056e-11
1	0x3f45647f	0.7710647
2	0x3d07dd35	0.033169944
3	0xbea692a0	-0.3253374
4	0xbc3068a9	-0.01076714
5	0xb5beba08	-1.4210245e-06
6	0x3a9c6777	0.001193269
7	0x3c01d055	0.007923205
8	0x3f8f67bf	1.1203536
9	0xaf21b650	-1.4707635e-10
10	0x3c308bda	0.010775531
11	0xbdbb79bb	-0.091540776
12	0xbdd8fa1a	-0.10594578
13	0xb36bdac2	-5.491416e-08
14	0xba92dd6d	-0.0011204906
15	0xb34e5265	-4.803805e-08

conv2.bias f4 [16]
0	0x3e3956e0	0.18099546
1	0x3f2b9074	0.6701729
2	0x3fdbd8c0	1.7175522
3	0x3d1f6cac	0.038921997
4	0xbfd2b2f1	-1.6460859
5	0xbf918b37	-1.137061
6	0x3ff1ccf5	1.8890673
7	0xc004bfdc	-2.0742102
8	0xbf6a8241	-0.91605
9	0xbd9d4897	-0.07679861
10	0x3fdcbfae	1.7245996
11	0x3fa577a7	1.292714
12	0xbcacb320	-0.021081507
13	0x3f7b3d8b	0.9814078
14	0x40007566	2.0071654
15	0x3f40640f	0.7515268

conv2.lin.weight f4 [16, 16]
0	0x80006c7d	-3.8918e-41
1	0xbd87289e	-0.06599544
2	0x384e239d	4.9147395e-05
3	0x368f90ca	4.2785878e-06
4	0x2ea3f79c	7.456366e-11
5	0x8000f26d	-8.6966e-41
6	0xb70e582c	-8.484389e-06
7	0x371a2892	9.188561e-06
8	0xbe4edce5	-0.20201452
9	0xa93a8e70	-4.142384e-14
10	0x37e7f9fc	2.7653754e-05
11	0xb9fe15f6	-0.00048463017
12	0x18e802c7	5.99734e-24
13	0x9d28e1bb	-2.2351315e-21
14	0x0c48b8c7	1.5463044e-31
15	0x0000b41b	6.461e-41
16	0x8000e119	-8.075e-41
17	0xbe3e53b7	-0.18586622
18	0x38155213	3.5600806e-05
19	0x38ff5917	0.00012175942
20	0x30078cca	4.9312787e-10
21	0x80001f11	-1.1145e-41
22	0x36d20bbf	6.259855e-06
23	0x3800ef1d	3.074027e-05
24	0xbefa3353	-0.48867282
25	0x2c006f92	1.8251828e-12
26	0x37b50f2f	2.1583952e-05
27	0xbb0fe471	-0.002195623
28	0xacdd750a	-6.2941917e-12
29	0x9dc70aa5	-5.2685868e-21
30	0x8000f04a	-8.62e-41
31	0x00005160	2.9192e-41
32	0x80015dd5	-1.25496e-40
33	0xbf2dc877	-0.6788401
34	0xbc0f30bd	-0.008739647
35	0xbda8149d	-0.08207057
36	0xb0e24e6f	-1.6465956e-09
37	0xa3ec872d	-2.564442e-17
38	0xb70c6191	-8.367367e-06
39	0xbb065f23	-0.0020503483
40	0xbfb4aebc	-1.4115825
41	0xac058b8c	-1.89779e-12
42	0x388b10c1	6.631157e-05
43	0x3b03c22e	0.0020104754
44	0xbb59ed26	-0.0033252924
45	0x9f1a043a	-3.2614265e-20
46	0x0000103a	5.821e-42
47	0x00004e4a	2.8085e-41
48	0x8000336e	-1.845e-41
49	0x3d49a634	0.04923077
50	0x3908cbcd	0.00013045892
51	0xb6d3b44e	-6.3092803e-06
52	0x2c87e3c0	3.862216e-12
53	0x80000899	-3.084e-42
54	0x35f7cedb	1.8463137e-06
55	0x376a480c	1.3964262e-05
56	0x3d89f65d	0.06736443
57	0xaa20340c	-1.4228912e-13
58	0x38131d18	3.5074627e-05
59	0x3a14ab1e	0.00056712504
60	0x9819acfb	-1.986212e-24
61	0x9ada0544	-9.0171194e-23
62	0x00011964	1.00944e-40
63	0x00015dba	1.25458e-40
64	0x000143b7	1.16127e-40
65	0x3f4b5c66	0.79437864
66	0x39130872	0.00014022159
67	0x3d91aced	0.07113061
68	0xb101c0e7	-1.8881623e-09
69	0x00001798	8.464e-42
70	0xb845d03b	-4.716239e-05
71	0xb989662c	-0.000262068
72	0x3f820196	1.0156734
73	0xac04a26a	-1.8848486e-12
74	0xb8947ada	-7.080073e-05
75	0xbbe9fb6d	-0.007140568
76	0x3b106226	0.0022031157
77	0x9dd8a469	-5.734472e-21
78	0x800047be	-2.5736e-41
79	0x00012b38	1.0734e-40
80	0x00013b5d	1.13131e-40
81	0x3eb8ce38	0.36094832
82	0x38579e14	5.1407216e-05
83	0x3d138c79	0.036022637
84	0xb081a51b	-9.432911e-10
85	0x8000cade	-7.2775e-41
86	0xb7d54b6d	-2.5426702e-05
87	0xb88c2335	-6.682278e-05
88	0x3f43e35b	0.7651879
89	0xaa2c45e0	-1.5300912e-13
90	0xb853ffc4	-5.054452e-05
91	0x3aafebe0	0.0013421737
92	0x3856c40e	5.1204166e-05
93	0x1f4ffbb0	4.4042146e-20
94	0x80004565	-2.4894e-41
95	0x00014eaa	1.20055e-40
96	0x00004b37	2.6982e-41
97	0xbf1ca2eb	-0.61186093
98	0x3a544834	0.00080979173
99	0xbdcd3bb5	-0.10021154
100	0x34487c73	1.8671726e-07
101	0x0000925a	5.2501e-41
102	0x38d94bb1	0.00010361465
103	0x39d6e05b	0.0004098442
104	0xbfaba270	-1.3408947
105	0x2d2ca7dc	9.81434e-12
106	0xb84f6084	-4.9442533e-05
107	0xbc23877d	-0.009981033
108	0xbc4025dc	-0.011727776
109	0x9ec9c301	-2.1362355e-20
110	0x1b2b9d82	1.4195682e-22
111	0x80019f4b	-1.48979e-40
112	0x000042e1	2.3992e-41
113	0x3f5eadd3	0.86983985
114	0xbac6c7c6	-0.0015165738
115	0x3dc456a4	0.09586838
116	0xb592bf14	-1.0933459e-06
117	0x263c90f4	6.542205e-16
118	0xb8cddf21	-9.816723e-05
119	0xb9feb5d1	-0.0004858212
120	0x3fc49e1b	1.536075
121	0xad51b1fa	-1.1919793e-11
122	0xb91a8144	-0.0001473474
123	0x3c1a8688	0.009431489
124	0x3c5526eb	0.013009767
125	0x1e1030bb	7.633374e-21
126	0x80007de0	-4.5155e-41
127	0x0000f791	8.881e-41
128	0x00004d8d	2.782e-41
129	0x3ef39b67	0.475795
130	0xb8f8f8fc	-0.000118719385
131	0x3c5e5635	0.013570358
132	0xaf09f91c	-1.2548579e-10
133	0x80006a1a	-3.8062e-41
134	0xb6cc3019	-6.085273e-06
135	0xb860a4ea	-5.355935e-05
136	0x3f047a69	0.51749283
137	0xabc0d950	-1.3702737e-12
138	0xb9372142	-0.0001746463
139	0x3b7be3e8	0.0038435403
140	0x35e5fcae	1.7135369e-06
141	0x9ec7dcbf	-2.1161243e-20
142	0x9f4a8be3	-4.2890875e-20
143	0x80007ff1	-4.5897e-41
144	0x80097665	-8.68991e-40
145	0xbddd0ac3	-0.10793068
146	0xb8913344	-6.923688e-05
147	0xb6a79a89	-4.994978e-06
148	0x2c3937ab	2.6320983e-12
149	0x80014a32	-1.18452e-40
150	0xb6939678	-4.3984583e-06
151	0xb7e4fbbf	-2.7296946e-05
152	0xbe1f0cde	-0.15532252
153	0x2b97168e	1.0735455e-12
154	0xb8138a2a	-3.5176206e-05
155	0x3a5a184c	0.00083196606
156	0x97b00d14	-1.1377035e-24
157	0x1c5121ff	6.919624e-22
158	0x000038c2	2.0361e-41
159	0x8000f82c	-8.9027e-41
160	0x00000ab2	3.837e-42
161	0xbf2f4c75	-0.6847604
162	0x38272456	3.9849743e-05
163	0xbd990d83	-0.0747328
164	0xaf82780d	-2.3732163e-10
165	0x80008433	-4.7424e-41
166	0x38719c97	5.7604713e-05
167	0x3992bda2	0.00027988577
168	0xbf91cc0f	-1.1390399
169	0x2cb92ad6	5.262772e-12
170	0x38eae8ff	0.000112013884
171	0x3bade710	0.005307086
172	0xbb3c968d	-0.0028776259
173	0x9eb2d0fc	-1.8932917e-20
174	0x800013fb	-7.168e-42
175	0x000101b3	9.2445e-41
176	0x800059b9	-3.2186e-41
177	0xbe9829c7	-0.29719374
178	0xb82127d7	-3.8422495e-05
179	0xbd77dcde	-0.06051337
180	0x2faed8ab	3.1804367e-10
181	0x0000a13d	5.7841e-41
182	0xb7f60d99	-2.9331817e-05
183	0x392aa8fe	0.00016275418
184	0xbf6f3a88	-0.93448687
185	0x2b793370	8.8533954e-13
186	0x38fdeb11	0.000121077646
187	0xbb16b617	-0.0022996718
188	0xba4248d9	-0.0007411368
189	0x1f790834	5.2734586e-20
190	0x97bbae6c	-1.2128622e-24
191	0x0000c4bf	7.0579e-41
192	0x80003f7e	-2.2777e-41
193	0x3cc7e83c	0.02440273
194	0xb89409bb	-7.0590024e-05
195	0x358402b5	9.835554e-07
196	0xad908bcc	-1.6432987e-11
197	0x00004f31	2.8409e-41
198	0xb76e1185	-1.41899845e-05
199	0xb7a201d2	-1.9312753e-05
200	0x3d3d7e66	0.04626312
201	0x2adab2c6	3.8848628e-13
202	0xb830d409	-4.2159143e-05
203	0x390ae888	0.0001324733
204	0x188a9a58	3.582801e-24
205	0x1ca4d9be	1.0908895e-21
206	0x958d5a54	-5.709196e-26
207	0x00013a37	1.12719e-40
208	0x00000c20	4.35e-42
209	0xbe89ecc4	-0.2693845
210	0xb7a8cd68	-2.012281e-05
211	0xbc9234f8	-0.017847523
212	0x3055ddf9	7.780439e-10
213	0x800028c6	-1.4627e-41
214	0x37944e91	1.767956e-05
215	0x386297a9	5.4023843e-05
216	0xbf317f17	-0.6933455
217	0xac4b7ec0	-2.8918395e-12
218	0x3816e42a	3.597528e-05
219	0xbb2d26b8	-0.0026420783
220	0xb6286a20	-2.5095724e-06
221	0x1ea5356a	1.7492146e-20
222	0x800060bd	-3.4703e-41
223	0x00010939	9.5144e-41
224	0x80003dff	-2.224e-41
225	0xbf14b257	-0.58084625
226	0x398fc4ff	0.0002742186
227	0xbdd0e0dc	-0.101991385
228	0x35c1db1a	1.4443387e-06
229	0x000082d8	4.6938e-41
230	0x38befbd7	9.106815e-05
231	0x39d0fc88	0.00039861002
232	0xbfbcfcda	-1.4764664
233	0xad121ba9	-8.305281e-12
234	0x3939ebee	0.00017730866
235	0xbc206b4a	-0.009791205
236	0xbc615a8a	-0.013754496
237	0x1d0647ac	1.7771806e-21
238	0x019aae76	5.6821005e-38
239	0x80005f71	-3.4238e-41
240	0x0000cc70	7.3338e-41
241	0xbe50aef4	-0.2037924
242	0x37ff69ac	3.0447576e-05
243	0xba552bcc	-0.00081318314
244	0x300c8191	5.111583e-10
245	0x00006559	3.6357e-41
246	0x371ccd62	9.346144e-06
247	0x3835ee5c	4.3375752e-05
248	0xbf0c2ef3	-0.5475914
249	0x2c1dd8f9	2.2431486e-12
250	0x37eefe94	2.8490358e-05
251	0x3a8f2dcf	0.0010923686
252	0xb122716d	-2.3638578e-09
253	0x9ea09032	-1.7000297e-20
254	0x80010a92	-9.5627e-41
255	0x800101ca	-9.2477e-41

linear.weight f4 [1, 16]
0	0xbd232ae4	-0.039835826
1	0x3e1a015a	0.15039578
2	0x401cdacc	2.4508543
3	0x3d9a155f	0.075236075
4	0xc009f383	-2.1554878
5	0xbf7aeff8	-0.98022413
6	0x4059a438	3.400648
7	0xc06f238c	-3.7365446
8	0xbf0f4a50	-0.55972767
9	0x3e0ca312	0.13734081
10	0x4015aaa2	2.3385396
11	0x3fc22d83	1.5170139
12	0x3c8ba8b9	0.017048227
13	0x3f22c9e0	0.63589287
14	0x406da815	3.713384
15	0x3e7448f5	0.23855956
