RL gym coherence/models/Taxi_GCN_URS_UPS_17.pt (torch, 4160 bytes, 5 tensors)

conv1.bias f4 [16]
-6.487853e-37 -1.8909163e-19 -0.5406311 -2.2975373e-35 -0.56115943 -0.06693999 -0.87006843 -0.009995238
-5.852425e-15 -1.689859e-22 -0.7413891 -0.008803899 -0.6297172 -8.9663e-41 -0.6550153 -4.0818657e-15
00000000: 2cc5 5c83 703d 5fa0 cd66 0abf ea50 f485
00000010: 25a8 0fbf d517 89bd cebc 5ebf 11c3 23bc
00000020: 18db d2a7 9a4a 4c9b adcb 3dbf 3b3e 10bc
00000030: 2535 21bf f2f9 0080 15af 27bf 9110 93a7

conv1.lin.weight f4 [16, 1]
-2.3279944e-21 -2.0928366e-09 0.31919315 -1.8721287e-14 0.32477605 -0.08528838 0.5623787 0.0020876038
-1.7903681e-14 -2.9004954e-10 0.47216055 -0.033362966 0.37681866 -7.939666e-26 0.41481638 -5.5581277e-15
00000000: f6e5 2f9d 92d1 0fb1 496d a33e 59a0 a8a8
00000010: 0c49 a63e adab aebd 0df8 0f3f 2ed0 083b
00000020: 1443 a1a8 d874 9faf 07bf f13e 9ba7 08bd
00000030: 60ee c03e 9d93 c495 d062 d43e ae40 c8a7

conv2.bias f4 [16]
-0.601424 -0.94419646 0.88062847 -0.8208507 0.109285064 -0.8853081 1.007953 0.9475126
-0.90525204 0.9711434 0.9963424 0.9304339 -0.78646314 -0.79622626 0.73303473 0.69252485
00000000: ecf6 19bf dcb6 71bf de70 613f 4523 52bf
00000010: d9d0 df3d 8da3 62bf 9b04 813f 3090 723f
00000020: 99be 67bf db9c 783f 4c10 7f3f eb30 6e3f
00000030: a655 49bf 7cd5 4bbf 2aa8 3b3f 4f49 313f

conv2.lin.weight f4 [16, 16]
9.1879127e-38 3.50881e-40 0.44988382 2.4289332e-37 0.1841847 0.00068394607 0.25311008 -7.954527e-06
1.5391351e-16 -2.86645e-40 0.18781479 -9.685454e-22 0.18622594 9.4457e-41 0.24053513 -1.3539249e-17
2.1003006e-36 -6.2243e-41 0.6202374 -1.0492488e-36 0.38936743 0.029172162 0.16983983 -3.0922474e-05
1.1740848e-15 -9.7469e-41 0.6246034 -7.775404e-05 0.5029458 -7.876e-41 0.76173204 -5.5390624e-16
-2.1052064e-36 1.16868e-40 -0.6282588 -2.778752e-36 -0.17258477 -0.029263234 -0.20794523 2.4239172e-05
3.057646e-16 -1.60513e-40 -0.63457894 4.6908186e-05 -0.7027805 2.447e-42 -0.3123651 -4.4069685e-18
-1.2278194e-38 2.98799e-40 0.50308055 -7.1417757e-37 0.1785483 0.007146479 0.5946843 -2.0937054e-05
-5.266837e-16 1.90337e-40 0.42164677 -1.7828423e-09 0.017223697 1.82669e-40 0.7175291 7.124427e-18
-7.26734e-40 -4.5567e-41 -0.019152096 4.4246778e-38 -0.015180355 3.6932357e-32 -0.09152915 4.2824075e-07
6.965768e-17 -2.06673e-40 -0.043100424 1.8228e-40 -0.024504215 -1.221524e-39 -0.04419433 3.8947504e-19
-2.3226892e-37 1.97031e-40 0.57382643 -5.0074596e-37 0.025569836 0.019488622 0.7168628 -3.0254238e-05
-6.0066754e-16 8.7493e-41 0.3020789 -6.32544e-07 0.19195461 2.45976e-40 0.39210236 -7.245428e-16
5.151904e-38 -4.2152e-41 -0.28387722 -8.456115e-36 -0.4101636 -0.03203806 -0.1861928 3.0748226e-05
-1.2290105e-15 -9.6732e-41 -0.8723922 9.504577e-05 -0.55326676 1.89181e-40 -0.80056596 1.7663701e-15
-6.3211027e-37 -6.704e-42 -0.26836064 1.9124173e-36 -0.1783314 -0.018066037 -0.54141754 2.5407153e-05
-3.9445925e-16 1.74195e-40 -0.8215941 1.0585153e-06 -0.057545442 -1.07267e-40 -0.72327185 1.286459e-16
1.2134041e-36 1.01436e-40 0.37181965 -1.9053096e-36 0.28709665 0.010393519 0.36102796 -1.7831679e-05
-1.5134759e-15 -8.721e-41 0.6671341 -1.3687756e-09 0.5468907 2.76047e-40 0.3306094 -4.1492145e-16
2.8961156e-36 -1.01925e-40 -0.4598301 -7.112791e-36 -0.5577428 -0.03370152 -0.39995953 2.1945962e-05
-1.1926302e-15 -5.5357e-41 -0.7274942 8.743689e-05 -0.39155212 5.4033e-41 -0.33376917 6.556755e-16
-1.9690076e-36 2.607e-40 -0.17225835 4.422943e-36 -0.44439235 -0.023787955 -0.5680947 2.0680467e-05
5.051431e-16 1.06033e-40 -0.24872413 5.3385884e-06 -0.64767295 3.66093e-40 -0.42027864 2.1114414e-15
-5.7070994e-37 6.988e-41 -0.17213653 5.6086377e-37 -0.64853835 -0.036391594 -0.5174288 3.2922362e-05
-1.399577e-15 -2.7644e-40 -0.35816994 0.00020120626 -0.2831204 7.9074e-41 -0.6109592 -1.6819777e-16
-1.0788696e-37 8.0534e-41 0.36736327 -6.0829044e-37 0.25429174 0.0051016062 0.67649025 -1.980203e-05
-7.317133e-16 3.44134e-40 0.47542176 -2.0243227e-10 0.060033303 8.7232e-41 0.44803074 1.0409912e-16
2.0603962e-37 1.95656e-40 0.036751594 -1.535928e-37 0.49321333 0.0025209945 0.43333045 -1.4445577e-05
-1.0685415e-15 1.92275e-40 0.7339026 -1.0631422e-12 0.25586057 1.60443e-40 0.6712682 -5.4063453e-17
-4.3723135e-37 -1.62374e-40 -0.5595514 -7.871557e-37 -0.115053594 -0.008751119 -0.4339686 1.489649e-05
4.772874e-16 8.7071e-41 -0.2879703 4.4202007e-11 -0.01261073 1.06161e-40 -0.47897932 2.592432e-16
5.968452e-38 -2.0744e-40 -0.27992252 -3.732908e-37 0.0034090658 -0.0051229503 -0.5113055 1.3253361e-05
6.174081e-16 4.34715e-40 -0.30911776 1.1040168e-12 -0.10203793 2.25078e-40 -0.31806204 5.761934e-17
00000000: 681e fa01 1dd2 0300 2c57 e63e fc4d a502
00000010: ea9a 3c3e d84a 333a a597 813e 6f74 05b7
00000020: 4073 3125 0d1f 0380 8552 403e c95c 929c
00000030: 03b2 3e3e 4f07 0100 d74e 763e 4cc1 79a3
00000040: 7fac 3204 82ad 0080 e1c7 1e3f 3b85 b283
00000050: 2b5b c73e 75fa ee3c 7eea 2d3e c1b2 01b8
00000060: 1534 a926 b40f 0180 02e6 1f3f e20f a3b8
00000070: 0ec1 003f 8ddb 0080 df00 433f 11a7 1fa6
00000080: 5617 3384 c845 0100 92d5 20bf dc63 6c84
00000090: 10ba 30be 73b9 efbc 98ef 54be 3a55 cb37
000000a0: e442 b025 72bf 0180 c473 22bf 48bf 4438
000000b0: 6ce9 33bf d206 0000 52ee 9fbe a496 a2a2
000000c0: 9cb2 8580 ee40 0300 e3c9 003f a405 7383
000000d0: 5ed5 363e 032d ea3b 3b3d 183f fba1 afb7
000000e0: 66ce 17a6 9512 0200 16e2 d73e 3008 f5b0
000000f0: b618 8d3c 35fd 0100 fdaf 373f 286c 0323
00000100: d7e9 0780 067f 0080 dbe4 9cbc 02e7 7001
00000110: 06b7 78bc 86c3 3f0b a373 bbbd f6e8 e534
00000120: a39e a024 1f40 0280 128a 30bd 1ffc 0100
00000130: 10bd c8bc 1d4d 0d80 1d05 35bd cee7 e520
00000140: f412 9e82 3e25 0200 4ae6 123f 2065 2a83
00000150: d577 d13c 9aa6 9f3c 5284 373f 7bca fdb7
00000160: 7121 2da6 e5f3 0000 16aa 9a3e 18cc 29b5
00000170: c08f 443e aead 0200 a4c1 c83e d3d5 50a6
00000180: 883f 8c01 8175 0080 5b58 91be 78d7 3385
00000190: f700 d2be 573a 03bd 53a9 3ebe a8f7 0038
000001a0: 7c1e b1a6 a60d 0180 1855 5fbf 4f53 c738
000001b0: e4a2 0dbf 5c0f 0200 e4f1 4cbf 8e8f fe26
000001c0: 9218 5783 b012 0080 9166 89be c3b0 2204
000001d0: 829c 36be 3aff 93bc 579a 0abf 7221 d537
000001e0: e963 e3a5 96e5 0100 fe53 52bf 4f12 8e35
000001f0: c5b4 6bbd 042b 0180 5828 39bf 9151 1425
00000200: 3473 ce03 c31a 0100 255f be3e f815 2284
00000210: 55fe 923e 9449 2a3c a8d8 b83e 3d95 95b7
00000220: 681d daa6 1bf3 0080 4dc9 2a3f 831f bcb0
00000230: 0701 0c3f 8201 0300 a345 a93e 992f efa5
00000240: d05f 7604 201c 0180 da6e ebbe b845 1785
00000250: 3bc8 0ebf 9b0a 0abd 7fc7 ccbe 9818 b837
00000260: 4ae0 aba6 509a 0080 0f3d 3abf 535e b738
00000270: 8579 c8be 9f96 0000 cbe3 aabe 50fc 3c26
00000280: 3081 2784 bad6 0200 7e64 30be 9621 bc04
00000290: 6587 e3be f5de c2bc a76e 11bf f77a ad37
000002a0: fb98 1126 9427 0100 8ab1 7ebe 2022 b336
000002b0: e5cd 25bf 85fc 0300 c32e d7be 3825 1827
000002c0: d933 4283 ccc2 0000 8f44 30be 20da 3e03
000002d0: 9c06 26bf 5a0f 15bd 3776 04bf 1e16 0a38
000002e0: 47b3 c9a6 9a02 0380 0d62 b7be e5fa 5239
000002f0: 28f5 90be 6ddc 0000 d267 1cbf 38eb 41a5
00000300: 1ed9 1282 7fe0 0000 0a17 bc3e 92fd 4e83
00000310: 8732 823e 602b a73b 772e 2d3f 891c a6b7
00000320: e9e6 52a6 4ebf 0300 7b6a f33e 9e93 5eaf
00000330: 7be5 753d 2bf3 0000 4964 e53e 4609 f024
00000340: 2a39 8c02 6921 0200 d788 163d 480f 5182
00000350: 7586 fc3e 4537 253b 7ddd dd3e 485b 72b7
00000360: 39fe 99a6 fc17 0200 0ae1 3b3f bc9f 95ab
00000370: 2800 833e 40bf 0100 3cd8 2b3f dc52 79a4
00000380: 39c8 1483 a2c4 0180 c33e 0fbf 77ed 8583
00000390: 38a1 ebbd da60 0fbc 2231 debe f0eb 7937
000003a0: 9891 0926 b8f2 0000 d870 93be 0967 422e
000003b0: 3c9d 4ebc ef27 0100 c73c f5be 8b71 9525
000003c0: 0a7a a201 4242 0280 0152 8fbe 6e0c fe82
000003d0: a26a 5f3b 6cde a7bb ebe4 02bf c15a 5e37
000003e0: adf4 3126 cfbb 0400 af44 9ebe 6660 9b2b
000003f0: 43f9 d0bd 6d73 0200 07d9 a2be 74dc 8424

linear.weight f4 [1, 16]
-0.7650306 -3.045651 3.0775962 -1.4229568 0.010779963 -2.4145522 3.2580173 2.2712512
-1.7556982 3.3495176 2.5882406 3.6434186 -1.2691984 -1.0169228 1.5918319 1.2813455
00000000: 0cd9 43bf f2eb 42c0 56f7 4440 7323 b6bf
00000010: 719e 303c 0688 1ac0 5b83 5040 2e5c 1140
00000020: b8ba e0bf 7f5e 5640 bca5 2540 c52d 6940
00000030: 1875 a2bf 872a 82bf 26c1 cb3f 2103 a43f
