RL gym coherence/models/Taxi_GCN_UUS_URS_31.pt (torch, 4160 bytes, 5 tensors)

conv1.bias f4 [16]
00000000: 0122 1aad 2430 df9d b2e5 63be cabc f0bf
00000010: 0a53 8bbe 36c6 fabf 47e6 66bd ae97 4dbe
00000020: c8db fa84 86db 41b4 9294 cabe 82fc 29be
00000030: c8c7 2997 46c9 8989 f191 d1b8 7d1d 720c
-8.761437e-12 -5.9077385e-21 -0.2225559 -1.8807614 -0.2721179 -1.9591739 -0.056371953 -0.20077392
-5.8976555e-36 -1.8054388e-07 -0.39566475 -0.1660023 -5.4859005e-25 -3.3170827e-33 -9.99308e-05 1.8651876e-31

conv1.lin.weight f4 [16, 1]
00000000: b9d8 deaa cbad 99a7 3782 80be 4b60 693f
00000010: f38d 80be 860f 773f f22f 9cbd e4f6 86be
00000020: 1bb3 b09b 4a09 53b4 2bce bfbe dc9a 57be
00000030: e214 da97 da33 2489 a39c c637 28cf 348c
-3.9585503e-13 -4.2654457e-15 -0.25099346 0.91162556 -0.251083 0.9650806 -0.07626332 -0.26360238
-2.9232502e-22 -1.9654286e-07 -0.3746198 -0.21055168 -1.4093191e-24 -1.9765162e-33 2.3676379e-05 -1.3929034e-31

conv2.bias f4 [16]
00000000: 8091 25bc 9f02 2cbf dbe8 c6bc 3271 07bf
00000010: 3441 c8bc 2544 9d3c 3387 23bf 66a9 a83c
00000020: ea37 c93c 106c bdbc 9b92 d83b 560d 2fbf
00000030: e48e c63c ca70 2ebf 472f 003f 5e64 c73c
-0.010105491 -0.671915 -0.024280956 -0.529071 -0.024445154 0.019197533 -0.6387817 0.020588588
0.024562795 -0.023122817 0.0066092736 -0.68379724 0.024238057 -0.6814085 0.5007214 0.024339851

conv2.lin.weight f4 [16, 16]
00000000: ba08 1f27 8b5f 0080 7e1f 0100 6859 2d3d
00000010: 5185 07a9 c2dd 183d 086b 1603 72fd ccb8
00000020: 0782 5100 f725 1c2d 7088 9dad cc9a c334
00000030: 2bef a891 1ceb e384 0675 1431 a066 1d06
00000040: 4d3c 34ac 4820 0180 c3c3 9f3d 9209 1540
00000050: 8334 723e e122 2840 98fb 253b 6296 60be
00000060: 3d37 4f04 786c 8d31 8db3 bb3e f62c 42be
00000070: 38a7 7217 784a a007 58fe 5b34 f282 fe8c
00000080: 5f3c 6b24 23f7 0080 af0d 0080 1878 a63d
00000090: 0d92 a8ad 5ada ae3d 57fc 6202 befa 37b2
000000a0: 436e 2980 7310 95ad b5bf 873c 8b96 0434
000000b0: 1e7f 1692 106f 2182 bff2 0731 6e28 b286
000000c0: 9e4e 8fab 6785 0080 187a bf3c 6d30 ef3f
000000d0: 4c27 383e fa01 fc3f eb99 a038 05d4 4bbe
000000e0: d66a 0804 6a73 8932 8605 b33e 44b0 3bbe
000000f0: 0c41 b416 e477 cf07 e96e 6633 2d84 0f8b
00000100: 4cc6 caa2 fe7d 0000 f10f 0080 6f85 a73d
00000110: 49bc c8ac 1b30 af3d a173 d882 90b3 9c33
00000120: 6413 1280 10d0 b5ad e09b 553c b95a 2d34
00000130: 70e1 2d92 83c1 eb82 1b7b e430 868d 6106
00000140: 7c4b 8ea6 a1cc 0000 ad11 0000 fa9e 82bd
00000150: 11e0 4c25 1f83 8ebd eee5 0d02 c3e5 1234
00000160: 5d0a 3700 9c00 ebab 79db c0b7 500f e9b3
00000170: 8968 db92 8ef2 0384 388b 3eb1 4fb6 6787
00000180: 913a 62ac c2af 0000 0807 853d f02b 1040
00000190: 566d 673e ac60 1840 9d32 df3a 31c0 5abe
000001a0: f501 b204 8747 c7b2 1155 ba3e 8306 42be
000001b0: a23a ec16 c545 3e87 ce1f 3933 e224 240b
000001c0: 4db5 85a5 3653 0100 7d93 0000 7cdc 8abd
000001d0: 7321 c129 369f 96bd e473 1503 9edd c532
000001e0: 61e7 5480 8ce6 582c f9b3 ccb7 0c5f 0f34
000001f0: 6eff 9692 60d3 9c84 819d 0fb1 08c8 0788
00000200: 2182 db25 7ad5 0000 52e0 0000 c95f a7bd
00000210: 3904 8a2c 03a2 afbd 3f6a 5682 c235 8931
00000220: d8fa 2a00 5776 0dae 7f68 0ebc 373f f833
00000230: 265b a592 8dac a883 dffb 0bb1 aa42 8386
00000240: 216b 1226 b78e 0000 7551 0000 42a0 9f3d
00000250: 4741 67af 03ff a73d 0a56 0883 7349 0034
00000260: 4ff8 1580 ac34 37ad 6555 9d3c 9853 9133
00000270: 90c7 c092 e4e2 dd82 fe7b 0b31 8d10 e486
00000280: f993 17a7 e526 0100 6602 0080 6082 d0bc
00000290: e8f5 1e29 b53b f8bc b06d 6d02 2eff 4a33
000002a0: 7669 0e81 4e60 652d 0ad8 852d a180 4c34
000002b0: 187f 2d12 1efc 0385 40ab 12b1 0aca 4388
000002c0: 20a1 8eac 46a5 0180 0e14 a93d f38e 1740
000002d0: 82d2 6d3e 64a0 2740 33b4 4d3b 4112 61be
000002e0: 74e3 1882 1636 2ab3 4e1f bc3e b9c7 3fbe
000002f0: 347b a416 03f0 a388 1138 c233 990d d90c
00000300: fd65 c4a4 a451 0000 da12 0100 b702 a6bd
00000310: f623 4a2e c6d7 aebd 50b8 d601 367c 3633
00000320: b770 6200 ad6b f5ad b327 8abc ebfb 18b4
00000330: 8994 b412 20ad 3d03 f624 46b1 6c63 f886
00000340: eccc 2fac 6849 0080 d245 9f3d 3718 1b40
00000350: 4523 733e 514e 2840 8b9b 3c3b e9cf 60be
00000360: 2a40 3c04 b0f8 45b1 c303 bc3e 761d 41be
00000370: ac6a 5f17 3ed4 4287 9f8d 4f34 0459 088d
00000380: fc3c 6d2b 4f74 0000 06f8 71bc 9f56 dfbf
00000390: 3fd0 47be a466 efbf 549d b2b7 f7d4 443e
000003a0: 4f5b fb02 3118 6eb2 4b10 b0be ee06 3c3e
000003b0: b6c8 5f96 bd81 2886 3465 90b3 fe30 c48b
000003c0: 1f58 81a5 ec8e 0080 af12 0100 508d a6bd
000003d0: 580c 052e 3a6b afbd 40ca 2182 3a16 86b2
000003e0: d683 4380 a001 182c 9880 82bc 99bf 25b4
000003f0: fc58 f211 dda3 7484 591c 40b1 0678 d887
2.2070413e-15 -3.4274e-41 1.03133e-40 0.042321593 -3.0091655e-14 0.03732086 4.4203904e-37 -9.774686e-05
7.48532e-39 8.876003e-12 -1.7909424e-11 3.643421e-07 -2.6653125e-28 -5.3583357e-36 2.1603355e-09 2.9603815e-35
-2.5613012e-12 -1.03416e-40 0.078010105 2.3287091 0.23652844 2.6271288 0.0025326964 -0.21932366
2.4358097e-36 4.1159716e-09 0.36660424 -0.18962464 7.8405477e-25 2.4117893e-34 2.0488494e-07 -3.9213706e-31
5.100864e-17 -8.8656e-41 -4.909e-42 0.08128375 -1.9164248e-11 0.08537741 1.6676276e-37 -1.0709014e-08
-3.80481e-39 -1.6946644e-11 0.016570905 1.2348225e-07 -4.748834e-28 -1.1860285e-37 1.978307e-09 -6.7015564e-35
-1.0182582e-12 -4.7856e-41 0.023373649 1.8686653 0.1798374 1.9688103 7.658064e-05 -0.19905098
1.603578e-36 1.6001383e-08 0.34965152 -0.18328959 2.9121619e-25 3.1216364e-34 5.365192e-08 -2.7640236e-32
-5.4962165e-18 4.5197e-41 -5.719e-42 0.08179747 -5.7052457e-12 0.08554097 -3.1804715e-37 7.296978e-08
-1.659995e-39 -2.0669716e-11 0.013037652 1.6144885e-07 -5.486705e-28 -3.4641217e-37 1.6624172e-09 4.2421772e-35
-9.873689e-16 7.3407e-41 6.341e-42 -0.063779786 1.7770096e-16 -0.06958603 1.042503e-37 1.3680896e-07
5.05467e-39 -1.6697923e-12 -2.2990384e-05 -1.0852693e-07 -1.3846613e-27 -1.5510352e-36 -2.7727776e-09 -1.7432084e-34
-3.2149043e-12 6.305e-41 0.06495482 2.2526817 0.22600302 2.3809004 0.0017028634 -0.21362378
4.1849396e-36 -2.3199176e-08 0.36393026 -0.18947797 3.816486e-25 -1.4314515e-34 4.3102595e-08 3.1613e-32
-2.3194676e-16 1.21686e-40 5.2909e-41 -0.06780335 8.576724e-14 -0.07354586 4.39202e-37 2.3034598e-08
-7.797185e-39 3.0823425e-12 -2.4402501e-05 1.335249e-07 -9.529299e-28 -3.686954e-36 -2.089877e-09 -4.086022e-34
3.8078623e-16 7.6581e-41 8.0471e-41 -0.081725664 3.9226647e-12 -0.08575823 -1.5752728e-37 3.9933363e-09
3.947077e-39 -3.2164795e-11 -0.008691906 1.15598986e-07 -1.0435434e-27 -9.913768e-37 -2.0370334e-09 -4.937468e-35
5.079911e-16 5.1196e-41 2.9221e-41 0.077942386 -2.1032519e-10 0.082029365 -4.0065576e-37 1.194765e-07
-2.017622e-39 -1.0414041e-11 0.019205758 6.767294e-08 -1.2166099e-27 -3.260326e-37 2.0297644e-09 -8.5788387e-35
-2.1035676e-15 1.05788e-40 -8.6e-43 -0.025452793 3.5296337e-14 -0.030301908 1.7443489e-37 4.7263875e-08
-2.6156945e-38 1.3038527e-11 1.521629e-11 1.9045775e-07 5.474583e-28 -6.205897e-36 -2.134314e-09 -5.8918174e-34
-4.053771e-12 -1.51124e-40 0.08255778 2.3681 0.23224834 2.6191645 0.0031387925 -0.2197962
-1.1232472e-37 -3.96304e-08 0.36742634 -0.18728532 2.657338e-25 -9.866632e-34 9.0440274e-08 3.3442328e-31
-8.5174225e-17 2.9287e-41 9.8598e-41 -0.081059866 4.5961422e-11 -0.08537249 7.887566e-38 4.2488146e-08
9.040313e-39 -2.7901093e-11 -0.016864633 -1.424775e-07 1.1396214e-27 5.5740846e-37 -2.8833802e-09 -9.343332e-35
-2.498275e-12 -2.6333e-41 0.07776989 2.423353 0.23743923 2.62978 0.0028779234 -0.21954311
2.2128756e-36 -2.8808635e-09 0.3672162 -0.18858895 7.2189825e-25 -1.465731e-34 1.9329899e-07 -4.2015384e-31
8.4283947e-13 4.1724e-41 -0.014768606 -1.744831 -0.19513033 -1.8703198 -2.1292515e-05 0.19221865
3.6933544e-37 -1.3858924e-08 -0.3438743 0.18362018 -1.807713e-25 -3.1692605e-35 -6.723931e-08 -7.557017e-32
-2.2437646e-16 -5.1271e-41 9.8538e-41 -0.08132422 3.0251662e-11 -0.08565374 -1.1886455e-37 -1.560976e-08
-6.200272e-39 2.1601401e-12 -0.015930459 -1.5436525e-07 3.8235709e-28 -2.8757304e-36 -2.795579e-09 -3.2570611e-34

linear.weight f4 [1, 16]
00000000: 4d91 453b 35c8 80c0 b2fd 49b9 5570 11c0
00000010: 2d87 d3b9 bbae 02ba 062f 68c0 3a50 f737
00000020: fdd4 233a 16ab 9f39 4de3 1fbb fc58 85c0
00000030: 1456 1339 b90c 84c0 0eb9 f93f fc04 5839
0.003014642 -4.0244393 -0.00019263363 -2.2724812 -0.0004034577 -0.00049851433 -3.62787 2.9482053e-05
0.0006249694 0.00030454312 -0.0024396956 -4.1671124 0.00014051079 -4.126553 1.9509599 0.00020601222
