RL gym coherence/models/Taxi_GCN_URS_UPS_36.pt (torch, 4160 bytes, 5 tensors)

conv1.bias f4 [16]
0	0xb7ffb608	-3.0483134e-05
1	0xa2b38a41	-4.866443e-18
2	0x8003d335	-3.51273e-40
3	0xbf29eb7e	-0.6637496
4	0xbca1d2ca	-0.019753832
5	0x85b37168	-1.6874738e-35
6	0xbf535308	-0.8254857
7	0xbf140c44	-0.57831216
8	0xbdc083fa	-0.094001725
9	0xbf296475	-0.6616891
10	0x80042b0a	-3.82781e-40
11	0xad1e08ff	-8.983258e-12
12	0x99ea69b5	-2.4237728e-23
13	0xbf5539d0	-0.8329134
14	0xa9faaf0b	-1.11325954e-13
15	0xba1ae49c	-0.0005908699

conv1.lin.weight f4 [16, 1]
0	0xba18b667	-0.000582552
1	0xb3921d40	-6.803975e-08
2	0xa3d2a3f4	-2.2837682e-17
3	0x3ed3badb	0.41353497
4	0xbd2c7564	-0.04210414
5	0xaa5fc089	-1.9873178e-13
6	0x3f07a24a	0.5298201
7	0x3e9f6baa	0.3113683
8	0x3cad3297	0.021142287
9	0x3ed67b0f	0.4189076
10	0xa7a8d160	-4.685637e-15
11	0xb707bc47	-8.090464e-06
12	0x99e86dea	-2.4032632e-23
13	0x3f088d30	0.53340435
14	0xb89cff6e	-7.486237e-05
15	0xbc2a3b0f	-0.010390057

conv2.bias f4 [16]
0	0x3f4e7271	0.80643374
1	0xbf8176e1	-1.0114404
2	0xbf66598d	-0.89980394
3	0xbf05fcd6	-0.5233892
4	0x3f4d5cb3	0.8021957
5	0x3f37a3f8	0.7173457
6	0xbf678bed	-0.90447885
7	0xbf38e2c3	-0.7222101
8	0x3f3dd2e9	0.7414995
9	0xbf5fcaa6	-0.8741859
10	0xbf6278d5	-0.88465625
11	0x3f257e71	0.6464606
12	0xbf5d731b	-0.8650376
13	0x3f80ee25	1.0072676
14	0x3f84d768	1.0378237
15	0x3f40415c	0.7509973

conv2.lin.weight f4 [16, 16]
0	0x00016e9a	1.31512e-40
1	0x0000b407	6.4582e-41
2	0x0002117a	1.8994e-40
3	0xbf4c9376	-0.7991251
4	0xbb1af5dc	-0.0023645079
5	0x041e1f1d	1.8587097e-36
6	0xbed25eb1	-0.4108787
7	0xbeb820d0	-0.35962534
8	0xb8b8e18a	-8.8158136e-05
9	0xbeb55fb5	-0.3542458
10	0x8001bdf9	-1.59985e-40
11	0x153948a2	3.741775e-26
12	0x99d7e3e3	-2.2322522e-23
13	0xbe8e7a66	-0.27827758
14	0x1cdbc366	1.4542714e-21
15	0xb1c9e9b1	-5.8764376e-09
16	0x0001a1cb	1.49876e-40
17	0x00009a2c	5.5306e-41
18	0x8003100b	-2.81262e-40
19	0x3eab9ac1	0.33516505
20	0x38a632c8	7.9249556e-05
21	0x83a1aed8	-9.502872e-37
22	0x3f18eb64	0.5973418
23	0x3ea7f4cd	0.32803956
24	0xb98ea770	-0.000272091
25	0x3f1a1dd4	0.60201764
26	0x000304d7	2.77243e-40
27	0x969409da	-2.3916907e-25
28	0x1a137c0a	3.0499085e-23
29	0x3f31ef6f	0.6950597
30	0x1dba62af	4.9335827e-21
31	0x2b01cebd	4.6116913e-13
32	0x00018f73	1.43295e-40
33	0x8000bc31	-6.751e-41
34	0x80023bc1	-2.05107e-40
35	0x3ebb85e1	0.3662558
36	0x38963472	7.162326e-05
37	0x84a09bfd	-3.7759072e-36
38	0x3f312c0f	0.69207853
39	0x3ebf56f9	0.37371042
40	0xb99300f6	-0.0002803874
41	0x3f0ab959	0.5418907
42	0x80000146	-4.57e-43
43	0x968f0a28	-2.3109306e-25
44	0x1a1daf6e	3.260855e-23
45	0x3eae8f36	0.34093636
46	0x9ea5b144	-1.754337e-20
47	0x222528fd	2.2383369e-18
48	0x80032e62	-2.92146e-40
49	0x00016b39	1.303e-40
50	0x00025798	2.15094e-40
51	0x3ec65505	0.3873674
52	0x2e3e070e	4.3207264e-11
53	0x0297ab3d	2.2285742e-37
54	0x3e180b78	0.14848125
55	0x3e78bf1d	0.24291654
56	0xba2a8318	-0.000650452
57	0x3e878977	0.26472065
58	0x0002d766	2.60941e-40
59	0x1613c191	1.1935644e-25
60	0x1993f389	1.5297807e-23
61	0x3e2a415e	0.16626498
62	0x9deeebad	-6.324176e-21
63	0x0a3e2ef4	9.156998e-33
64	0x80015773	-1.23206e-40
65	0x8000fbb4	-9.0294e-41
66	0x8003f06b	-3.61752e-40
67	0xbe480000	-0.1953125
68	0xb9080d2a	-0.00012974875
69	0x03a53430	9.70981e-37
70	0xbf284968	-0.6573701
71	0xbeb4d31d	-0.35317317
72	0x3aed918e	0.0018125044
73	0xbf3250a0	-0.69654274
74	0x00013128	1.0947e-40
75	0x153fc20c	3.872522e-26
76	0x99b7cc2a	-1.9004218e-23
77	0xbebb3649	-0.36564854
78	0xa4d3009c	-9.1507696e-17
79	0xb1ae450f	-5.0719176e-09
80	0x8001c180	-1.6125e-40
81	0x0004944b	4.2054e-40
82	0x8001bca0	-1.59501e-40
83	0xbebacd6f	-0.36484858
84	0xb6c7ae7a	-5.950974e-06
85	0x02aa64a8	2.5037029e-37
86	0xbef7ff4b	-0.4843696
87	0xbf0164f6	-0.5054468
88	0xbb98f036	-0.0046673073
89	0xbe8c2856	-0.27374524
90	0x00032ca6	2.91523e-40
91	0x1526a695	3.3654843e-26
92	0x99947017	-1.5348114e-23
93	0xbf126d88	-0.5719838
94	0x2a9ff063	2.8410876e-13
95	0xafe39b75	-4.1401518e-10
96	0x00022a6b	1.98888e-40
97	0x0002d84d	2.61265e-40
98	0x800394ef	-3.28934e-40
99	0x3ec73edc	0.38915145
100	0x3b14b14d	0.0022688687
101	0x0409ec8f	1.6212895e-36
102	0x3ef26750	0.47344446
103	0x3f0a611b	0.5405442
104	0xbb423e20	-0.002963908
105	0x3f22ae72	0.6354743
106	0x80009830	-5.4595e-41
107	0x167d404c	2.0457466e-25
108	0x19c5fbda	2.0471045e-23
109	0x3f06b4c9	0.52619606
110	0x1e063104	7.104037e-21
111	0x35c5c968	1.4736261e-06
112	0x8001a7e2	-1.5206e-40
113	0x800061a6	-3.503e-41
114	0x80094c62	-8.5392e-40
115	0x3e8d2910	0.2757039
116	0x32eea3e0	2.7781368e-08
117	0x040f1588	1.6819456e-36
118	0x3ef3523c	0.47523677
119	0x3e5405b0	0.20705295
120	0xb9274439	-0.00015951776
121	0x3e9e3ca3	0.30905637
122	0x800117f0	-1.00423e-40
123	0x138de080	3.581478e-27
124	0x1a46a376	4.1077483e-23
125	0x3edb3fdf	0.42822167
126	0x1eebab9e	2.4952572e-20
127	0x8000bd89	-6.7992e-41
128	0x8000e6e4	-8.2828e-41
129	0x00015958	1.23886e-40
130	0x80030609	-2.77671e-40
131	0xbeb74e49	-0.35801914
132	0xb4daf3fa	-4.078318e-07
133	0x0330fd94	5.2012845e-37
134	0xbf3246f5	-0.6963952
135	0xbe63e3ec	-0.22254914
136	0x3ab39796	0.0013701792
137	0xbf1a0a24	-0.60171723
138	0x00029d85	2.40178e-40
139	0x162f655c	1.4168371e-25
140	0x999b846c	-1.6080109e-23
141	0xbf08725c	-0.532995
142	0xa4bccbba	-8.187713e-17
143	0xac32175a	-2.5308284e-12
144	0x8000ff5e	-9.1608e-41
145	0x00022f91	2.00735e-40
146	0x8007bfe0	-7.1168e-40
147	0x3d934910	0.0719167
148	0x3b46bed5	0.0030326147
149	0x84afa1f4	-4.1291033e-36
150	0x3ef444ef	0.47708842
151	0x3e829f68	0.25512242
152	0xba017e9d	-0.00049398263
153	0x3f1f379d	0.62194234
154	0x00040b33	3.7136e-40
155	0x96e105a9	-3.6354283e-25
156	0x19dda1bc	2.2916188e-23
157	0x3f36d34f	0.7141618
158	0x1de34b1c	6.016406e-21
159	0x2fd3d463	3.8531586e-10
160	0x80003662	-1.9509e-41
161	0x8000eb37	-8.4379e-41
162	0x8001f5ef	-1.8006e-40
163	0x3eeafa61	0.4589415
164	0x37910dcb	1.729177e-05
165	0x03c083dd	1.131502e-36
166	0x3eebc4e4	0.46048653
167	0x3e98bfd9	0.29833868
168	0xb9564669	-0.0002043486
169	0x3e976175	0.2956654
170	0x0000c3da	7.0258e-41
171	0x16858269	2.156961e-25
172	0x1a04a520	2.7430347e-23
173	0x3f449193	0.7678463
174	0x1d7cdde8	3.3466645e-21
175	0x2ae52a75	4.0708032e-13
176	0x80001ae4	-9.647e-42
177	0x0000da6d	7.8356e-41
178	0x000a92e5	9.71051e-40
179	0xbe2b3d33	-0.16722564
180	0xb8465f00	-4.7295354e-05
181	0x84a6afe9	-3.918796e-36
182	0xbec1fb7f	-0.3788719
183	0xbe0ac5bd	-0.13551994
184	0x3981dbab	0.00024768463
185	0xbe9fc067	-0.3120148
186	0x00009382	5.2916e-41
187	0x96930505	-2.3752299e-25
188	0x9a4a8149	-4.1877057e-23
189	0xbf01865d	-0.5059565
190	0x9da57c9c	-4.380398e-21
191	0x00014e62	1.19954e-40
192	0x80015721	-1.23091e-40
193	0x00008120	4.6321e-41
194	0x0004f24e	4.54265e-40
195	0x3f099189	0.53737694
196	0x3b451bbf	0.0030076352
197	0x84f7ca58	-5.8255244e-36
198	0x3edaab02	0.42708594
199	0x3e623bce	0.22093126
200	0xb9f3a9ac	-0.00046474987
201	0x3f26d3c0	0.65166855
202	0x0001b46c	1.56559e-40
203	0x16f0f632	3.8929462e-25
204	0x19df1013	2.3064152e-23
205	0x3ee10cac	0.4395498
206	0x9eaa1c18	-1.801107e-20
207	0x31489bcd	2.9192393e-09
208	0x80042a92	-3.82613e-40
209	0x0003adcd	3.37854e-40
210	0x000151ed	1.21225e-40
211	0xbf0320cb	-0.51221913
212	0xbb48b3c3	-0.0030624724
213	0x045b132d	2.5752131e-36
214	0xbf15a3b4	-0.58452916
215	0xbea90442	-0.3301106
216	0xb90050c5	-0.0001223712
217	0xbf3d7322	-0.74003804
218	0x80007a51	-4.3879e-41
219	0x16dc584d	3.5598643e-25
220	0x99df574d	-2.309292e-23
221	0xbf018930	-0.50599957
222	0x9e983213	-1.6114336e-20
223	0xb56a23be	-8.7223805e-07
224	0x0002cc61	2.56988e-40
225	0x00039f4b	3.3265e-40
226	0x800102b0	-9.28e-41
227	0xbf16c38c	-0.5889213
228	0xbb411fc5	-0.00294684
229	0x8325c5ee	-4.8716354e-37
230	0xbf45bb15	-0.7723859
231	0xbe9f772a	-0.31145602
232	0x3a26f899	0.00063694414
233	0xbf13a9a7	-0.57680744
234	0x00002e1a	1.6538e-41
235	0x16836498	2.1227675e-25
236	0x99e4fd39	-2.3676923e-23
237	0xbedf3750	-0.43596888
238	0x1d46d2ea	2.6314122e-21
239	0xb5c0de08	-1.4369734e-06
240	0x8001ef22	-1.7762e-40
241	0x8001c68e	-1.63063e-40
242	0x00027c26	2.28207e-40
243	0xbd8fd410	-0.070228696
244	0xbab98be5	-0.0014156072
245	0x83cf6db1	-1.219155e-36
246	0xbee2340c	-0.44180334
247	0xbdd3793c	-0.10325858
248	0xbb87bbde	-0.0041422686
249	0xbecf434d	-0.40481034
250	0x8001a51b	-1.51064e-40
251	0x16ab5849	2.7682256e-25
252	0x99d58481	-2.2077202e-23
253	0xbf26dd5d	-0.65181524
254	0x9dba4da4	-4.931407e-21
255	0xb12b5266	-2.4930613e-09

linear.weight f4 [1, 16]
0	0x40389236	2.883924
1	0xc0065932	-2.099194
2	0xc003e3a4	-2.060769
3	0xbf1a907f	-0.60376734
4	0x3fddf073	1.7339004
5	0x3f949746	1.1608665
6	0xc03a1f84	-2.9081736
7	0xbf988854	-1.1916604
8	0x3f6d46a6	0.92685926
9	0xc05476e6	-3.319757
10	0xbfcebe95	-1.6151911
11	0x3fe9e293	1.827227
12	0xc04b9d6c	-3.1814833
13	0x40591107	3.3916643
14	0x40605171	3.5049708
15	0x4027b788	2.6205769
