RL gym coherence/models/Taxi_GCN_UUS_URS_11.pt (torch, 4160 bytes, 5 tensors)

conv1.bias f4 [16]
-0.02267113 -3.436437e-08 -1.1324194e-07 -1.3466111 -1.3429296 -0.008897079 -3.6161076e-05 -0.05088902
-1.4343055 -0.019156815 -4.8239173e-09 -1.3860677e-11 -5.2587696e-17 -8.24613e-38 -5.997765e-07 -8.7939185e-09
00000000: ceb8 b9bc 0698 13b3 6a2f f3b3 c15d acbf
00000010: 1ee5 abbf 0ec5 11bc a9ab 17b8 0171 50bd
00000020: 5397 b7bf c1ee 9cbc a0bf a5b1 f1d6 73ad
00000030: 9884 72a4 247b e081 5400 21b5 1014 17b2

conv1.lin.weight f4 [16, 1]
-0.04747719 -0.00029437986 -0.0014680374 0.7854836 0.83632904 0.0019933283 7.1353375e-06 0.01088579
0.932366 0.0043859966 -6.9198145e-09 -1.369678e-06 -3.0456527e-12 -3.2068885e-18 -1.3496049e-06 -5.2508727e-05
00000000: 7177 42bd ff56 9ab9 296b c0ba 7415 493f
00000010: a919 563f 80a2 023b 156c ef36 505a 323c
00000020: 8aaf 6e3f 68b8 8f3b 55c3 edb1 c7d5 b7b5
00000030: 9a51 56ac 69a0 6ca2 1224 b5b5 d13c 5cb8

conv2.bias f4 [16]
0.37355745 1.9096375 -0.06609616 0.04403155 -1.7659124 1.232697 -1.6062601 -0.32556513
-1.5504417 0.115419224 1.7235628 -1.9916869 1.4220122 -0.5812304 -1.2596492 1.3943974
00000000: ec42 bf3e 006f f43f 6c5d 87bd 6d5a 343d
00000010: 6b09 e2bf 04c9 9d3f ee99 cdbf 79b0 a6be
00000020: e074 c6bf ea60 ec3d b59d dc3f 99ef febf
00000030: 7f04 b63f 84cb 14bf 2f3c a1bf 9d7b b23f

conv2.lin.weight f4 [16, 16]
-0.021133414 3.5206e-41 -8.4559e-41 -0.17529024 -0.20099597 2.5735967e-06 1.7091413e-08 7.8861776e-05
-0.15163828 -3.5423577e-06 -4.308371e-11 -3.444638e-20 1.238198e-19 1.700312e-39 -1.58902e-10 -1.187e-41
-0.03765776 -1.2652e-41 2.6325e-41 -0.93807966 -0.5917449 0.00014068998 -1.8646581e-06 0.0021482094
-1.1348932 -0.0003495428 5.537791e-10 5.1568992e-23 -1.5347544e-18 -2.494509e-39 4.066013e-07 4.7332e-41
-0.00011563716 -2.5923e-41 -1.0104e-40 0.02454648 0.04775067 1.0913559e-06 -1.075285e-10 1.8945835e-05
0.05761041 5.0173e-06 -3.0615517e-12 -2.1383627e-21 1.3448794e-21 -1.2068e-41 -1.4333362e-09 -3.4478e-41
-0.0008234668 1.29585e-40 7.274e-41 -0.019983893 -0.027845103 -5.412515e-07 -2.1871487e-11 3.9080078e-05
-0.023343822 -3.2763874e-05 3.690763e-13 -4.1092676e-19 5.808739e-20 4.23914e-40 -7.433029e-10 -2.1775e-41
0.04036328 -5.3161155e-33 2.0377782e-16 0.5971717 0.7556874 -0.00013891596 1.6839866e-06 -0.0022664536
1.0311047 -0.0005712169 -3.4632505e-11 -5.181874e-12 1.0953374e-18 6.69419e-39 -3.7774984e-07 5.2226e-41
-0.043989655 -1.29738e-40 4.7192e-41 -0.21080755 -0.6039152 5.6897232e-05 -2.0122188e-07 0.00085625064
-0.72631663 0.0004203871 -9.924405e-10 -1.4892537e-16 2.9428915e-19 2.487166e-39 -2.6729617e-07 4.4155e-41
0.03891666 1.493218e-11 2.3098255e-07 0.57256 0.93357366 0.0008020217 -1.2476659e-07 0.03836657
1.0148658 -0.0017057048 9.292957e-11 1.9295554e-17 6.8731865e-14 1.468893e-39 2.0844762e-07 2.1407351e-38
0.01617513 -3.7371e-41 -4.8245e-41 0.110270984 0.116373 -1.5117912e-06 -1.4905117e-09 -2.7740477e-06
0.22808209 4.6236757e-05 -6.535178e-11 -2.236319e-21 -1.0860984e-19 1.30938e-39 3.8348702e-10 -9.7378e-41
0.042651992 -1.373163e-20 -5.667074e-12 0.66542673 0.65881366 -9.3914925e-05 1.1664893e-06 -0.004676067
0.7369346 0.00035889825 -1.03541196e-10 -4.870627e-12 2.5562931e-18 -2.367366e-38 3.112002e-07 2.5258e-41
0.0011141691 8.842e-41 1.4640134e-29 -0.037138414 -0.05878743 -8.245614e-07 -2.5403097e-09 4.7338717e-06
-0.08997407 -2.261106e-06 2.707863e-12 1.43440005e-36 -1.7067062e-22 -1.5237e-40 2.358612e-09 -2.406e-41
-0.037717856 -7.763287e-16 -1.4303458e-09 -0.686098 -0.8121961 -1.1352265e-05 -6.1393933e-07 0.0074930103
-1.2207109 -0.0034624126 -1.4210493e-10 -6.159267e-23 -2.6701096e-14 -2.053526e-39 -2.0843676e-07 -3.2114e-41
0.03549709 2.7715e-41 -5.86513e-33 0.7464699 1.0498415 -0.00019257184 9.585051e-07 -0.0017752857
1.001456 8.755131e-05 -1.2424478e-09 -1.32102e-40 -2.7951725e-19 -1.5573185e-38 -5.099502e-07 -1.30204e-40
-0.03865703 3.3774e-41 -9.4165403e-35 -0.5230389 -0.47601426 6.612899e-05 -8.7780626e-07 0.0008890661
-0.8294642 -0.000111743575 6.5917327e-10 -7.3298e-41 4.450579e-18 2.9324805e-38 2.3252363e-07 5.807e-41
0.037511423 -1.44163e-40 1.137298e-38 0.20339945 0.31265616 -5.467123e-06 -5.5670657e-08 -8.739055e-05
0.26676813 1.3279428e-05 -1.3906432e-10 -7.2482e-41 -2.6535737e-19 1.0317542e-38 3.876708e-08 1.2598e-40
0.044529103 -1.278e-40 -6.853177e-37 0.42208442 0.5710437 -5.9048525e-05 7.7419656e-07 -0.00202532
0.6282767 0.0033590898 -5.670332e-10 3.9542794e-13 2.4906197e-18 -1.1686207e-38 -2.3865607e-07 3.925e-42
-0.04374531 3.7869782e-20 8.701487e-12 -0.606551 -0.50175 7.983346e-05 -9.842917e-07 0.0030745314
-0.707158 0.0057858513 1.2496551e-10 -7.1260285e-12 4.194969e-18 5.0762995e-38 5.396283e-08 -4.1935e-41
00000000: fb1f adbc 2462 0000 b7eb 0080 497f 33be
00000010: e3d1 4dbe 0eb6 2c36 6ad0 9232 9862 a538
00000020: 1147 1bbe 3eb9 6db6 f27b 3dae 1eab 229f
00000030: 3d2e 1220 c783 1200 f0b6 2eaf 1721 0080
00000040: 063f 1abd 4523 0080 6249 0000 fd25 70bf
00000050: 987c 17bf 2e86 1339 2a45 fab5 f9c8 0c3b
00000060: 2e44 91bf d742 b7b9 bd38 1830 525f 791a
00000070: 627d e2a1 ad29 1b80 db4a da34 f183 0000
00000080: 3a82 f2b8 4348 0080 a919 0180 b315 c93c
00000090: 3596 433d b47a 9235 2a75 ecae dfed 9e37
000000a0: e5f8 6b3d 475a a836 0370 57ac f391 219d
000000b0: 803b cb1c a421 0080 09ff c4b0 1c60 0080
000000c0: ecdd 57ba 3b69 0100 c5ca 0000 43b5 a3bc
000000d0: 6a1b e4bc 854a 11b5 3662 c0ad eae9 2338
000000e0: 8b3b bfbc f16b 09b8 80c5 cf2a 7f91 f2a0
000000f0: ac27 891f b39d 0400 4b51 4cb0 b33c 0080
00000100: f753 253d a3d2 dc89 99f0 6a25 3fe0 183f
00000110: bb74 413f f8a9 11b9 5705 e235 c888 14bb
00000120: 3dfb 833f b8bd 15ba bc50 18ae 2c52 b6ac
00000130: ada4 a121 aee4 4800 8bcd cab4 9691 0000
00000140: 7f2e 34bd a869 0180 8d83 0000 efdd 57be
00000150: 309a 1abf f0a4 6e38 730f 58b4 0276 603a
00000160: e3ef 39bf 6767 dc39 6566 88b0 03b3 2ba5
00000170: b8b7 ad20 3515 1b00 e880 8fb4 167b 0000
00000180: 1367 1f3d 4858 832d 0004 7834 4b93 123f
00000190: affe 6e3f c43e 523a 94f7 05b4 4426 1d3d
000001a0: 1fe7 813f f591 dfba b25a cc2e 57f8 b123
000001b0: 39c5 9a29 adfe 0f00 a5d1 5f34 fc1a e900
000001c0: b581 843c 2d68 0080 7d86 0080 c1d5 e13d
000001d0: f854 ee3d c0e8 cab5 b8da ccb0 c729 3ab6
000001e0: 5a8e 693e 57ee 4138 c8b5 8fae b3f8 289d
000001f0: 4f39 00a0 0542 0e00 00d3 d22f 730f 0180
00000200: dbb3 2e3d 0bb1 819e 7764 c7ac 6859 2a3f
00000210: 03a8 283f 31f4 c4b8 4490 9c35 b139 99bb
00000220: bfa7 3c3f 822a bc39 83b0 e3ae b55e abac
00000230: 039f 3c22 44e4 0081 0813 a734 6946 0000
00000240: 5009 923a 7bf6 0000 f677 940f 731e 18bd
00000250: 17cb 70bd 6e57 5db5 9a91 2eb1 a6d7 9e36
00000260: 5344 b8bd 81bd 17b6 868c 3e2c ef0c f403
00000270: 0054 4e9b bfa8 0180 2415 2231 1243 0080
00000280: 0a7e 1abd f3c2 5fa6 d295 c4b0 1ea4 2fbf
00000290: 15ec 4fbf 9b75 3eb7 97cd 24b5 ed87 f53b
000002a0: 4140 9cbf a5e9 62bb fb3e 1caf 04ec 949a
000002b0: 8980 f0a8 655c 1680 a9ce 5fb4 8559 0080
000002c0: 6665 113d 424d 0000 c3a0 f389 a718 3f3f
000002d0: 3561 863f 1ced 49b9 fca5 8035 b4b0 e8ba
000002e0: b62f 803f c09b b738 bfc2 aab0 3f70 0180
000002f0: 74ff a4a0 b493 a980 83e3 08b5 f56a 0180
00000300: d556 1ebd 265e 0000 a755 fa86 e1e5 05bf
00000310: 24b8 f3be bbae 8a38 63a2 6bb5 3710 693a
00000320: c457 54bf e057 eab8 3231 3530 53cc 0080
00000330: 8832 a422 d0a8 1f01 9cab 7934 e0a1 0000
00000340: 94a5 193d de91 0180 3ed7 7b00 f247 503e
00000350: 7814 a03e 3b72 b7b6 891a 6fb3 7245 b7b8
00000360: d595 883e b5ca 5e37 20e7 18af 0dca 0080
00000370: aca3 9ca0 1c59 7000 db80 2633 2e5f 0100
00000380: 2664 363d 4164 0180 9733 6983 731b d83e
00000390: ec2f 123f dfaa 77b8 62d2 4f35 3bbb 04bb
000003a0: bed6 203f 2d24 5c3b 6add 1bb0 2c9b de2a
000003b0: 7ac6 3722 6440 7f80 a420 80b4 f10a 0000
000003c0: 482e 33bd c2d5 321f 0314 192d ed46 1bbf
000003d0: b072 00bf 436c a738 011c 84b5 147e 493b
000003e0: 4f08 35bf 3d97 bd3b aa66 092f 8fb9 faac
000003f0: 5dc4 9a22 a530 8a01 c2c4 6733 e674 0080

linear.weight f4 [1, 16]
0.03544268 2.9531226 0.010608066 -0.0018416487 -2.8055365 1.1475898 -2.0228457 -0.015034199
-1.8228054 -0.007825868 2.1874783 -2.8733308 1.4354835 -0.11891046 -1.2705829 1.5350176
00000000: 582c 113d f6ff 3c40 74cd 2d3c 7a63 f1ba
00000010: e98d 33c0 39e4 923f 4e76 01c0 0052 76bc
00000020: b051 e9bf 1238 00bc a5ff 0b40 a7e4 37c0
00000030: ecbd b73f 5487 f3bd 76a2 a2bf 757b c43f
