RL gym coherence/models/Taxi_GCN_USS_URS_18.pt (torch, 4160 bytes, 5 tensors)

conv1.bias f4 [16]
00000000: 66a6 bfbd 475e 49b8 80f4 98bb f6ed 5a90
00000010: e3b2 79bf c13c c4bd d060 69bf 96b1 5dbf
00000020: 663e 6bb4 7deb 18bb 7c12 8fbd 2ee9 433f
00000030: d1c1 2c3e a342 6cbf 9868 96b9 05c3 c699
-0.0935791 -4.8009937e-05 -0.0046678185 -4.3176238e-29 -0.97538584 -0.095819004 -0.9116335 -0.865991
-2.1908781e-07 -0.0023333721 -0.069859475 0.7652768 0.1687081 -0.9228918 -0.00028688158 -2.0551488e-23

conv1.lin.weight f4 [16, 1]
00000000: ae2b bcbd ccd5 41bb b66c 583a 1314 9b9a
00000010: 69aa 0e3f 51c4 d8bd 8912 fc3e fbd0 ed3e
00000020: a20f a8b1 5c15 f739 a32b b3bd 3b92 94be
00000030: d75b 60be 11b2 0d3f 751c 6938 5cb0 19a0
-0.09188019 -0.0029576896 0.0008255945 -6.413893e-23 0.55728775 -0.105843194 0.4923289 0.46448502
-4.8912208e-09 0.00047127425 -0.087485574 -0.29017815 -0.21910034 0.5534983 5.557803e-05 -1.3017957e-19

conv2.bias f4 [16]
00000000: a99a 4a3f 49f0 10bf 6c2c 363f 4ebb 4abf
00000010: b05b 573f 1d0c 3e3f 009f 533f 8117 213f
00000020: b731 283f 2237 edbe 2886 6cbf a79d 3bbf
00000030: 13be 413f 702f 693f 98e7 34bd e734 4b3f
0.7914224 -0.56616646 0.7116153 -0.79192054 0.8412428 0.74237233 0.8266449 0.6292649
0.6570086 -0.46331125 -0.92392206 -0.73287433 0.75680655 0.9108801 -0.044166178 0.793776

conv2.lin.weight f4 [16, 16]
00000000: 8612 b83d 4882 5b2a 545c 0939 0047 5d0d
00000010: dd9d 3cbf 74f6 4a3d 5607 a5be 5497 38bf
00000020: c1b2 be9e a58d b338 0e80 03bd bebf 153f
00000030: 45d1 77bc d373 38bf 2b32 1a36 0b42 af98
00000040: f37e b8bd 006f 93b8 1383 993a 807a 758b
00000050: 2f3c bd3e 1143 86bc 57f0 8b3e 2087 213f
00000060: 0164 ba9e 1a56 cf34 e370 cb3b 7742 a9be
00000070: 3779 023b 057e ef3e 90b3 8335 6651 2098
00000080: 86a8 b83d 918b 3c34 3f04 a638 90bf 230c
00000090: 623f 4ebf 9617 493d e826 f3be 6849 b9be
000000a0: b4ef a61f 4836 c137 eda3 e7bc 026b 063f
000000b0: cac3 53bd 5c5a 12bf d490 1eb5 3f4f 7298
000000c0: 832d bcbd 1b9e c0b5 d340 f6b8 4235 0d0e
000000d0: ef5e 563f ec6d 5cbd 3dc6 683e 57b1 223f
000000e0: 8da4 981f ed49 f6b6 cac5 133d 5693 1cbf
000000f0: 1a5b cd3b 432d 543f f787 e835 3fc5 dc18
00000100: 2685 bc3d f6b4 9b34 b599 e738 1864 880e
00000110: 0af5 a9be 3a63 723d 99f3 43bf 5451 66bf
00000120: b3b2 2f1f e83b 1437 2340 26bd 4a7c 123f
00000130: 1a35 1cbb 507f 41bf 1e67 e4b5 883d e498
00000140: 2aaf b33d 5ee4 748f 39b3 dd38 8afd 880e
00000150: 0ae1 1cbf cc77 c63c a19a 11bf f378 fabe
00000160: d8a3 441f b00a 5437 5c73 61bc 7892 dc3e
00000170: bbe7 febc 41d9 18bf d043 ac36 6a88 c218
00000180: 235a b83d 87fa ae28 e9e5 2939 e53e 060f
00000190: 65d2 03bf 77d4 513d 7032 3dbf 95a5 22bf
000001a0: 9491 9f1f 0809 bd38 5a9a 0bbd 35b4 1a3f
000001b0: 1958 86bc 2b33 3dbf 1201 8f36 2145 c998
000001c0: 94bb b43d 40de 291e a41e f038 9e11 590e
000001d0: 1acb 24bf 6acd 153d 75b2 e6be e83f d7be
000001e0: f1e8 969f d6a8 6e38 73d1 9bbc b91d f03e
000001f0: 5c5e f6bc 52b7 fbbe 6d11 5336 e050 0518
00000200: bcd1 ba3d 7168 8138 6a73 e839 e4c6 8d8c
00000210: b826 a6be 6851 223d 5539 febe ec98 a4be
00000220: 6768 d31e 7e9b 88b2 0940 aabc b997 0b3f
00000230: 78b7 4fbd a2a0 58bf ff30 d4b5 515e d097
00000240: 7a23 a3bd 986a b505 ebe0 27b8 7e6c bc8d
00000250: bc89 cb3e 6182 ddbb 875c be3e fb45 af3e
00000260: a3ab 159f 0f1c 6e37 0efb 993a c1c6 7dbe
00000270: 95fe 5b3c e391 a03e 302d 00b6 25b3 6018
00000280: ba32 b9bd 663b 3da7 abaf 04b9 2fe5 258f
00000290: a2f2 443f 07a0 50bd c5e0 2a3f 9b26 273f
000002a0: 65e3 8b9f d361 91b8 30d5 063d 3eca 1abf
000002b0: 2482 e83c a8f6 443f 60f2 b1b5 157d b818
000002c0: bba4 b7bd eae9 b5ac b701 cdb8 6e5a 3c8e
000002d0: 1432 683f 17af 3dbd eed3 c13e e8ed 013f
000002e0: c9aa 3d9f 8c46 84b8 bfa6 e03c 60fc 08bf
000002f0: 91a3 093d 6844 043f 4034 74b5 0679 3d18
00000300: 34f9 c23d 59d8 aa39 5845 29bb eb26 300c
00000310: c903 61bf 0c6d 223d d605 1bbf 1bb1 46bf
00000320: a13e 309f 511d a3b6 2ac5 c2bc 0f1f 023f
00000330: 9e09 5dbb 9958 c2be 251f 94b5 b4f1 6998
00000340: 9397 bb3d fcae 0a31 de06 dc38 9449 850e
00000350: fdd3 3bbf ce55 5d3d a8c2 34bf c705 0dbf
00000360: a498 db1e eb71 9837 cd78 18bd 5231 263f
00000370: 22ce 15bd 8c8b 55bf d1dd 87b5 dc7f e898
00000380: 6008 2b36 8a33 9faa 097f 7134 0f7d a809
00000390: 1699 2d3d 9612 0000 20c0 c43c eacd b53c
000003a0: 7140 039c c143 9c33 f8ba 2a97 5c2a fa3b
000003b0: 72b3 2d38 a0f2 0f3d e572 3432 b333 5314
000003c0: 014e ba3d ced4 a931 5157 df38 ccf7 990e
000003d0: a6be 2bbf e6d1 663d de91 56bf 0033 09bf
000003e0: ba7a 831f 8ea3 0438 fa99 1bbd 74ae 203f
000003f0: 7179 0ebc 17c8 08bf e721 3db5 a8de e198
0.08987908 1.9496308e-13 0.00013099733 6.8186346e-31 -0.7367838 0.049551442 -0.3223216 -0.7210591
-2.0190963e-20 8.5617685e-05 -0.032104544 0.584957 -0.015125577 -0.72051734 2.297699e-06 -4.5303126e-24
-0.09008589 -7.0301816e-05 0.0011712037 -4.7277442e-32 0.3695998 -0.016389402 0.27331802 0.6309681
-1.9734877e-20 3.8619402e-07 0.0062085255 -0.3305852 0.0019908675 0.46775833 9.81252e-07 -2.0720611e-24
0.09016518 1.7559638e-07 7.916288e-05 1.261471e-31 -0.80565464 0.04909476 -0.4749062 -0.36188817
7.070029e-20 2.303267e-05 -0.028276408 0.5250703 -0.05170039 -0.5716913 -5.907034e-07 -3.1317776e-24
-0.09188368 -1.435113e-06 -0.000117422685 1.7405235e-30 0.8373861 -0.053815767 0.22731872 0.6355185
6.464673e-20 -7.3399774e-06 0.0360773 -0.61162317 0.0062669637 0.82881564 1.7324918e-06 5.7067835e-24
0.092050835 2.9002666e-07 0.000110435685 3.3622975e-30 -0.33194762 0.05917666 -0.76543576 -0.89967847
3.7205508e-20 8.835435e-06 -0.04058851 0.572209 -0.0023835362 -0.7558489 -1.7017335e-06 -5.899875e-24
0.08773644 -1.2074111e-29 0.00010571484 3.3770738e-30 -0.6128088 0.024227045 -0.5687657 -0.48920402
4.1640143e-20 1.2638673e-05 -0.013760414 0.43080497 -0.031116357 -0.59706503 5.133894e-06 5.0285568e-24
0.09001567 1.942653e-14 0.00016202744 6.618823e-30 -0.5149291 0.051228013 -0.73905087 -0.6353391
6.757996e-20 9.0139045e-05 -0.034082748 0.60431224 -0.01639943 -0.739062 4.2618567e-06 -5.2027085e-24
0.0882484 8.992746e-21 0.00011449799 2.6755797e-30 -0.6437241 0.03657285 -0.45058027 -0.42040944
-6.391284e-20 5.6900863e-05 -0.019020772 0.46897677 -0.03007429 -0.491633 3.1451593e-06 1.7230679e-24
0.09122035 6.170653e-05 0.00044336478 -2.1844193e-31 -0.32451415 0.039628416 -0.49653116 -0.3214792
2.2383674e-20 -1.5903193e-08 -0.020782487 0.54528385 -0.05071208 -0.84620106 -1.5809491e-06 -1.3465494e-24
-0.07965751 1.7060315e-35 -4.0025374e-05 -1.1612513e-30 0.3975352 -0.006759927 0.37179968 0.34233078
-3.1693952e-20 1.4192438e-05 0.0011747794 -0.2478285 0.013427396 0.31361303 -1.909979e-06 2.9041766e-24
-0.090428784 -2.6261219e-15 -0.00012653942 -8.179267e-30 0.7693273 -0.050933864 0.6674922 0.6529328
-5.924498e-20 -6.93236e-05 0.032918155 -0.6046485 0.028382368 0.7693887 -1.3258068e-06 4.7689186e-24
-0.08966967 -5.170299e-12 -9.775481e-05 -2.321633e-30 0.90701413 -0.046309557 0.37857002 0.5075364
-4.0163577e-20 -6.307391e-05 0.02742326 -0.53510094 0.033603255 0.5166688 -9.0973117e-07 2.4488779e-24
0.09520188 0.00032586118 -0.0025828686 1.3570258e-31 -0.878964 0.039654776 -0.6055578 -0.7761399
-3.7321255e-20 -4.8611914e-06 -0.023775656 0.5082864 -0.0033727656 -0.3795822 -1.1035924e-06 -3.0236573e-24
0.0915977 2.018111e-09 0.000104916966 3.2857885e-30 -0.73370343 0.054036908 -0.7060952 -0.5508694
2.3250658e-20 1.817286e-05 -0.03722458 0.64919007 -0.036573537 -0.83416057 -1.0122841e-06 -6.00997e-24
2.548586e-06 -2.8279836e-13 2.2491089e-07 4.0562133e-33 0.042382322 6.667e-42 0.024017394 0.022192914
-4.3427553e-22 7.2766404e-08 -5.516595e-25 0.007634444 4.1413536e-05 0.035143495 1.0503503e-08 1.06629735e-26
0.09096909 4.9427404e-09 0.000106497326 3.795603e-30 -0.6708778 0.05635252 -0.83816326 -0.53593445
5.568369e-20 3.1623575e-05 -0.03798864 0.62766194 -0.008695946 -0.5343031 -7.045732e-07 -5.8385962e-24

linear.weight f4 [1, 16]
00000000: bee2 10c0 a1ea 633f 894a ffbf 2ee1 2140
00000010: 9335 35c0 1611 acbf ed54 19c0 f9aa bfbf
00000020: 4ccc cabf d542 063f e0ba 1940 1fda fc3f
00000030: 9e20 e8bf af9e 2ac0 2e35 5c39 3fe7 27c0
-2.2638392 0.8902989 -1.9944621 2.5293689 -2.831395 -1.3442714 -2.3958085 -1.4974052
-1.5843596 0.5244573 2.402031 1.9754065 -1.8134954 -2.6659353 0.00021000646 -2.6234891
