RL gym coherence/models/Taxi_GCN_USS_URS_4.pt (torch, 4150 bytes, 5 tensors)

conv1.bias f4 [16]
0	0xbf5f02c7	-0.8711361
1	0x8c4cb9a8	-1.5771457e-31
2	0xac88c506	-3.8872265e-12
3	0xbf784ed0	-0.9699526
4	0xba8a76e7	-0.0010564
5	0xa3bf25f8	-2.0724342e-17
6	0xbbb48263	-0.0055087074
7	0xbf6d2bb4	-0.9264481
8	0xbf0d4571	-0.55184084
9	0xb82b26c5	-4.0805684e-05
10	0x9aa12e86	-6.66632e-23
11	0x8cd19b7d	-3.229513e-31
12	0xbf66239b	-0.8989808
13	0xbd9359a1	-0.0719483
14	0xbd7f4fa1	-0.0623318
15	0xac4ca512	-2.9081776e-12

conv1.lin.weight f4 [16, 1]
0	0x3ee8ebfe	0.45492548
1	0xaccdfdd2	-5.85463e-12
2	0xb4f5abbc	-4.575976e-07
3	0x3f0f288f	0.5592126
4	0xbc96f68d	-0.018428111
5	0xa5208384	-1.3922347e-16
6	0x3a98a17c	0.0011644806
7	0x3efc89a2	0.49323756
8	0x3e1829fb	0.14859764
9	0xb8f0ab28	-0.00011475972
10	0xaec6680e	-9.0224814e-11
11	0xa1c689d9	-1.345349e-18
12	0x3f00d75b	0.50328606
13	0xbd9c5bbb	-0.07634684
14	0xbdb630fa	-0.0889606
15	0xb605ac38	-1.991879e-06

conv2.bias f4 [16]
0	0x3e8ef194	0.27918684
1	0xbf51bb5a	-0.819265
2	0x3ea24242	0.31691176
3	0x3dfd4edf	0.12368559
4	0xbf68ef3a	-0.9099003
5	0xbf750e41	-0.95724875
6	0x3f3d440c	0.73931956
7	0x3f0f20bc	0.55909324
8	0x3f51f97e	0.8202132
9	0xbe81649b	-0.25272068
10	0x3dbf763d	0.09348724
11	0x3f560b36	0.83610857
12	0x3f4edaec	0.808028
13	0xbf479d66	-0.77974546
14	0xbf6ff72a	-0.9373652
15	0x3f569e4f	0.8383531

conv2.lin.weight f4 [16, 16]
0	0xbe3a9d2d	-0.1822402
1	0x8001562a	-1.22745e-40
2	0x0000a1b4	5.8008e-41
3	0xbe851d9a	-0.25999147
4	0x800115ee	-9.9702e-41
5	0xa2c32af0	-5.2900318e-18
6	0xb61103bb	-2.1608855e-06
7	0xbe4336b8	-0.19063842
8	0xba712e32	-0.0009200304
9	0xb10c66f4	-2.0431203e-09
10	0x0003eb4d	3.59917e-40
11	0x0a77965a	1.19208954e-32
12	0xbe4b48a4	-0.19851929
13	0xbd462760	-0.048377395
14	0xb265bc29	-1.3372337e-08
15	0x80017cc3	-1.36592e-40
16	0x3ed6a00e	0.41918987
17	0x00021565	1.91346e-40
18	0x0000941a	5.3129e-41
19	0x3effd93c	0.49970424
20	0x3706645b	8.010388e-06
21	0x23a4bd5f	1.7861117e-17
22	0xb681e7c4	-3.8714807e-06
23	0x3f4d3a29	0.8016687
24	0x3d8d3832	0.06895484
25	0xb26dafb7	-1.3835169e-08
26	0x800011fb	-6.45e-42
27	0x8c28160a	-1.2948881e-31
28	0x3f4d3e10	0.80172825
29	0x3dab4cc3	0.083642505
30	0x3d2d9d2d	0.042386223
31	0x8001293c	-1.06628e-40
32	0xbe1b5e1f	-0.15172623
33	0x80030520	-2.77345e-40
34	0x800143ca	-1.16154e-40
35	0xbe8c137d	-0.27358618
36	0x00029f47	2.40809e-40
37	0xa1df76df	-1.5142533e-18
38	0xb576b7fe	-9.1909885e-07
39	0xbe9ab421	-0.30215552
40	0xba73419e	-0.0009279492
41	0x31b900b7	5.38429e-09
42	0x80029e36	-2.40426e-40
43	0x8a880425	-1.3097883e-32
44	0xbe4d5f20	-0.20055819
45	0xbd6ded01	-0.058087353
46	0xb3cb7c55	-9.47554e-08
47	0x0002a965	2.44438e-40
48	0xbd984254	-0.07434526
49	0x80015a79	-1.24291e-40
50	0x00014611	1.1697e-40
51	0xbdcab39e	-0.098975405
52	0x8002539b	-2.13663e-40
53	0xa00c2e0e	-1.18737e-19
54	0xb3d29764	-9.806425e-08
55	0xbd982ee7	-0.07430821
56	0xb9e778f2	-0.00044149865
57	0xafe06665	-4.0818118e-10
58	0x01a0babf	5.9042685e-38
59	0x07749c90	1.8402529e-34
60	0xbdf85d6f	-0.12127196
61	0x39abc728	0.00032764045
62	0x84f0718c	-5.6528005e-36
63	0x8002e8ec	-2.67228e-40
64	0x3f41d916	0.7572187
65	0x0002ebce	2.68262e-40
66	0x0001a8c7	1.52381e-40
67	0x3f612754	0.87950635
68	0x36fa247d	7.4548284e-06
69	0x23f49729	2.6518552e-17
70	0xb6b9cff8	-5.5376404e-06
71	0x3f002cdb	0.50068444
72	0x3dd54ed3	0.10415425
73	0xb3206c70	-3.7351526e-08
74	0x0000560e	3.087e-41
75	0x8c38dd06	-1.4241356e-31
76	0x3f250998	0.64467764
77	0x3da82989	0.08211047
78	0x3d2bccbf	0.041943308
79	0x8003b152	-3.39117e-40
80	0x3f5cb3b7	0.86211723
81	0x800055a5	-3.0723e-41
82	0x800159fd	-1.24117e-40
83	0x3f7329fc	0.9498594
84	0x383f290a	4.557617e-05
85	0x24580091	4.6838014e-17
86	0xb6aba3b4	-5.1152547e-06
87	0x3ee1619a	0.44019777
88	0xbd9600a0	-0.07324338
89	0x33330fe2	4.169113e-08
90	0x8001d790	-1.69165e-40
91	0x8c11f3d2	-1.1243766e-31
92	0x3f493090	0.78589725
93	0x3da40915	0.08009545
94	0x3d357278	0.04429862
95	0x800209c0	-1.87169e-40
96	0xbef73ec6	-0.4829008
97	0x000166dd	1.28736e-40
98	0x000101ae	9.2438e-41
99	0xbeb75abb	-0.3581141
100	0xad0a9fad	-7.879847e-12
101	0xa2ec314c	-6.4020123e-18
102	0xb3e12380	-1.04838364e-07
103	0xbf1f65f8	-0.62264967
104	0x3d08a810	0.033363402
105	0x32fad6aa	2.9201448e-08
106	0x8001e8e5	-1.75382e-40
107	0x8c1d4106	-1.2114407e-31
108	0xbf4f30aa	-0.8093363
109	0xbda981f0	-0.08276737
110	0xbcb7d9df	-0.022442756
111	0x0002a3eb	2.42474e-40
112	0xbec7f58a	-0.3905452
113	0x0000a221	5.8161e-41
114	0x80000925	-3.28e-42
115	0xbee2d019	-0.4429939
116	0x846c2e6c	-2.7762983e-36
117	0xa2e0f522	-6.0974866e-18
118	0x34ebd0e0	4.3924138e-07
119	0xbe40c9b2	-0.1882694
120	0x39090704	0.00013067952
121	0x31ceaa9d	6.0147856e-09
122	0x0000900c	5.1674e-41
123	0x0bbe8254	7.3381434e-32
124	0xbf06ba79	-0.52628285
125	0xbda16bfb	-0.07881924
126	0xbae22125	-0.001725231
127	0x00002c5c	1.5913e-41
128	0xbf01c91d	-0.506975
129	0x8002000b	-1.83686e-40
130	0x181309c2	1.9004231e-24
131	0xbf562bbc	-0.83660483
132	0xaf822ad3	-2.367729e-10
133	0x23127301	7.939029e-18
134	0xb4a5e510	-3.090031e-07
135	0xbf107b3a	-0.5643803
136	0xbc79e473	-0.01525222
137	0xb2d4e062	-2.4782086e-08
138	0x80030a7d	-2.79269e-40
139	0x8c170a86	-1.1635784e-31
140	0xbf4bfe2c	-0.7968471
141	0xbdaa1b17	-0.08305948
142	0xbc9a3eb5	-0.01882873
143	0x80015066	-1.20677e-40
144	0x3df5b2a8	0.119969666
145	0x80005629	-3.0908e-41
146	0x80016f3d	-1.3174e-40
147	0x3e836c31	0.2566848
148	0x8003a700	-3.35415e-40
149	0x217bf1ac	8.536196e-19
150	0x3534bc6c	6.7329415e-07
151	0x3e09e0b7	0.13464628
152	0x3a609821	0.0008567591
153	0xb018de96	-5.561359e-10
154	0x39bdb5e1	0.000361844
155	0x8a3391b2	-8.645939e-33
156	0x3e5eed58	0.21770227
157	0x3d1942b4	0.03741713
158	0x2dc8eda1	2.2842896e-11
159	0x0002ea52	2.67729e-40
160	0xbd3d8db7	-0.046277728
161	0x0000888e	4.8987e-41
162	0x80018a11	-1.41364e-40
163	0xbda49493	-0.08036151
164	0x00008b37	4.9941e-41
165	0x1faa76e8	7.2194514e-20
166	0xb3483e08	-4.6622546e-08
167	0xbd773d17	-0.060360994
168	0xb9a023f8	-0.00030544377
169	0x2f556587	1.9408307e-10
170	0x8ff14bec	-2.3793679e-29
171	0x0884fb14	8.003489e-34
172	0xbdaa6c6a	-0.083214596
173	0xb92835dd	-0.00016041794
174	0x00005253	2.9532e-41
175	0x000306d7	2.7796e-40
176	0xbf218a4d	-0.63101655
177	0x8001208b	-1.0351e-40
178	0x86d21952	-7.9030425e-35
179	0xbf6b0215	-0.9180005
180	0xb722be1b	-9.700215e-06
181	0x22f17c3c	6.545472e-18
182	0x3615773c	2.2272134e-06
183	0xbf0c04d1	-0.5469485
184	0xbd4dc8db	-0.05024038
185	0x332374cf	3.805763e-08
186	0x0000a684	5.9735e-41
187	0x0c29401f	1.3038582e-31
188	0xbef0f05c	-0.4705838
189	0xbdab53c7	-0.08365589
190	0xbd308b21	-0.043101434
191	0x00003ffc	2.2953e-41
192	0xbf346c8a	-0.7047812
193	0x8001d688	-1.68795e-40
194	0x900e061a	-2.8009263e-29
195	0xbf13e32d	-0.5776852
196	0xb23790fd	-1.06849685e-08
197	0x23817874	1.4037222e-17
198	0x35c153d0	1.4404013e-06
199	0xbf6aa3b9	-0.9165607
200	0xbccc90ca	-0.024971385
201	0x32e4233e	2.655872e-08
202	0x00005c21	3.305e-41
203	0x0b29c3dd	3.2695567e-32
204	0xbea0c48d	-0.31399956
205	0xbdaadf3e	-0.08343361
206	0xbcecbf62	-0.028899852
207	0x00028287	2.30495e-40
208	0x3ea9457b	0.33060822
209	0x000064e3	3.6191e-41
210	0x00011cc5	1.02156e-40
211	0x3f3b3c3d	0.7313879
212	0x30d1ae4e	1.5256292e-09
213	0x235db2ca	1.2018294e-17
214	0xb61f4dfc	-2.373824e-06
215	0x3ecf4022	0.40478617
216	0xbb5125d8	-0.0031913426
217	0x32c7d1a3	2.326198e-08
218	0x80021438	-1.90924e-40
219	0x89b516c8	-4.359559e-33
220	0x3f536c24	0.82586884
221	0x3daa0dc0	0.08303404
222	0x3ceb4496	0.028719228
223	0x00017ffb	1.37746e-40
224	0x3f428dbe	0.7599753
225	0x80005fa8	-3.4315e-41
226	0x800058c2	-3.184e-41
227	0x3f410d9d	0.754114
228	0x3572d03d	9.045505e-07
229	0x2486ce69	5.846291e-17
230	0x37adc8f7	2.0716789e-05
231	0x3f482643	0.7818338
232	0x3c1cb3eb	0.00956438
233	0xb318682c	-3.5485e-08
234	0x00039eed	3.32518e-40
235	0x8c4c42fb	-1.5735745e-31
236	0x3f1ef234	0.6208832
237	0x3d9bda4d	0.07609997
238	0x3d1fd99b	0.039025884
239	0x80017f76	-1.3756e-40
240	0xbeb6b4c3	-0.35684785
241	0x800122b5	-1.04286e-40
242	0x80007f81	-4.574e-41
243	0xbf806afd	-1.003265
244	0xb622d05b	-2.426116e-06
245	0xa3ba3ea2	-2.0192686e-17
246	0x36aca304	5.144977e-06
247	0xbef6234c	-0.48073804
248	0xbcb7872b	-0.02240332
249	0x2f154940	1.3577495e-10
250	0x800033be	-1.8562e-41
251	0x0c3ca698	1.4533126e-31
252	0xbf29c0d3	-0.6630985
253	0xbdaae6f1	-0.0834483
254	0xbd25c65c	-0.040472373
255	0x0002f34d	2.70951e-40

linear.weight f4 [1, 16]
0	0xbe026aff	-0.12736128
1	0x40516098	3.2715206
2	0xbe3e8bfc	-0.18608087
3	0xbc5dd1de	-0.013538806
4	0x40628d01	3.5398562
5	0x407c59f6	3.9429908
6	0xc0048364	-2.0705194
7	0xbf4b578a	-0.7943045
8	0xbff45f9e	-1.909168
9	0x3db46fc1	0.08810378
10	0xbc057bbc	-0.008147176
11	0xc05a07dd	-3.40673
12	0xc01e370c	-2.4721098
13	0x401c6433	2.4436157
14	0x405c811a	3.4453797
15	0xc04f31ba	-3.23741
