RL gym coherence/models/Taxi_GCN_USS_URS_0.pt (torch, 4150 bytes, 5 tensors)

conv1.bias f4 [16]
000000 15 08 c6 39 15 a7 00 80 60 eb 62 bf ad 36 ea aa
       0.00037771525 -5.9938e-41 -0.88640404 -4.160469e-13
000010 2c 54 fb a5 6c 0a 85 bf 9a 33 2e bb 37 53 89 ad
       -4.3598596e-16 -1.0393806 -0.002658105 -1.5612052e-11
000020 97 c6 3f bf 42 d9 58 9b 5e 5d 11 bb b0 46 19 b7
       -0.749124 -1.7937301e-22 -0.0022180895 -9.135969e-06
000030 b0 6d 2d bf c0 61 4b 3c 8b a0 4f bf 82 80 5c bb
       -0.67745495 0.012413442 -0.81104344 -0.0033645933

conv1.lin.weight f4 [16, 1]
000000 77 09 17 bc d5 5b 43 9d a0 0a 00 3f 74 12 46 b5
       -0.009218565 -2.5855511e-21 0.5001621 -7.37876e-07
000010 d4 77 c4 b4 44 b9 27 3f 39 28 d4 ba 6f 43 72 b6
       -3.659503e-07 0.6551707 -0.0016186304 -3.6100062e-06
000020 82 f6 be 3e 37 3d c4 9a 38 a1 f0 39 7a ca 0f b9
       0.37297446 -8.11626e-23 0.00045896485 -0.00013712971
000030 17 16 91 3e 6f a0 56 bd bd 30 cf 3e 74 98 3d 3a
       0.28337166 -0.052399095 0.40466872 0.0007232495

conv2.bias f4 [16]
000000 2d ce 5f bf cc ea cb bc a0 b0 21 3f b0 10 67 bc
       -0.87423974 -0.024892233 0.63160133 -0.0141031
000010 e9 bf 6a bf f9 48 29 bf 15 1b 5f 3f 9a 74 4e bf
       -0.9169908 -0.6612697 0.871507 -0.8064667
000020 8b d0 e8 3e e6 47 7f 3f 2a d9 2c 3f ab e7 65 bf
       0.45471606 0.99719083 0.67518866 -0.8980662
000030 4a 72 55 3f 71 47 20 bf fa 69 7f 3f 3c c3 79 bf
       0.83377516 -0.6260901 0.9977108 -0.9756353

conv2.lin.weight f4 [16, 16]
000000 9a 1d 04 ba 22 5a 01 00 61 64 31 3f 9d fa 01 80
       -0.00050398114 1.24169e-40 0.6929379 -1.81739e-40
000010 f0 0c 03 00 94 67 63 3f c4 cb 89 23 9d a9 00 00
       2.80148e-40 0.8882992 1.4939868e-17 6.0846e-41
000020 12 0c d8 3e c2 d4 9a 1a 97 ce 2f ba f2 c7 6e 35
       0.4219671 6.4036636e-23 -0.00067065045 8.895287e-07
000030 b4 7c 51 3e b4 42 de bc 65 03 05 3f 4b a1 94 37
       0.20457727 -0.027131416 0.51958305 1.7718083e-05
000040 3c 16 74 b1 58 f3 00 80 0c 5c 47 3c 12 39 03 80
       -3.5519312e-09 -8.7295e-41 0.012167942 -2.9598e-40
000050 09 7f 01 00 e7 3f 0f 3d 00 53 19 1f 85 d3 01 80
       1.37407e-40 0.03497305 3.2467666e-20 -1.67714e-40
000060 fc cb 7e 3b ac b1 ca 14 5a 85 cd b5 40 b5 e9 af
       0.0038878908 2.0466867e-26 -1.5312501e-06 -4.251124e-10
000070 ce 1c a4 3a 4a 9d 24 39 c4 3b a5 3b 0c 01 01 32
       0.0012520791 0.00015698854 0.005042525 7.509026e-09
000080 fe 0f 31 39 89 95 03 80 8d c4 ee be ab 5d 00 00
       0.00016885993 -3.2915e-40 -0.4663433 3.3602e-41
000090 bb 7b 01 00 eb ff 01 bf 0c 32 41 22 4c 44 02 80
       1.36222e-40 -0.50781125 2.6182872e-18 -2.08171e-40
0000a0 a4 8e dc be e1 1e 44 9a 6a da b3 39 14 95 8c 35
       -0.43077576 -4.0556794e-23 0.00034304272 1.04742e-06
0000b0 be 01 33 be c0 dc 10 3b 53 1f d7 be 44 5c ed b6
       -0.17481133 0.0022104234 -0.42016086 -7.0738915e-06
0000c0 e7 d1 00 36 73 0c 03 80 86 f8 85 3c 75 44 01 00
       1.9195666e-06 -2.79972e-40 0.016353857 1.16393e-40
0000d0 5a 34 01 00 c2 04 2e 3d d8 60 e7 1f 6f 3d 02 00
       1.10616e-40 0.042485006 9.799252e-20 2.05709e-40
0000e0 0e 16 5d 3b 18 67 d1 98 8c ef 21 35 01 18 16 31
       0.003373507 -5.412933e-24 6.032576e-07 2.1841517e-09
0000f0 a6 71 07 3a 7c 56 a5 37 2e eb 90 3b 88 2f 5e b4
       0.0005166776 1.9709805e-05 0.004422567 -2.0692653e-07
000100 65 06 1c b9 d0 1e 03 80 38 6a 5d 3f 37 68 03 00
       -0.00014879701 -2.8656e-40 0.864902 3.12892e-40
000110 ea 1b 01 80 e3 87 4c 3f 02 c3 6f a3 29 34 01 80
       -1.01849e-40 0.79894847 -1.29975105e-17 -1.10547e-40
000120 82 f5 1c 3f e0 f9 bb 99 08 f7 c7 b7 26 29 ff 35
       0.61312115 -1.943627e-23 -2.3837682e-05 1.9010956e-06
000130 e7 87 09 3e b0 38 1f bb eb 02 20 3f 5d d0 2c 37
       0.13430749 -0.0024295263 0.6250445 1.0300512e-05
000140 38 ff 81 b8 69 3c 00 80 24 f3 21 3f bc fc 02 80
       -6.1987375e-05 -2.1671e-41 0.6326163 -2.74335e-40
000150 08 9c 00 00 13 58 11 3f 5d 1f 2b 23 30 05 00 00
       5.5973e-41 0.56775016 9.27657e-18 1.861e-42
000160 29 99 b3 3e 68 2a 42 1a f8 2d 6a 37 fa 2f f4 b5
       0.3507779 4.0152515e-23 1.395819e-05 -1.819338e-06
000170 28 a6 0c 3e ea 3f 54 bb c0 58 72 3e 86 48 18 37
       0.13735259 -0.0032386729 0.23666668 9.076792e-06
000180 e0 72 25 39 74 61 00 80 b0 ae 4c bf e8 0f 00 00
       0.0001577842 -3.496e-41 -0.7995405 5.706e-42
000190 97 08 01 00 37 48 16 bf 1c 21 66 23 c2 d5 01 00
       9.4917e-41 -0.5870394 1.2475336e-17 1.68517e-40
0001a0 a7 e4 eb be 1c 25 24 1a 5c 27 1c b8 74 36 17 36
       -0.46072885 3.3944382e-23 -3.7229955e-05 2.253245e-06
0001b0 be a5 a7 be b1 1d 9e ba 27 f3 3d bf 8c 4d 3e b7
       -0.3274364 -0.0012063292 -0.74199146 -1.1342938e-05
0001c0 0c 2a 4e b6 41 7a 03 00 db bd 5d 3f 73 9d 01 00
       -3.0720867e-06 3.19363e-40 0.8661782 1.48318e-40
0001d0 4f e3 00 00 c3 ed 08 3f 71 52 4a 23 79 66 03 80
       8.1543e-41 0.53487796 1.09679e-17 -3.12267e-40
0001e0 20 7a cf 3e ca 43 ea 9a b7 cf 26 36 5e 52 75 36
       0.4052286 -9.688965e-23 2.4856834e-06 3.655579e-06
0001f0 83 ee 2d 3e 66 85 a6 bb d0 a8 29 3f b5 5c 99 37
       0.16985516 -0.0050818203 0.6627321 1.8282191e-05
000200 49 54 91 37 84 9e 01 80 38 ea e8 be ff e1 00 00
       1.7324595e-05 -1.487e-40 -0.45491195 8.1072e-41
000210 89 dd 00 80 29 7e c2 be 2a 7c 9e 21 61 a1 00 80
       -7.9472e-41 -0.37986878 1.0739362e-18 -5.7892e-41
000220 8e 57 48 be 8c ef b0 98 7e 1f a3 b6 40 73 1a 33
       -0.1956465 -4.5736814e-24 -4.8614447e-06 3.596074e-08
000230 72 f0 31 bd 49 cd c1 3a 6d 92 6f be b3 c2 a9 b6
       -0.043442197 0.0014785911 -0.23395701 -5.0592585e-06
000240 da 7f c9 38 1e 1c 02 80 b0 c9 6a bf 8d 33 02 00
       9.608241e-05 -1.93758e-40 -0.91714 2.02164e-40
000250 8b 5b 01 80 86 b2 67 bf a8 74 67 22 58 b8 02 80
       -1.24675e-40 -0.9050678 3.1368095e-18 -2.49801e-40
000260 67 29 90 be c6 68 57 19 ff b1 c9 b7 3c 4a 42 35
       -0.28156587 1.1136398e-23 -2.4043953e-05 7.2378657e-07
000270 40 b7 8f be 8a ba 0e 3c 0f af 23 bf 9a 7b a1 b7
       -0.28069496 0.008711467 -0.63938993 -1.9250252e-05
000280 52 6c 87 b8 2c 33 02 80 29 f1 d9 be c4 e1 03 00
       -6.457478e-05 -2.02028e-40 -0.42566803 3.56496e-40
000290 f7 cd 02 00 f9 0e 32 bf 13 52 92 a2 3e 8d 03 80
       2.57557e-40 -0.69554096 -3.966028e-18 -3.26175e-40
0002a0 72 a8 ac be b2 b5 06 1a 91 51 81 37 16 ac 2c b5
       -0.33722264 2.7857323e-23 1.541598e-05 -6.432541e-07
0002b0 41 09 13 be 67 af 5e 3b af 05 bf be 9c 07 c1 b7
       -0.14358999 0.003397906 -0.37309024 -2.3010936e-05
0002c0 b6 0e c5 b9 f5 d1 01 00 fc 6d 60 3f 47 2b 01 00
       -0.0003758573 1.67154e-40 0.8766782 1.0736e-40
0002d0 97 a3 00 00 05 88 52 3f 8a d1 63 23 1f 23 01 80
       5.8685e-41 0.822388 1.2350066e-17 -1.04435e-40
0002e0 dd 29 f3 3e d3 04 87 1a a2 af ff 39 20 d4 b7 34
       0.47492877 5.5842485e-23 0.00048768247 3.4240747e-07
0002f0 b6 e6 5d 3e 42 18 9e bc cb 16 9c 3e 86 2d 9b 37
       0.2167004 -0.019298676 0.3048614 1.8498638e-05
000300 c5 19 d6 39 b9 c4 00 80 86 cd 4a bf 8c e9 01 80
       0.0004083646 -7.0571e-41 -0.79219854 -1.75616e-40
000310 7a fb 00 00 94 e7 2f bf 71 fc e9 22 b0 30 0e 19
       9.0213e-41 -0.68712735 6.342206e-18 7.35106e-24
000320 f9 46 10 bf c2 0e 6d 1a ab 71 b1 ba 21 94 0d b8
       -0.56358296 4.9022373e-23 -0.0013537904 -3.3754975e-05
000330 98 0c 02 be 18 6d d4 3b 58 6f 1a bf c2 26 6c b7
       -0.12700117 0.0064827316 -0.6032615 -1.407572e-05
000340 55 84 02 b9 f7 ee 00 00 32 97 c9 3e 7d 33 01 00
       -0.00012447064 8.5724e-41 0.39373165 1.10306e-40
000350 3c 7b 03 00 41 15 13 3f bb 55 6e a2 3a 0b 7e 8e
       3.19715e-40 0.57454306 -3.23004e-18 -3.1313323e-30
000360 36 fb f2 3e 2c 8e 27 99 76 64 01 bb e2 cb a6 b5
       0.47457284 -8.662409e-24 -0.0019743717 -1.2427301e-06
000370 54 32 75 3e df bf 50 bc fd 73 75 3e 50 03 00 37
       0.2394498 -0.012741058 0.23970027 7.630166e-06
000380 26 36 c4 b8 7a 41 00 00 c6 fc 4c bf 83 58 02 00
       -9.356094e-05 2.3489e-41 -0.800732 2.15423e-40
000390 f7 48 02 00 63 f7 5d bf bc 7f 38 a3 d6 71 01 80
       2.09846e-40 -0.8670561 -1.0001709e-17 -1.32672e-40
0003a0 f2 ff f9 be f3 94 33 19 e2 5d fe 37 fb 14 bb b7
       -0.48828083 9.284163e-24 3.0322877e-05 -2.2301907e-05
0003b0 32 ad 51 be 9b 32 b7 3b d4 55 1d bf 80 39 01 b8
       -0.20476225 0.0055907494 -0.6145909 -3.0809548e-05
0003c0 17 4e a6 b8 13 1d 01 00 83 5f 4e 3f ab 0b 02 00
       -7.930042e-05 1.02265e-40 0.8061449 1.87857e-40
0003d0 cd 30 01 00 68 a7 4f 3f d2 aa 93 23 d6 10 00 00
       1.09342e-40 0.81114817 1.6010117e-17 6.04e-42
0003e0 e0 09 d0 3e 02 3d 47 9a fb 24 ab 37 4a 6e a0 36
       0.40632534 -4.1201517e-23 2.0402009e-05 4.781211e-06
0003f0 80 f1 85 3e 56 13 cd bb c8 9f 41 3f d4 d5 a1 37
       0.26160812 -0.0062584085 0.7563443 1.9292267e-05

linear.weight f4 [1, 16]
000000 61 c3 45 40 da fd 37 3a 7c b9 b1 bf 7d 15 12 bc
       3.09005 0.0007018723 -1.388473 -0.008916256
000010 99 80 07 40 71 f3 c0 3f 6c 65 13 c0 bc 1f 1d 40
       2.117224 1.5074292 -2.3030653 2.455062
000020 bc b0 39 bf 4a 2a 53 c0 86 99 f5 bf c4 56 65 40
       -0.725353 -3.2994561 -1.9187477 3.5834208
000030 ee 5c 15 c0 54 37 ab 3f c1 4b 32 c0 89 8b 4a 40
       -2.333797 1.337626 -2.7858737 3.1647666
