RL gym coherence/models/Taxi_GCN_USS_URS_MCTS_8.pt (torch, 4264 bytes, 5 tensors)

conv1.bias f4 [16]
000000 8e 7c b6 be 3e d5 96 b5 d1 64 07 80 cb 13 d6 b6
       -0.35641903 -1.1237933e-06 -6.79015e-40 -6.380001e-06
000010 04 5c 03 80 b5 e8 95 a3 40 b8 b8 b6 4b 16 cd be
       -3.08515e-40 -1.6253168e-17 -5.505077e-06 -0.4005607
000020 2e d3 a4 be 09 29 8e b9 11 33 b9 bc c7 bb 9d be
       -0.32192367 -0.00027114924 -0.022607358 -0.30807325
000030 57 3c 28 be 25 e4 82 a0 00 cc 4d 3e 88 c9 25 ba
       -0.16429268 -2.217383e-19 0.20097351 -0.0006324281

conv1.lin.weight f4 [16, 1]
000000 ee 72 a6 3e 7c da 7e b9 1c b4 45 9d db 18 bc b7
       0.3250956 -0.0002430472 -2.6165847e-21 -2.242292e-05
000010 27 a0 2c 8d 75 e3 6c b2 63 68 87 ba 42 b3 c3 3e
       -5.319437e-31 -1.3788726e-08 -0.0010330792 0.382227
000020 0b 7d 75 3e 26 1f ad ba 44 c5 e8 bc 81 19 77 3e
       0.23973481 -0.0013208135 -0.028414376 0.24130823
000030 82 54 dd 3d 71 c0 db b2 bc 5f 34 3e 65 4b 5c bc
       0.10807134 -2.5582468e-08 0.17614645 -0.01344571

conv2.bias f4 [16]
000000 14 b5 9e be 36 d4 8f 3e fe 88 8e be e0 5b 99 3e
       -0.30997527 0.28091592 -0.27838892 0.29952908
000010 a9 c5 c1 be 7a 20 91 be ab 33 c9 be f1 ba b3 3e
       -0.37846115 -0.2834509 -0.39297232 0.35103562
000020 11 0e b9 3e 70 f6 a9 3e a7 c7 a1 be 1e aa a6 be
       0.36143544 0.3319583 -0.31597635 -0.32551664
000030 e3 d7 bd be f0 22 86 be c6 2e 98 3e 34 7f a6 be
       -0.3707877 -0.2619853 0.29723185 -0.32518923

conv2.lin.weight f4 [16, 16]
000000 42 1a 97 3d 32 6b 05 00 9c c6 02 00 66 0c 1e 37
       0.07378055 4.97632e-40 2.54919e-40 9.420421e-06
000010 44 51 06 00 94 c3 06 80 bb 6c 01 80 ec 00 e5 3d
       5.80166e-40 -6.21173e-40 -1.3084e-40 0.111818165
000020 2b 1d 0e 3e c9 ca 10 a1 00 16 25 3b e7 05 d8 3e
       0.13878314 -4.905748e-19 0.0025190115 0.42192003
000030 aa 37 c6 bd fd 11 04 00 32 17 49 bd c1 6d 3c 2f
       -0.09678586 3.73795e-40 -0.049094386 1.7137493e-10
000040 99 6a 55 39 df 42 04 80 ad 11 04 80 31 5c 8c 35
       0.00020352974 -3.91331e-40 -3.73683e-40 1.0457644e-06
000050 e8 e4 0a 80 b6 c7 0b 80 a0 45 04 80 60 96 a9 be
       -1.000471e-39 -1.081833e-39 -3.92319e-40 -0.3312254
000060 96 e1 ca bc e5 7a fa 1e 6a 0f f0 b8 5a 6f 3a 3e
       -0.02476577 2.6520608e-20 -0.00011446963 0.1820654
000070 c9 19 7d 3d e5 e0 02 80 62 64 dd 3d 98 67 99 ab
       0.06179217 -2.64348e-40 0.10810162 -1.0900057e-12
000080 0a 0e b1 3e f6 b5 0d 80 73 55 0b 00 b3 a0 57 b7
       0.34581023 -1.259137e-39 1.040844e-39 -1.2852414e-05
000090 16 60 02 00 61 1a 03 80 23 ff 09 80 b2 74 95 3e
       2.1814e-40 -2.8497e-40 -9.18045e-40 0.29190594
0000a0 eb dd c0 3e 05 3f 0f 80 1b 78 0b 3b bb be 3a 3e
       0.3766931 -1.40014e-39 0.0021281305 0.1823682
0000b0 53 2b da 3d 4b d6 03 00 21 98 2f be 1f e9 05 00
       0.10652795 3.5238e-40 -0.17147876 5.42806e-40
0000c0 43 32 93 3d 20 36 14 87 a8 cf 03 00 7d 2a 98 36
       0.07187321 -1.1150188e-34 3.5e-40 4.5348993e-06
0000d0 c8 8e 02 00 69 10 05 80 2d a4 03 80 84 5b 82 be
       2.34891e-40 -4.65064e-40 -3.34402e-40 -0.25460446
0000e0 bf da 56 be 25 80 8c 25 41 17 bf ba 82 c9 19 be
       -0.20981883 2.4372963e-16 -0.0014579074 -0.15018275
0000f0 cd ef c5 bd cb 0e 00 00 c4 35 99 3d a3 ba 5a b0
       -0.09664879 5.307e-42 0.07480958 -7.9573165e-10
000100 cd 45 32 be 07 bd 50 a1 00 c5 09 00 10 51 81 b5
       -0.1740944 -7.0723317e-19 8.9719e-40 -9.634841e-07
000110 2e af 02 00 2f f8 07 80 ad 07 a7 1a a8 bd ed 3e
       2.46514e-40 -7.3188e-40 6.908198e-23 0.4643376
000120 d5 13 b5 3e 84 a1 23 ad b6 b9 4c 3c 4c b8 b2 bd
       0.35366693 -9.301341e-12 0.012495449 -0.08726558
000130 e6 9d 34 3d 54 f7 05 80 87 7a 9d 3e 7b 2c e8 37
       0.044095896 -5.47902e-40 0.30757543 2.7677268e-05
000140 83 8c a4 3e b9 51 cb 08 ec 95 02 00 be 3a cb b5
       0.32138452 1.2236831e-33 2.37453e-40 -1.5141775e-06
000150 72 55 0b 80 3f 28 02 00 35 04 00 00 4e 41 64 be
       -1.040842e-39 1.98109e-40 1.509e-42 -0.22290537
000160 f3 1c 33 3e c7 86 f8 a5 3c d0 cf 39 a5 66 b0 3e
       0.17491512 -4.311247e-16 0.00039637263 0.34453312
000170 79 21 81 3e 94 61 05 00 dd a8 b2 be ab 90 b8 2f
       0.2522085 4.94182e-40 -0.34894457 3.3572198e-10
000180 9e c4 19 bc 1e 42 d6 81 90 7b 04 00 e0 4e 93 37
       -0.009385256 -7.870606e-38 4.11668e-40 1.7560495e-05
000190 b8 da 02 80 31 ce 06 80 bb a7 0b 80 ce ce c7 3e
       -2.62132e-40 -6.2498e-40 -1.070361e-39 0.39024967
0001a0 2e 07 be 3d d6 57 c6 9f 85 67 04 3c f2 6d 86 3e
       0.09278713 -8.4001574e-20 0.008081322 0.26255757
0001b0 52 cb 51 bc 2e 2b 00 80 33 7c 77 3e 46 55 a0 33
       -0.012804823 -1.549e-41 0.24168472 7.466092e-08
0001c0 8d 82 da be 99 18 0f 03 ec b0 04 00 0c e4 8c 36
       -0.42677727 4.205216e-37 4.3081e-40 4.1988733e-06
0001d0 92 45 07 80 44 59 04 80 be d8 06 80 ba 9b a2 be
       -6.67806e-40 -3.99364e-40 -6.28765e-40 -0.31759435
0001e0 66 e8 ac bc 0f d8 df 21 6e 33 05 bb 22 7d 8a be
       -0.02110691 1.5168258e-18 -0.0020324844 -0.27048594
0001f0 8e b6 14 3e 3f fc 07 80 95 bb 6f be 8d 28 da b0
       0.14522764 -7.33337e-40 -0.234114 -1.5873113e-09
000200 29 13 06 bf e4 9a 36 2e 4d 99 0a 80 bd ae 76 37
       -0.52372986 4.151958e-11 -9.73349e-40 1.4703427e-05
000210 b2 40 09 80 23 0a cc 81 73 9e 16 ad a4 4e c1 be
       -8.49728e-40 -7.495231e-38 -8.561696e-12 -0.3775531
000220 f9 78 1f bf fc f1 33 34 82 19 99 bc 79 f8 0c be
       -0.62293965 1.6758707e-07 -0.01868892 -0.1376666
000230 91 5b f8 3d 56 f4 07 00 b6 60 ae 3e b3 63 70 ba
       0.1212684 7.305e-40 0.3405816 -0.000917013
000240 0c 0e ac be 77 b2 32 1d be 1c 00 80 60 79 b5 36
       -0.33604467 2.3650368e-21 -1.0311e-41 5.4083503e-06
000250 d8 8f 09 00 9d 97 00 00 0e 8b 00 00 45 3c 09 3e
       8.78121e-40 5.4389e-41 4.9883e-41 0.13401897
000260 7d 46 d0 be 42 b2 a8 2c e1 d5 9a bb db 1e 7a bd
       -0.40678778 4.7946378e-12 -0.0047252034 -0.061064582
000270 cf 46 f0 be ae 79 0a 00 d0 a4 a7 be 72 58 d2 b4
       -0.46929023 9.62005e-40 -0.3274293 -3.91799e-07
000280 4d 0f fd 3e 77 e8 92 9d b7 39 04 00 dc fb 29 b7
       0.49425736 -3.888624e-21 3.88046e-40 -1.0131826e-05
000290 80 9b 0b 00 e5 94 01 80 12 b2 00 00 48 68 b5 3e
       1.065973e-39 -1.45249e-40 6.388e-41 0.35431123
0002a0 38 18 47 bd 45 ce 03 ad de 42 bf 3b 07 bc d8 3c
       -0.04860708 -7.492289e-12 0.0058368286 0.026456846
0002b0 ff 4d 46 be 56 27 0a 00 67 82 85 be de c0 06 35
       -0.1936569 9.32466e-40 -0.26076052 5.019955e-07
0002c0 d6 36 51 3e 49 dd 2e 9b 80 ca 00 00 ba fb d4 b6
       0.20431075 -1.4464444e-22 7.2643e-41 -6.347397e-06
0002d0 58 c5 06 00 f3 98 00 80 48 3a 08 80 e1 dc 83 3e
       6.21807e-40 -5.4868e-41 -7.55591e-40 0.25754455
0002e0 11 08 09 3f f2 21 ca ab c8 80 2a 3b 68 a6 cc 3e
       0.53527933 -1.4362385e-12 0.00260167 0.39970708
0002f0 fc 7d bf 3e 82 b3 06 00 e5 79 3a 3e 22 27 23 34
       0.37400806 6.15408e-40 0.18210562 1.5194794e-07
000300 c5 08 0a 3f ac 6a 50 b2 0b 8b 0b 00 2e 51 b4 37
       0.5391963 -1.2131448e-08 1.06007e-39 2.1495474e-05
000310 68 02 01 80 93 61 05 00 51 9a a7 31 7b 86 ee 3c
       -9.2699e-41 4.9418e-40 4.8778834e-09 0.02911686
000320 cd ad 10 3e 0a e6 02 b6 66 88 a3 3c 3c dd 9b 3e
       0.141288 -1.950541e-06 0.0199625 0.30442226
000330 9f 9b f2 3e b1 f9 ef 81 a8 4e ea bd 21 40 0a 3b
       0.47384354 -8.8153024e-38 -0.11440784 0.0021095353
000340 3d 9b ec 3e 12 82 09 80 52 d6 05 80 d0 df 4a b4
       0.46212187 -8.7318e-40 -5.36061e-40 -1.8894139e-07
000350 8c 43 08 80 09 9c 03 80 e3 e0 07 80 f2 85 3b bd
       -7.58915e-40 -3.31481e-40 -7.23523e-40 -0.045782037
000360 8e 91 30 3d 00 8a 01 80 55 2f 29 39 87 12 6b 3e
       0.04310756 -1.4134e-40 0.00016134729 0.22956286
000370 17 61 48 3e b3 99 0a 00 b9 b8 db bd 5a 8e 02 00
       0.19568287 9.73492e-40 -0.107285924 2.34737e-40
000380 74 aa d9 bd 7a 2b 02 80 fd 1e 04 00 87 fa 0d 36
       -0.106282145 -1.99267e-40 3.78458e-40 2.1156463e-06
000390 a4 f7 0d 80 21 17 06 80 e9 1a 02 80 12 48 c2 be
       -1.282698e-39 -5.5931e-40 -1.93325e-40 -0.3794561
0003a0 84 c9 06 be 71 21 16 1a 8a a3 3d ba 2b 03 a5 3d
       -0.1316281 3.1046287e-23 -0.0007234147 0.08057245
0003b0 ad d9 de be 77 7a 07 00 a5 89 93 3e 1b 68 1a ab
       -0.43525448 6.8678e-40 0.28815952 -5.4856266e-13
0003c0 49 f9 9a 3e 5b 0a 80 a7 dc 55 0d 00 4d c8 fe b6
       0.30268314 -3.5538364e-15 1.224662e-39 -7.593108e-06
0003d0 35 63 0d 80 b7 af e1 00 d2 b5 20 11 12 e7 c7 3e
       -1.22945e-39 2.0726021e-38 1.2677802e-28 0.3904348
0003e0 8d d4 51 bc f8 3b 48 b1 7f 8c b5 3b 4d a5 8a 3d
       -0.012807024 -2.9137919e-09 0.00554043 0.0676981
0003f0 19 be 69 3d 3b 05 03 00 61 a2 4b 3e b9 7d 2a 37
       0.057066057 2.77383e-40 0.19886161 1.0162062e-05

linear.weight f4 [1, 16]
000000 9b 20 02 3f 3d c3 60 be ad 0f 0b 3f 3e 63 cf be
       0.50831 -0.21949477 0.54320794 -0.40505403
000010 ab e4 aa 3f ca 53 8a 3e 63 37 74 3f ea de dd be
       1.3351034 0.2701705 0.95397013 -0.43334132
000020 72 02 1c c0 3e c0 23 bf 83 c6 3d 3f 94 83 ec 3e
       -2.4376493 -0.63965213 0.7413103 0.46194136
000030 ae a7 35 40 7a 90 a9 3e d8 54 ae be a7 f7 28 3f
       2.8383594 0.3311804 -0.34049106 0.6600289
