RL gym coherence/models/Taxi_GCN_UUS_URS_17.pt (torch, 4160 bytes, 5 tensors)

conv1.bias f4 [16]
000000 8a 7a 18 bb 40 25 04 9c a3 5b 02 8e 2d 57 db bf
       -0.0023266398 -4.372328e-22 -1.6067859e-30 -1.7135979
000010 3c 0b ed bf d8 b8 a0 bc bf 83 ee bf 05 5c 9b b0
       -1.8519053 -0.01961939 -1.8633956 -1.1303888e-09
000020 15 c7 e4 bf d9 21 5c bd af 4b 93 be 03 97 7f be
       -1.7873255 -0.053743217 -0.2876868 -0.2495995
000030 9e b6 fd bf 19 ea e4 bf 7f bc 84 8b 5d 1d 3c b8
       -1.9821355 -1.7883941 -5.112817e-32 -4.485004e-05

conv1.lin.weight f4 [16, 1]
000000 05 ef 01 3a b5 98 fe 9c 9c 24 09 8f b5 62 49 3f
       0.0004956576 -1.6847784e-21 -6.761672e-30 0.7866624
000010 13 82 6a 3f ed 34 9b 3f cd f5 71 3f df 7c c4 b0
       0.9160473 1.2125527 0.9451569 -1.4296367e-09
000020 76 18 5f 3f 9d 4c b3 bd 68 76 9e be 99 fa 89 be
       0.871467 -0.08754847 -0.30949712 -0.26949003
000030 d5 26 84 3f ed 41 5f 3f 6c 9a 92 9b 6f ff 82 b9
       1.032435 0.8720997 -2.4253467e-22 -0.00024985845

conv2.bias f4 [16]
000000 8a cd 1a bd f4 cc e8 3c 8b 77 9b 3d 3b e8 4f be
       -0.037793674 0.028418042 0.075911604 -0.20303433
000010 c9 a4 3c be 0d 25 0b bd da c6 39 be ba 17 68 3c
       -0.18422236 -0.03397088 -0.18142262 0.014165813
000020 48 3c 7e 3d 38 27 58 be 82 63 cb 3c e9 43 d5 3c
       0.062069207 -0.21108711 0.024827722 0.026033359
000030 cf 6d f2 bc 0c 71 40 3e 3f 36 ed 3c f3 41 ec bc
       -0.029593376 0.18793124 0.02895653 -0.02884004

conv2.lin.weight f4 [16, 16]
000000 d0 16 4b b0 ea cc c8 1a 30 63 4b 0c e3 cb 4b bb
       -7.388339e-10 8.304912e-23 1.5668399e-31 -0.0031096868
000010 10 f1 29 3a b4 de 93 3c fb c3 45 3b d5 d1 88 ac
       0.00064827595 0.018050529 0.0030176628 -3.8886485e-12
000020 0c a6 52 ba d0 d9 75 19 38 0f 8c b5 3b 3b 01 00
       -0.0008035607 1.271019e-23 -1.0435242e-06 1.13083e-40
000030 b0 f6 94 3b e0 d2 85 b9 4a 39 55 07 ba ad f5 b0
       0.004546009 -0.0002552485 1.6041175e-34 -1.7875472e-09
000040 48 bf e8 b0 02 d3 ff 9a c8 7d 68 8c 50 14 b2 3a
       -1.6934587e-09 -1.0580643e-22 -1.7910481e-31 0.0013586376
000050 8f 02 27 bb 32 c6 64 bc cc a6 98 bb 14 b3 aa 2c
       -0.0025483703 -0.013963269 -0.0046585556 4.8515723e-12
000060 34 f2 6b ba 6f 44 4d 99 1f 0a 4d 35 77 34 00 80
       -0.00090006297 -1.0612072e-23 7.638318e-07 -1.8821e-41
000070 41 bf e1 bb b6 84 b2 ba 2b ea ad 87 4c ea 25 93
       -0.0068892543 -0.0013619873 -2.6167778e-34 -2.0941445e-27
000080 b8 79 6c b6 15 0c 78 9c c4 ed 6a 8c 2c 31 9c bf
       -3.523759e-06 -8.207193e-22 -1.8098254e-31 -1.2202506
000090 11 21 c8 bf 11 9a 55 3f 9d 73 cb bf 4c 6c 69 2f
       -1.5635091 0.8343821 -1.5894657 2.1229701e-10
0000a0 fe 50 a1 bf 19 68 9a 3b c1 18 88 3e 95 f3 fe bd
       -1.2602842 0.0047121164 0.26581386 -0.12448803
0000b0 c2 56 ec bf ae d5 b2 bf 0a b6 c4 0a e3 d8 40 b7
       -1.8463976 -1.397146 1.8942589e-32 -1.149459e-05
0000c0 0d 69 40 b4 8b fe 03 1b 1c c3 29 8c a7 30 64 be
       -1.791961e-07 1.0918313e-22 -1.3078e-31 -0.22284184
0000d0 dc e1 cd be b7 7d c2 3e cb 16 06 bf ea 4e f0 2c
       -0.4021138 0.37986538 -0.5237853 6.8299715e-12
0000e0 86 e3 a9 be b8 01 82 19 87 6b 68 39 19 4b c9 b9
       -0.331814 1.3442379e-23 0.00022165301 -0.0003839366
0000f0 16 db 17 bf aa c7 bc be 83 dd 14 09 f4 c2 0e 34
       -0.59318674 -0.36871082 1.7919006e-33 1.3295704e-07
000100 ae 2a b2 ba 45 c4 a5 1c 78 5f ac 0e 96 81 b0 3f
       -0.0013593042 1.0969519e-21 4.2493207e-30 1.3789546
000110 df a2 e0 3f 5f 09 62 bf 17 20 f6 3f 49 1e a3 af
       1.7549704 -0.8829555 1.9228543 -2.9671046e-10
000120 0b b6 c2 3f f3 11 4e bc 48 9d 8f be 2c f9 1e 3e
       1.5211805 -0.012577522 -0.28049684 0.15524739
000130 b8 05 f8 3f c1 74 e1 3f 6c c5 84 09 92 14 ce 3a
       1.9376745 1.7613755 3.19635e-33 0.0015722683
000140 db cc 16 b1 1e dc 84 9a 44 cd 65 8b 95 20 2d bb
       -2.194432e-09 -5.494954e-23 -4.425822e-32 -0.0026417125
000150 22 34 9f 3a f2 e2 84 3c 20 df 69 3b 25 7d 90 2b
       0.0012146274 0.016221497 0.0035685971 1.026655e-12
000160 00 d1 99 b9 32 4f 3e 99 f4 f8 a2 b5 cb f5 00 80
       -0.0002933815 -9.838763e-24 -1.2142395e-06 -8.8174e-41
000170 ac 0f ae 3b d0 98 6a 39 7a 21 aa 06 2d 37 f6 2e
       0.005311927 0.00022372906 6.399608e-35 1.1196586e-10
000180 01 bf 5a 3a ae 57 09 9b 2a 08 a0 8d 76 13 82 3f
       0.0008344502 -1.1360705e-22 -9.862727e-31 1.0162189
000190 db 81 ba 3f 74 bc 30 bf 84 58 bf 3f 0c 20 1d af
       1.4570879 -0.69037557 1.4948888 -1.4290452e-10
0001a0 54 cd 8f 3f 8b 35 32 ba e3 ce 6a be e6 0e a4 3d
       1.1234536 -0.00067981397 -0.22930484 0.08010654
0001b0 27 fd cc 3f b5 96 a7 3f 08 a1 4e 8a 8f c3 dc ba
       1.6014756 1.3092867 -9.948826e-33 -0.0016842949
0001c0 34 84 86 b0 b1 c0 bc 19 e3 d6 02 0c a1 df 1b bc
       -9.787358e-10 1.9516572e-23 1.0079501e-31 -0.0095137665
0001d0 ef 75 c6 bb e6 d4 a6 bc a4 b6 8d bb 30 91 28 2c
       -0.0060565392 -0.02036519 -0.004324751 2.3954831e-12
0001e0 cf d5 04 bc de ca 17 18 6a 42 4c 34 b5 5b 01 00
       -0.008107617 1.9618714e-24 1.9023142e-07 1.24734e-40
0001f0 fc a0 0d bb 19 51 f2 bb f9 67 14 88 fb 56 96 2d
       -0.0021610847 -0.0073949215 -4.465935e-34 1.7091653e-11
000200 be c0 e5 b5 f2 ba 77 1c 90 1a 06 0e ae e4 46 bf
       -1.7117925e-06 8.1967066e-22 1.6529565e-30 -0.7769269
000210 6c a2 97 bf cb 5a 1d 3f 9b c6 93 bf 27 58 bd 2d
       -1.1846442 0.61466664 -1.1544985 2.152596e-11
000220 0c 15 6e bf f8 b8 8a 37 c9 2f 30 3e d2 e8 35 bd
       -0.93000865 1.6537015e-05 0.17205729 -0.044411488
000230 55 5f ad bf 3f ff 80 bf 96 6d 95 0a da bc 07 34
       -1.3544718 -1.0077895 1.43894e-32 1.2641559e-07
000240 d9 74 96 ba 55 30 30 1d 67 28 b8 0e aa 58 db 3f
       -0.0011478915 2.3318393e-21 4.5398408e-30 1.7136433
000250 e5 3a 05 40 7f 8a 88 bf 44 e9 14 40 be 61 bb ae
       2.0817196 -1.0667266 2.3267374 -8.521138e-11
000260 9e ab f6 3f 26 52 19 bd de ef 96 be 0f 30 53 3e
       1.9271123 -0.03743186 -0.2947988 0.20623802
000270 8d fa 1a 40 58 11 ff 3f 23 fa f1 8b fb 10 d4 39
       2.4215424 1.9927168 -9.320619e-32 0.00040448442
000280 99 a5 2a b1 98 f4 ed 19 46 9e 2a 8b c8 df e0 3a
       -2.4832387e-09 2.4604016e-23 -3.285988e-32 0.0017156536
000290 31 30 13 bb c1 20 3c bc 82 c0 8f bb 19 88 ad 2d
       -0.0022459144 -0.0114824185 -0.0043869624 1.9728262e-11
0002a0 28 e2 13 ba 60 cd 8c 19 45 13 8a 35 b6 67 00 80
       -0.0005641305 1.4558611e-23 1.0287409e-06 -3.7204e-41
0002b0 a8 26 da bb f4 6f 87 ba c1 60 a4 86 97 6c 3a 91
       -0.00665744 -0.0010333047 -6.183211e-35 -1.4706275e-28
0002c0 ac 60 8c b0 90 a7 a4 18 29 c6 88 8c 7c 05 b9 3a
       -1.0213816e-09 4.25622e-24 -2.107338e-31 0.0014116014
0002d0 9e bb 27 bb 46 d5 4d bc 3b e1 99 bb 1a b3 af 2d
       -0.0025594006 -0.012563055 -0.004696039 1.9974734e-11
0002e0 84 6b 66 ba 2b 23 90 99 15 fa 47 35 9d 5e 00 80
       -0.0008789825 -1.4903455e-23 7.4497194e-07 -3.3941e-41
0002f0 ff d7 e3 bb 7e 84 b0 ba d4 f4 89 86 c8 05 07 15
       -0.006953239 -0.001346722 -5.1893415e-35 2.7267593e-26
000300 8e 7c 2f b1 cf b4 ab 9a ce b3 b4 8b d4 06 de ba
       -2.5536653e-09 -7.1016054e-23 -6.960402e-32 -0.0016939291
000310 d5 1b 1b 3b b1 d5 6d 3c e9 fe 96 3b ba 3f 5e 2d
       0.0023667712 0.01451628 0.0046080244 1.2633389e-11
000320 90 4a 2d 3a f8 b6 88 99 7f be a9 b5 8b 70 01 00
       0.0006610537 -1.4135971e-23 -1.2646923e-06 1.32208e-40
000330 28 b5 df 3b b4 ae 94 3a bf 85 1b 87 cd 6d 8e 25
       0.0068270154 0.001134357 -1.1700208e-34 2.4707477e-16
000340 53 95 f4 b5 1b a1 9c 1c e1 f2 29 0e 7a df 57 bf
       -1.8222876e-06 1.0364859e-21 2.09478e-30 -0.84325373
000350 75 9f a0 bf ea 3e 17 3f 0d 8c ad bf 7b b3 5a af
       -1.2548662 0.59080374 -1.3558365 -1.9890749e-10
000360 49 a2 81 bf 5e 36 83 38 39 46 41 3e 92 dc 67 bd
       -1.012765 6.2566935e-05 0.18874444 -0.056606837
000370 1b d8 ba bf e2 fc 87 bf 29 85 db 09 d1 b7 0d 33
       -1.45972 -1.0624049 5.2847555e-33 3.29963e-08
000380 c8 6a d5 2f 6c 69 f0 19 ae cc b2 0b 0e 8f d8 3a
       3.8820347e-10 2.4857998e-23 6.8871074e-32 0.0016522126
000390 45 aa 19 bb a9 2a 66 bc 2c f2 93 bb 81 10 b1 2d
       -0.0023447436 -0.014048257 -0.004514953 2.01299e-11
0003a0 d8 a8 2b ba e2 16 9b 19 27 c5 a4 35 ca 4c 00 00
       -0.0006548292 1.6035867e-23 1.2276331e-06 2.7547e-41
0003b0 20 31 de bb 04 4d 92 ba cc 6f ee 87 04 d7 75 17
       -0.0067807585 -0.0011161868 -3.5875968e-34 7.9435157e-25
0003c0 ac 12 da b0 40 fc 01 1a 64 95 42 0b ca fa 9d ba
       -1.5866894e-09 2.688034e-23 3.747543e-32 -0.001205289
0003d0 07 f6 41 3b ea 53 7d 3c ac 26 b3 3b 6e 6a 00 2c
       0.0029596107 0.015461901 0.0054672565 1.8248974e-12
0003e0 d0 a2 b3 3a 58 c0 87 19 7e e2 c9 33 e7 7b 00 00
       0.0013705138 1.403636e-23 9.4009906e-08 4.4448e-41
0003f0 f6 a5 ed 3b 22 d1 f3 3a f1 46 a6 07 e6 94 39 2f
       0.00725245 0.0018601755 2.50186e-34 1.6878551e-10

linear.weight f4 [1, 16]
000000 20 52 3c bc df c6 0c 3c 8f 20 0b 40 96 f3 9d 3d
       -0.0114941895 0.008592336 2.1738622 0.07712476
000010 f3 af 36 c0 78 db 36 bc 13 8f b5 bf 82 a5 25 bc
       -2.854489 -0.011160724 -1.4184288 -0.010110261
000020 e5 45 55 3f 35 10 8e c0 0c 24 11 3c f1 7a 11 3c
       0.83309776 -4.4394784 0.008858692 0.008879409
000030 d3 96 29 bc f6 fe 76 3f 6f bd 1b 3c 12 52 72 bc
       -0.010350901 0.9648279 0.009505614 -0.014790075
