RL gym coherence/models/Taxi_GCN_URS_UPS_7.pt (torch, 4150 bytes, 5 tensors)

conv1.bias f4 [16]
-0.5888096 -1.1339176e-31 -0.7552988 -0.0008119743 -0.70657027 -7.2858697e-09 -9.491813e-38 -0.8241005
-2.4067069e-23 -1.2741383e-05 -0.05602296 -0.81671846 -2.3210012e-14 -5.1603724e-08 -0.78097606 -0.66148597
00000000: 3abc 16bf e030 138c 435b 41bf acda 54ba
00000010: cae1 34bf 3057 fab1 2432 0182 40f8 52bf
00000020: 2dc3 e899 d3c3 55b7 5578 65bd 7614 51bf
00000030: a50e d1a8 e5a2 5db3 0cee 47bf 2557 29bf

conv1.lin.weight f4 [16, 1]
0.2934106 -1.3966251e-29 0.43757635 -0.013690918 0.4121127 -0.00012145672 -2.654468e-15 0.4934672
-7.124354e-23 -0.0025312025 0.009879019 0.48734263 -9.6789485e-08 -2.7123178e-05 0.46538448 0.39216188
00000000: ea39 963e 76a2 8d8f 020a e03e df4f 60bc
00000010: 7000 d33e 94b6 feb8 4b46 3fa7 bca7 fc3e
00000020: 9e41 ac9a 88e2 25bb 9cdb 213c f984 f93e
00000030: 95da cfb3 9586 e3b7 e046 ee3e 71c9 c83e

conv2.bias f4 [16]
0.87942034 1.0169132 -1.0006108 0.94892627 1.006916 -0.91020834 0.75080866 0.27277634
0.99875396 1.0281699 0.8718224 0.93069506 -0.93384135 -0.0018304323 -1.0176564 -1.095839
00000000: b121 613f 362a 823f 0414 80bf d5ec 723f
00000010: a0e2 803f 6a03 69bf ff34 403f 57a9 8b3e
00000020: 57ae 7f3f 129b 833f c12f 5f3f 0842 6e3f
00000030: 3a10 6fbf 1eeb efba 9142 82bf 7444 8cbf

conv2.lin.weight f4 [16, 16]
-0.3222109 3.5802263e-30 -0.4862624 -1.2130907e-37 -0.19481267 -1.80358e-40 2.7918168e-37 -0.60221857
-1.5881703e-23 -2.3426592e-20 0.0005146736 -0.18826474 -4.39688e-40 -9.3964714e-29 -0.43969262 -0.28686488
-0.1459723 2.9710855e-30 -0.3643008 3.17171e-40 -0.6162506 -2.5293e-41 -1.8600699e-37 -0.5626843
-1.2750239e-23 1.900973e-33 -0.083776005 -0.47184092 -1.60618e-40 1.3626874e-14 -0.51134324 -0.36178035
0.145468 -5.1448424e-30 0.44589743 -9.1841e-41 0.1810288 -1.21458e-40 -1.6507729e-37 0.59183204
-1.1424678e-26 3.9414942e-29 0.0029107821 0.6935847 3.39571e-40 -6.432361e-12 0.4966801 0.5965812
-0.44276223 -1.4096452e-30 -0.28084624 3.690596e-29 -0.53175664 -6.301609e-22 1.423011e-37 -0.49272865
-1.3435103e-23 -5.7762625e-11 -0.002172384 -0.5441234 7.141e-42 -1.4953074e-06 -0.13473289 -0.4614409
-0.5432971 -1.83427e-30 -0.1293626 3.8594312e-36 -0.4102316 -7.113142e-25 3.9984667e-38 -0.6501268
-1.6492292e-23 -1.1880888e-11 0.044275276 -0.39418787 9.95e-43 6.2349164e-07 -0.5495907 -0.5994338
0.07425605 4.3584983e-30 0.44009247 2.39144e-40 0.29601854 5.245736e-36 -1.6942281e-38 0.32209173
1.4041181e-23 6.6287327e-16 -0.046088144 0.20979913 -4.8233e-41 -9.729972e-07 0.7196207 0.5257094
-0.3182869 1.5738144e-30 -0.55606544 -3.17267e-40 -0.09659952 -9.0955e-41 -4.330451e-38 -0.3778068
-1.0384588e-23 -3.28003e-40 0.03419707 -0.24201956 2.3955e-41 -2.2775566e-06 -0.13193409 -0.073700055
-0.027915152 4.5429217e-31 -0.038404915 -1.6231e-41 -0.078547895 5.1212e-41 -2.992054e-39 -0.1547649
7.8542936e-27 4.703e-42 -0.001140884 -0.1265865 -1.52049e-40 1.03845967e-19 -0.12616266 -0.09780615
-0.18660347 -5.295915e-31 -0.2744641 1.5579676e-29 -0.6413 -1.4659594e-18 1.5061095e-37 -0.14920989
-1.0771964e-23 -3.6094232e-09 -0.00024150431 -0.77292275 1.8378e-41 -1.3641004e-06 -0.50061184 -0.75551444
-0.43112516 -1.2829075e-30 -0.6020934 1.5767907e-27 -0.57222503 -5.89112e-20 3.2883094e-37 -0.28802243
-4.067481e-24 -3.464762e-10 0.016867891 -0.29810897 3.5485e-40 6.020412e-19 -0.6830209 -0.4548764
-0.39710742 4.1646208e-30 -0.2971497 -3.9592e-40 -0.30029377 4.294e-42 6.0269443e-38 -0.4832477
-7.538216e-24 -9.890983e-32 -0.22361869 -0.67558295 4.402073e-39 2.9190508e-06 -0.5256342 -0.10285257
-0.14503981 7.664184e-30 -0.25943056 1.11948e-40 -0.51869106 -7.133e-42 -1.367204e-37 -0.29850745
7.588293e-24 -5.850659e-24 0.0020494265 -0.56547236 1.31704e-40 3.98907e-22 -0.43698305 -0.501896
0.44361803 -4.9927787e-31 0.61540943 -4.7951e-41 0.19462824 -8.4238e-41 -3.5922309e-38 0.3469739
-9.1703944e-24 3.353334e-22 0.13135104 0.31169355 8.221e-42 -9.02487e-08 0.3942747 0.4768194
1.49315765e-05 4.1779475e-34 0.0015602681 4.4627e-40 -5.9980703e-06 -1.22282e-40 4.29047e-40 0.0007901933
8.901276e-28 2.00359e-40 0.0038831003 0.0018708077 -1.2709e-40 7.160093e-16 -1.2141155e-05 0.00017678713
0.4482701 -5.0554533e-31 0.46750438 -2.6514e-41 0.614087 -1.7836e-41 6.6550444e-38 0.69273007
-1.17473174e-23 1.3376791e-21 0.078962356 0.51184726 3.56843e-40 -1.086116e-11 0.07610363 0.20188762
0.22175777 2.8836486e-30 0.3722679 -6.648773e-39 0.7395735 1.7762388e-26 1.1792223e-37 0.46346056
1.143972e-23 3.7678584e-12 -0.092759386 0.48545974 1.13152e-40 -4.550204e-16 0.7129429 0.71097195
00000000: d4f8 a4be 323b 910e 63f7 f8be 0b1e 2582
00000010: f97c 47be c4f6 0180 4f00 be02 ff2a 1abf
00000020: 3199 9999 0642 dd9e 29eb 063a 79c8 40be
00000030: acc9 0480 963a ee90 641f e1be f4df 92be
00000040: c379 15be 080b 710e a285 babe 2574 0300
00000050: 99c2 1dbf 8246 0080 fa2d 7d82 140c 10bf
00000060: 20a0 7699 39ed 1d09 c192 abbd 2295 f1be
00000070: bdbf 0180 dd7a 7528 64e7 02bf 463b b9be
00000080: 90f5 143e 19b3 d08e ab4c e43e 0400 0180
00000090: 9d5f 393e 9352 0180 0ab1 6082 4e82 173f
000000a0: 004a 6294 85db 4710 d2c2 3e3b c48e 313f
000000b0: 96b2 0300 8f51 e2ac db4c fe3e 8cb9 183f
000000c0: bbb1 e2be 5fba e48d 14cb 8fbe ad22 3b10
000000d0: 3421 08bf 5774 3e9c b2b0 4102 ee46 fcbe
000000e0: b4ef 8199 ef0a 7eae 8e5e 0ebb ac4b 0bbf
000000f0: e813 0000 5fb2 c8b5 6bf7 09be fb41 ecbe
00000100: 8515 0bbf 4cd0 148e a177 04be 7c29 a404
00000110: e009 d2be 1e24 5c97 7eb2 5901 b66e 26bf
00000120: f080 9f99 c302 51ad fe59 353d fed2 c9be
00000130: c602 0000 055e 2735 fab1 0cbf 7e74 19bf
00000140: 8e13 983d 3ccd b00e cd53 e13e a39a 0200
00000150: be8f 973e 0221 df04 307c b880 35e9 a43e
00000160: 48cc 8719 6a0f 3f26 ecc6 3cbd 95d5 563e
00000170: 7486 0080 ee97 82b5 1039 383f e494 063f
00000180: 80f6 a2be b15d ff0d 4e5a 0ebf 6974 0380
00000190: f8d5 c5bd 8cfd 0080 adc5 6b81 e56f c1be
000001a0: fddd 4899 5792 0380 3a12 0c3d fad3 77be
000001b0: c742 0000 20d8 18b6 bb19 07be 0ef0 96bd
000001c0: 51ae e4bc 1e6d 130d 794e 1dbd 3f2d 0080
000001d0: b8dd a0bd c28e 0000 a194 2080 b17a 1ebe
000001e0: 0092 1b14 1c0d 0000 b789 95ba e49f 01be
000001f0: daa7 0180 0933 f51f c930 01be 974e c8bd
00000200: fb14 3fbe bedc 2b8d 8f86 8cbe 27ff 9d0f
00000210: 3d2c 24bf 6156 d8a1 4200 4d02 7aca 18be
00000220: 2f5c 5099 a509 78b1 523c 7db9 44de 45bf
00000230: 3b33 0000 2216 b7b5 1928 00bf 6569 41bf
00000240: 70bc dcbe e529 d08d cb22 1abf 3bda f912
00000250: 577d 12bf a319 8b9f 6eca df02 ad77 93be
00000260: 615a 9d98 317a beaf 882e 8a3c bda1 98be
00000270: 2ddd 0300 f2b0 3121 75da 2ebf 8fe5 e8be
00000280: aa51 cbbe e5ef a80e 0124 98be aa4f 0480
00000290: 1bc0 99be f80b 0000 ac11 a401 3e6c f7be
000002a0: 70cf 1199 6e64 008c 4cfc 64be 01f3 2cbf
000002b0: 30ef 2f00 e9e4 4336 f78f 06bf 5ea4 d2bd
000002c0: 5185 14be b872 1b0f 15d4 84be 1138 0100
000002d0: f0c8 04bf e213 0080 1b18 3a82 f8d5 98be
000002e0: 68c7 1219 1f56 e298 ac4f 063b ccc2 10bf
000002f0: 236f 0100 de1f f11b 3ebc dfbe 427c 00bf
00000300: e721 e33e 6206 228d 798b 1d3f ab85 0080
00000310: a04c 473e d2ea 0080 6494 4381 90a6 b13e
00000320: 9861 3199 55b2 ca1b e380 063e 4c96 9f3e
00000330: eb16 0000 bfce c1b3 60de c93e ac21 f43e
00000340: a282 7a37 0cd6 0a08 e981 cc3a 05dc 0400
00000350: 0843 c9b6 df54 0180 02ac 0400 fa24 4f3a
00000360: dd0b 8d12 852e 0200 9d7b 7e3b e435 f53a
00000370: 4662 0180 2960 4e26 ddb1 4bb7 ef5f 3939
00000380: a983 e53e 100f 248d bc5c ef3e e949 0080
00000390: ce34 1d3f b831 0080 e42a b501 c256 313f
000003a0: e639 6399 f424 ca1c 04b7 a13d 6c08 033f
000003b0: bce2 0300 5112 3fad 38dc 9b3d a1bb 4e3e
000003c0: 7814 633e 0af3 690e e699 be3e 1366 4880
000003d0: b054 3d3f 01e9 af14 e681 2002 b44a ed3e
000003e0: c046 5d19 da91 842c a2f8 bdbd 2e8e f83e
000003f0: 6c3b 0100 9426 03a6 6d83 363f 4202 363f

linear.weight f4 [1, 16]
2.5903208 1.2867475 -1.2806327 3.0680308 2.5596974 -2.4493911 0.96855676 0.07202748
2.94353 3.1432493 1.0595722 2.1626797 -1.6572846 -4.8263282e-05 -1.8446153 -2.3563077
00000000: d1c7 2540 24b4 a43f c6eb a3bf 9e5a 4440
00000010: 15d2 2340 d3c2 1cc0 56f3 773f 2583 933d
00000020: cc62 3c40 ff2a 4940 10a0 873f 5869 0a40
00000030: e721 d4bf 4e6e 4ab8 5b1c ecbf bfcd 16c0
