RL gym coherence/models/Taxi_GCN_URS_UPS_11.pt (torch, 4160 bytes, 5 tensors)

conv1.bias f4 [16]
0	0x96901a90	-2.3281218e-25
1	0xbf16fa03	-0.5897524
2	0x0223ebb1	1.2042989e-37
3	0xbf53c852	-0.8272754
4	0x3f1f3358	0.6218772
5	0xa5ba3f9d	-3.2308963e-16
6	0x9ead7692	-1.8366127e-20
7	0xb1e496e2	-6.6528267e-09
8	0xa978abe4	-5.5216153e-14
9	0xba274794	-0.00063812104
10	0xbf530ebe	-0.8244437
11	0xbf313bd9	-0.69231945
12	0xbf514c90	-0.8175745
13	0xbbbd7a73	-0.0057824193
14	0xaea957c4	-7.7008205e-11
15	0xbf1f4396	-0.622125

conv1.lin.weight f4 [16, 1]
0	0xaecc312b	-9.28558e-11
1	0x3e75ea1a	0.24015084
2	0x9f1cbdf5	-3.3191414e-20
3	0x3f074b95	0.52849704
4	0x3de6161a	0.11234684
5	0xb4bf8084	-3.567003e-07
6	0xb0a6f8bf	-1.2148788e-09
7	0xaf5d88db	-2.0148454e-10
8	0xb4c316e6	-3.633824e-07
9	0xbced8e12	-0.028998408
10	0x3f06a4a7	0.5259499
11	0x3edfcafc	0.43709552
12	0x3f091d89	0.5356069
13	0x3aa3d82d	0.0012500338
14	0xb66b1f48	-3.5035937e-06
15	0x3ec6c2bd	0.3882045

conv2.bias f4 [16]
0	0x3f533a29	0.8251062
1	0x3f5e8f47	0.86937374
2	0xbf51eef2	-0.82005227
3	0xbf6009d7	-0.87515014
4	0x3f4ccf1e	0.80003536
5	0xbe82baa2	-0.25533015
6	0x3f6ac82c	0.9171169
7	0x3f4d553e	0.80208194
8	0xbf483543	-0.7820627
9	0x3f5b1850	0.8558397
10	0xbf56eaad	-0.83951837
11	0xbf1b6820	-0.6070576
12	0xbe1cc34a	-0.15308872
13	0xbf59b3cf	-0.8503999
14	0xbed49f49	-0.41527775
15	0x3f5594c9	0.83430153

conv2.lin.weight f4 [16, 16]
0	0x00000136	4.34e-43
1	0xbe8909b9	-0.2676523
2	0x8215ea0e	-1.1013962e-37
3	0xbf2e471f	-0.6807727
4	0x3ece618b	0.40308794
5	0x00034cf2	3.03109e-40
6	0x8000b796	-6.5858e-41
7	0x278808d2	3.7757146e-15
8	0x000013e9	7.142e-42
9	0x3aeb3b95	0.0017946834
10	0xbf464e15	-0.77462894
11	0xbe75fcc2	-0.240222
12	0xbeb73e3b	-0.35789666
13	0xb89d7240	-7.507624e-05
14	0x8002701d	-2.2389e-40
15	0xbf395188	-0.7239003
16	0x0000012e	4.23e-43
17	0xbc7b809e	-0.015350489
18	0x00a1ccdc	1.4859005e-38
19	0xbf270716	-0.6524519
20	0x3eb7dece	0.35912174
21	0x80001ec7	-1.1041e-41
22	0x000012a3	6.686e-42
23	0x286d1dda	1.3162616e-14
24	0x0002b0c7	2.47087e-40
25	0x3a8a6102	0.0010557475
26	0xbeb8655e	-0.36014837
27	0xbed51414	-0.4161688
28	0xbf3a1d39	-0.7270084
29	0x3a8400ee	0.0010071078
30	0x00017c52	1.36433e-40
31	0xbf1d8ab3	-0.61539763
32	0x8002f7b5	-2.72532e-40
33	0x3e3b4c2e	0.18290779
34	0x01564498	3.9354806e-38
35	0x3e2f6992	0.17130116
36	0xbdcbce86	-0.099515006
37	0x8002d61a	-2.60476e-40
38	0x8000cfa1	-7.4483e-41
39	0x1be0b072	3.7171717e-22
40	0x0001b835	1.57917e-40
41	0xb9f47dd4	-0.00046633056
42	0x3f0e63b3	0.5562088
43	0x3efda4ee	0.49539894
44	0x3f09aca1	0.53779036
45	0x399e44e2	0.0003018743
46	0x80048bff	-4.17563e-40
47	0x3f0a9917	0.54139847
48	0x00027d5f	2.28646e-40
49	0x3e7f77cd	0.24948044
50	0x020f3f0f	1.0524078e-37
51	0x3eed0411	0.46292165
52	0xbe9046da	-0.28179055
53	0x00012246	1.0413e-40
54	0x0004eb5d	4.51774e-40
55	0x13b2fba1	4.5181642e-27
56	0x8002af3d	-2.46535e-40
57	0xbaab7c3b	-0.0013083288
58	0x3f11a1af	0.56887335
59	0x3f24be53	0.6435291
60	0x3f0553ed	0.52081186
61	0xb822da0d	-3.8826885e-05
62	0x0001a29f	1.50173e-40
63	0x3e937132	0.287973
64	0x0001625e	1.27123e-40
65	0x3ce44116	0.027863067
66	0x8255d84e	-1.5710845e-37
67	0xbf0e611d	-0.55616933
68	0x3c6c7d58	0.014434181
69	0x00033a12	2.96338e-40
70	0x8001e0d4	-1.72489e-40
71	0x2960f1b6	4.9947642e-14
72	0x000409c4	3.70845e-40
73	0xba94cef8	-0.0011353185
74	0xbe700cb7	-0.2344235
75	0xbeff990d	-0.49921456
76	0xbeb76696	-0.35820454
77	0x3a923242	0.0011153894
78	0x0002a7e2	2.43896e-40
79	0xbe83f38c	-0.2577175
80	0x8001b0d1	-1.55265e-40
81	0x3a96a196	0.0011492248
82	0x0005f8fd	5.48498e-40
83	0x3e1af0b9	0.15130891
84	0xbd251fda	-0.04031358
85	0x000126ad	1.0571e-40
86	0x0002fbd7	2.74014e-40
87	0x91ccc22e	-3.2305197e-28
88	0x00022247	1.95967e-40
89	0x3904d20e	0.00012666752
90	0x3e1431fd	0.14472194
91	0x3dca12cd	0.09866867
92	0x3e0524b2	0.1300228
93	0xb6f31a26	-7.2450084e-06
94	0x0001aa87	1.53009e-40
95	0x3d991257	0.07474201
96	0x000086e2	4.8387e-41
97	0xbdaeeaa6	-0.085408494
98	0x81c8849f	-7.36587e-38
99	0xbf1d2f71	-0.61400515
100	0x3e6df23f	0.23236941
101	0x00046130	4.02206e-40
102	0x00020877	1.86708e-40
103	0x13aeda3a	4.4138963e-27
104	0x8002a4b0	-2.4275e-40
105	0x3a8dc4fa	0.001081615
106	0xbede4c3d	-0.4341754
107	0xbf0b2d3b	-0.5436589
108	0xbf08943c	-0.5335119
109	0x38af46a2	8.357807e-05
110	0x8003f849	-3.64574e-40
111	0xbed4d9a2	-0.4157229
112	0x80003b5f	-2.1298e-41
113	0xbca6bc50	-0.020353466
114	0x00281a32	3.682817e-39
115	0xbeb03727	-0.34417078
116	0x3d956174	0.07293978
117	0x80011b5f	-1.01654e-40
118	0x0001a79a	1.5196e-40
119	0x21ac0d27	1.1658655e-18
120	0x0004910d	4.19376e-40
121	0x37abd070	2.048185e-05
122	0xbf393d75	-0.723594
123	0xbe927fd3	-0.28613147
124	0xbf221fbf	-0.6332969
125	0xb89cf6b0	-7.484609e-05
126	0x00031fed	2.8696e-40
127	0xbe742caf	-0.2384517
128	0x800053a5	-3.0006e-41
129	0x3e27d6d4	0.16390544
130	0x00912e86	1.3332836e-38
131	0x3e8c89ff	0.27449033
132	0x3e50bb32	0.2038391
133	0x00007969	4.3554e-41
134	0x80025eee	-2.17725e-40
135	0xa3143776	-8.03484e-18
136	0x0000ff50	9.1589e-41
137	0x3a711a90	0.00091973785
138	0x3dfbaaa7	0.12288409
139	0x3ea1c184	0.31592953
140	0x3f091a85	0.5355609
141	0x3944dfd0	0.00018775393
142	0x80014ce7	-1.19423e-40
143	0x3e073f96	0.1320785
144	0x0000648f	3.6074e-41
145	0x3d912b39	0.07088322
146	0x829b8d21	-2.2856207e-37
147	0xbe6fcf32	-0.23418882
148	0x3ee115cf	0.4396195
149	0x0002691b	2.21376e-40
150	0x0000b9f5	6.6709e-41
151	0x29874584	6.0072634e-14
152	0x80042448	-3.80357e-40
153	0x3af32054	0.0018549063
154	0xbf5d0804	-0.86340356
155	0xbec71f40	-0.3889103
156	0xbf464273	-0.77445143
157	0x39c57b21	0.00037666506
158	0x000209b3	1.8715e-40
159	0xbf209d23	-0.6273977
160	0x000068eb	3.7637e-41
161	0xbe1d666d	-0.15371104
162	0x81293b0f	-3.108277e-38
163	0x3f295ea6	0.6616005
164	0xbe8e0b0d	-0.27742806
165	0x0ab9b609	1.7883326e-32
166	0x0002e738	2.66617e-40
167	0xabda6b5d	-1.5519631e-12
168	0x80006d6d	-3.9255e-41
169	0xba360e88	-0.00069449143
170	0x3f4c58e4	0.79823136
171	0x3ef0a70d	0.4700245
172	0x3eaffa66	0.34370726
173	0x3aa9be58	0.0012950404
174	0x0002260b	1.97318e-40
175	0x3f04acd2	0.518262
176	0x0002daed	2.62207e-40
177	0xbd271c75	-0.040798623
178	0x010f19cc	2.628346e-38
179	0x3e183a5c	0.14866012
180	0xbe0e4746	-0.13894376
181	0x00008d4f	5.0692e-41
182	0x0003798e	3.19112e-40
183	0xa46478f6	-4.9542077e-17
184	0x8000d21a	-7.537e-41
185	0x3a007942	0.00049008813
186	0x3dd630c9	0.10458524
187	0x3f095a96	0.5365385
188	0x3ee44621	0.44584754
189	0xb900173a	-0.00012215684
190	0x80009df7	-5.6667e-41
191	0x3eb8f84f	0.36126944
192	0x80009870	-5.4684e-41
193	0xbd98f9dc	-0.07469532
194	0x007d10c6	1.1485454e-38
195	0x3e876d0c	0.26450384
196	0xbeabaf5d	-0.3353223
197	0x0001d051	1.66565e-40
198	0x000057f1	3.1547e-41
199	0x9dfad3ed	-6.6393575e-21
200	0x800133ca	-1.10414e-40
201	0x38029d4e	3.1140917e-05
202	0x3e3a59c9	0.18198313
203	0x3e393269	0.18085636
204	0x3e6bd9db	0.23032324
205	0xb74272a7	-1.1589996e-05
206	0x800146f0	-1.17283e-40
207	0x3da5e8e5	0.08101062
208	0x8001ca1a	-1.64336e-40
209	0x3e843c85	0.25827423
210	0x0067b608	9.524357e-39
211	0x3f33afd2	0.70190156
212	0xbeca800c	-0.39550817
213	0x8003a2c9	-3.33903e-40
214	0x80004ef4	-2.8323e-41
215	0xa6bc997a	-1.308672e-15
216	0x80022614	-1.97331e-40
217	0xbaeca441	-0.0018054323
218	0x3f1e0e9d	0.6174105
219	0x3f56cc41	0.83905417
220	0x3ebdbe12	0.37059075
221	0x3a37dbc6	0.0007013645
222	0x80009a87	-5.5434e-41
223	0x3e4bbfd8	0.19897401
224	0x00040be5	3.71609e-40
225	0x3e1f344c	0.15547293
226	0x007dd06e	1.1554208e-38
227	0x3e771427	0.24128781
228	0xbe03f330	-0.12885737
229	0x800452d8	-3.97061e-40
230	0x0002958b	2.37317e-40
231	0xa2a8f2bb	-4.5793492e-18
232	0x0000ebae	8.4546e-41
233	0xb70924f0	-8.1744365e-06
234	0x3e777dc1	0.24169065
235	0x3e3bb894	0.1833213
236	0x3dcb6076	0.09930508
237	0xb912cd70	-0.00014000176
238	0x80003769	-1.9877e-41
239	0x3db591d8	0.08865708
240	0x8002504f	-2.1248e-40
241	0xbed6f62b	-0.41984686
242	0x007b70d8	1.1336247e-38
243	0xbf4a8e9c	-0.79123855
244	0x3ea88d0d	0.32920113
245	0x00000541	1.885e-42
246	0x8001a7db	-1.5205e-40
247	0x2905c580	2.9703236e-14
248	0x00001ab4	9.579e-42
249	0x3970d8b4	0.00022968912
250	0xbe2dd593	-0.16976003
251	0xbf0e03c8	-0.5547452
252	0xbef9e00b	-0.48803744
253	0x390051d3	0.00012237513
254	0x80005687	-3.104e-41
255	0xbef32737	-0.47490856

linear.weight f4 [1, 16]
0	0x404a6dd5	3.1629536
1	0x4032c071	2.7929957
2	0xbf88a03e	-1.0673902
3	0xc0386c95	-2.8816273
4	0x4006e90f	2.1079748
5	0xbd516145	-0.051118154
6	0x40338df2	2.8055387
7	0x3f76b72a	0.96373236
8	0xbf5b5e30	-0.85690594
9	0x405a85a6	3.4144073
10	0xc02b2b48	-2.6745167
11	0xbf413086	-0.75464666
12	0xbdbeee2c	-0.093227714
13	0xc05f86f9	-3.492613
14	0xbe6c5da4	-0.23082596
15	0x4022cc06	2.5437026
