RL gym coherence/models/Taxi_GCN_UUS_URS_20.pt (torch, 4160 bytes, 5 tensors)

conv1.bias f4 [16]
00000000: e8e1 718a e618 63ba 4dd1 bcae 1591 eebb
00000010: 1194 74bd bd59 8eb8 6f2d 38be d912 ebaa
00000020: d25e 0280 74dd 97ad 8457 bfbf 57bd d1b8
00000030: de4c 25be 845d 14bc edbf 0f9e 6546 70bd
-1.1646216e-32 -0.0008663073 -8.5864295e-11 -0.0072804787 -0.05971152 -6.787803e-05 -0.17986082 -4.1757464e-13
-2.17686e-40 -1.7265057e-11 -1.4948583 -0.00010001164 -0.16142604 -0.009055499 -7.610046e-21 -0.058660883

conv1.lin.weight f4 [16, 1]
00000000: a87d 19aa dc44 4539 13bc 24b6 b475 d23a
00000010: 4fe5 5f3c 7bf5 d9b8 7e0b 2d3d 30f7 1bb6
00000020: 8362 f69d a3a5 a3b7 8c1d 943f 2a52 08bc
00000030: 1453 72be 2c49 043b 615d 87b1 b5e8 583c
-1.3632726e-13 0.00018813036 -2.4547378e-06 0.0016056807 0.013665511 -0.000103930906 0.042247288 -2.3240682e-06
-6.5217517e-21 -1.9508245e-05 1.1571517 -0.008320371 -0.23664504 0.0020185215 -3.939633e-09 0.013239075

conv2.bias f4 [16]
00000000: ac8c dabf 72e0 98bc c528 ba3f 8dc1 38bf
00000010: 059c cabf e061 b7bf 9aa8 c9bf c90d 413f
00000020: 8a85 8b3f 8378 46bf 03aa c5bf b1cb ca3f
00000030: 1082 153d 3fd8 933f fb34 b83d 726f bcbf
-1.707418 -0.018661711 1.4543692 -0.72170335 -1.5828863 -1.4326744 -1.5754578 0.7541166
1.0900128 -0.77527636 -1.5442508 1.5843412 0.03650099 1.1550368 0.0899448 -1.472151

conv2.lin.weight f4 [16, 16]
00000000: 440f 758a 9e5b 5a36 cb32 0000 46f7 c738
00000010: 5e9c 8bb8 bb91 d036 2d28 a338 c01c 0000
00000020: 2331 0100 123a 0000 3271 bb3f cdfe 9f32
00000030: f2b4 ee3d a2cb b338 d488 0980 c412 d739
00000040: 5aa3 5784 68f9 bf30 976c 0080 43f5 2733
00000050: 8038 c735 ba10 ba31 9aa7 0f37 3fe0 0000
00000060: de3d 0300 555e 0000 8429 843c aec0 0000
00000070: 8e80 03b4 9f08 4233 2115 0080 dfc5 a234
00000080: ece2 db87 901d 2ab6 841f 0080 bc4b 4439
00000090: b2ab aa39 3a6a 8ab6 a95a c33b a0a2 0000
000000a0: 9fc4 0000 b48f 0000 e3c6 9abf 0e66 8fa4
000000b0: cf9c adbd 8bb4 3eba 3c8c 0000 77a7 08b8
000000c0: 1706 c287 b973 c734 0244 0100 9d7c e237
000000d0: 1b77 f036 2066 d235 58df 8a3a 200c 0080
000000e0: f1fe 0080 9589 0080 7de0 1d3f 163f 0180
000000f0: 8b02 5334 34ec bcb8 cf11 0080 c5b1 4ab6
00000100: 5008 3907 45d1 2e36 dd81 0000 8aa7 e9b7
00000110: c828 913a a968 bb36 92c7 acbb ea24 0100
00000120: a60a 0000 eaaf 8e8d 609d b13f 0547 0835
00000130: 779b d13d 228e 91b9 f784 0000 e8dc e8b8
00000140: 836c 1408 5240 fa35 6627 0080 70ab 9d38
00000150: 5848 b13a 5fa1 9236 814a 99bb b003 0000
00000160: 5d8c 0180 2969 db29 8dec b63f d6a2 2e36
00000170: d688 913d 8aa0 aeb4 f69b 0000 1fdb 953a
00000180: f114 a489 d3ae 1136 7178 0000 e14b aa38
00000190: af29 14b8 44a0 8636 4718 283a 2b47 0000
000001a0: 6324 0300 4504 0100 4ec0 a93f 241a d12a
000001b0: 1dc4 ab3d 4c24 8ab8 df22 0000 4458 1c39
000001c0: 3493 7507 ca78 ecb4 a8f4 0080 ba3b d6b7
000001d0: 18fc 99b6 c568 e035 8f59 713a a525 0180
000001e0: 04fe 0000 5a00 0000 0e63 24bf f827 0100
000001f0: 104e 1436 29b2 4339 a35b 0100 1ec0 1fb7
00000200: 10ae 4606 972c c6b5 dd2f 0000 5b52 beb8
00000210: ff36 25ba 785d d8b5 757d 7abb 5412 0180
00000220: d732 0000 904f 0080 2cc6 66bf 1830 0000
00000230: 7df4 c7bc 6cb5 d7b9 a072 0180 4cd5 8ab7
00000240: a6d7 2889 5340 8e34 f23d 0080 7e86 2237
00000250: 1214 db38 92ec 3335 d08e 9f38 b386 0000
00000260: 1f59 0180 ad59 0100 bc11 283f c0a3 0180
00000270: 69a8 10b6 2bca 9035 bc77 0000 7fca 3638
00000280: 3cf9 b989 10e1 ce33 5f52 0180 f9be 9538
00000290: 4820 5d36 6585 8836 f45c 2d39 c680 0000
000002a0: 86a7 0100 bd31 0180 15c9 a43f f75d 3f1c
000002b0: 7080 ac3d 5971 9638 2132 0080 002e f939
000002c0: 3e18 2d08 95c1 26b6 0e87 0000 a586 8eb8
000002d0: 3233 6cba 0606 c2b6 e785 23bc 1f88 0000
000002e0: b567 0000 8717 0d9c fda8 afbf c5a4 abb5
000002f0: f60c e5bd 5ebd 1538 42dc 0080 a0ac 63b9
00000300: dffd ce83 f84e 3db2 5030 0100 7998 4db5
00000310: 6ac4 bbb6 06a9 84b2 de77 77b8 b25a 0100
00000320: 1899 0080 2617 0080 d937 01bd e44a 0000
00000330: 2444 ae33 5ea8 87b5 2454 0080 9dc2 beb6
00000340: 086d b506 4d75 b6b5 1e89 0000 829c 3db8
00000350: 7fbb 0c39 73a3 5035 96a1 89bb de81 0000
00000360: 3984 0100 037c 0000 83d8 72bf 9179 0080
00000370: 5038 a5bc 5665 0039 44c7 0080 4bb6 dbb9
00000380: 2ea9 b185 43ae f0b2 cea0 0080 6c9f 16b4
00000390: 1a88 1eb6 ca83 be33 3d60 3bb7 5e05 0000
000003a0: abae 0080 92cb 0000 ada5 9cbd 5561 0100
000003b0: 298a 1cb4 39e6 32b4 9a68 0180 4493 8434
000003c0: 7a97 ef87 c29e e235 f62b 0080 eaaa 4538
000003d0: 869e a5ba 97e7 8e36 a83e 9d3a b379 0000
000003e0: 1059 0080 2fe0 c680 fcac 9f3f 4c01 fc2e
000003f0: b1ab 9d3d 7ca1 9db4 5890 0180 0b71 2839
-1.1799192e-32 3.253786e-06 1.8221e-41 9.535118e-05 -6.657162e-05 6.2158483e-06 7.779929e-05 1.0314e-41
1.09462e-40 2.0832e-41 1.464392 1.8625906e-08 0.11655606 8.573315e-05 -8.75604e-40 0.00041021977
-2.5348136e-36 1.3967965e-09 -3.8955e-41 3.910578e-08 1.4843099e-06 5.415214e-09 8.562487e-06 8.0444e-41
2.977e-40 3.384e-41 0.016133077 6.912e-41 -1.2247094e-07 4.5176986e-08 -7.58e-42 3.0318822e-07
-3.308483e-34 -2.5349182e-06 -1.1306e-41 0.0001872023 0.0003255285 -4.125087e-06 0.0059617353 5.8339e-41
7.0534e-41 5.1551e-41 -1.2091945 -6.218925e-17 -0.084771745 -0.0007274828 5.0307e-41 -3.258089e-05
-2.9193455e-34 3.7150838e-07 1.16232e-40 2.6999327e-05 7.166423e-06 1.5675942e-06 0.0010595126 -4.35e-42
-9.1456e-41 -4.9355e-41 0.61670667 -1.14466e-40 1.9651831e-07 -9.008535e-05 -6.389e-42 -3.020382e-06
1.3920296e-34 2.6049831e-06 4.6586e-41 -2.7853781e-05 0.0011074776 5.5852183e-06 -0.005272814 1.05078e-40
3.82e-42 -8.793775e-31 1.3876152 5.0767295e-07 0.10234731 -0.00027762452 4.7699e-41 -0.00011103769
4.4664685e-34 1.8645171e-06 -1.4133e-41 7.518276e-05 0.0013525588 4.369925e-06 -0.004678071 1.323e-42
-1.42188e-40 9.743796e-14 1.429094 2.6022803e-06 0.071061775 -3.2526833e-07 5.5948e-41 0.0011433101
-3.9501257e-33 2.1708445e-06 4.3206e-41 8.120365e-05 -3.532477e-05 4.0121686e-06 0.0006412309 2.553e-41
2.8856e-40 9.3367e-41 1.3261812 3.7143997e-13 0.08387015 -6.5871136e-05 1.251e-41 0.00014910201
1.847501e-34 -4.404631e-07 -8.7766e-41 -2.55386e-05 -4.589103e-06 1.6719792e-06 0.00092067657 -1.0534e-40
9.1124e-41 1.26e-43 -0.64213645 1.06174e-40 2.2099157e-06 0.00018663019 1.24709e-40 -9.521869e-06
3.7367542e-35 -1.4765127e-06 1.717e-41 -9.075246e-05 -0.00063024455 -1.6120457e-06 -0.003822175 -9.841e-41
1.8238e-41 -2.8542e-41 -0.90146136 1.7253e-41 -0.024408573 -0.00041143165 -1.32955e-40 -1.6550206e-05
-2.0323662e-33 2.6496363e-07 -2.2222e-41 9.687266e-06 0.00010446472 6.702695e-07 7.608312e-05 4.8321e-41
-1.23806e-40 1.24005e-40 0.6565206 -1.50578e-40 -2.15557e-06 1.0787675e-06 4.2953e-41 4.358077e-05
-4.477151e-33 9.633561e-08 -1.21385e-40 7.140445e-05 3.2950356e-06 4.068645e-06 0.00016533193 4.6195e-41
1.51932e-40 -1.09678e-40 1.2873865 6.3318046e-22 0.08422935 7.17367e-05 -1.7983e-41 0.00047527254
5.208879e-34 -2.4848607e-06 4.8448e-41 -6.796167e-05 -0.0009010314 -5.7823518e-06 -0.009980655 4.8831e-41
3.7203e-41 -4.6683395e-22 -1.3723446 -1.2788447e-06 -0.11184113 3.570073e-05 -7.9014e-41 -0.00021712715
-1.2165878e-36 -1.1019203e-08 1.09167e-40 -7.659033e-07 -5.5959e-06 -1.5443685e-08 -5.9001024e-05 1.24371e-40
-5.492e-41 -8.304e-42 -0.0315474 2.6866e-41 8.114901e-08 -1.0107285e-06 -3.0184e-41 -5.685097e-06
6.824484e-35 -1.3594196e-06 4.9188e-41 -4.520687e-05 0.00013421288 7.772389e-07 -0.0042001707 4.6588e-41
1.39268e-40 4.4487e-41 -0.9486162 -4.361e-41 -0.020168453 0.00012244782 -7.1483e-41 -0.00041906754
-1.6707147e-35 -2.8018922e-08 -5.7686e-41 -1.4027836e-07 -2.3623056e-06 8.871537e-08 -1.1168476e-05 1.925e-42
-6.2659e-41 7.3027e-41 -0.07648788 1.26752e-40 -1.4578895e-07 -1.6661296e-07 -1.2936e-40 2.4694066e-07
-3.6049753e-34 1.6884517e-06 -1.577e-41 4.7127636e-05 -0.0012635745 4.2588904e-06 0.0011996822 4.3657e-41
-3.195e-41 -1.826385e-38 1.2474666 1.14598636e-10 0.07698763 -2.9361024e-07 -1.43616e-40 0.0001606384

linear.weight f4 [1, 16]
00000000: 7a24 4cc0 f820 feb9 8aa2 1b40 6b1a 9ebe
00000010: 6235 37c0 3a69 11c0 9018 1ec0 7def b33e
00000020: bd98 a13f 5da6 bcbe e422 1dc0 6a84 4340
00000030: 997a 9e3a c928 9d3f 0f94 26b8 bf69 14c0
-3.1897264 -0.0004847122 2.4317956 -0.3087953 -2.8626332 -2.2720475 -2.4702492 0.35143653
1.2624737 -0.36845675 -2.4552546 3.054957 0.001209098 1.2278072 -3.9715374e-05 -2.3189542
