RL gym coherence/models/Taxi_GCN_UUS_URS_38.pt (torch, 4160 bytes, 5 tensors)

conv1.bias f4 [16]
-0.0004896758 -0.14505579 -0.029910224 -0.06665668 -0.17527255 -1.6111082 5.2206967e-12 -2.012219
-0.13567701 -0.04147442 -0.003847223 -0.335336 -1.8349683 -1.9644701 -0.0048135896 -1.8550301
00000000: 965d 00ba 8189 14be 4906 f5bc 4c83 88bd
00000010: a67a 33be cb38 cebf dbaf b72c 32c8 00c0
00000020: eaee 0abe 15e1 29bd b121 7cbb 29b1 abbe
00000030: 3ee0 eabf c273 fbbf 51bb 9dbb a071 edbf

conv1.lin.weight f4 [16, 1]
-0.0017166192 -0.16321117 -0.057243407 0.02202011 -0.21373269 0.6865867 -1.8319496e-10 1.0204874
-0.13047463 1.0216115 0.00092455116 -0.34388536 0.89394164 0.99485457 -0.011039729 0.90328896
00000000: 2f00 e1ba d420 27be 1078 6abd 8563 b43c
00000010: bedc 5abe 25c4 2f3f cc6c 49af 559f 823f
00000020: 249b 05be 2ac4 823f 945d 723a be11 b0be
00000030: 5cd9 643f caae 7e3f fbdf 34bc f23d 673f

conv2.bias f4 [16]
0.03993376 0.01900642 -0.032230984 0.4716346 0.028152788 0.3746701 0.032247722 0.35189676
-0.024529867 0.03094846 -0.39288062 -0.026075888 -0.33756047 0.02735286 -0.03183168 -0.032110486
00000000: 9591 233d 5ab3 9b3c a304 04bd 177a f13e
00000010: ada0 e63c c2d4 bf3e 3016 043d d02b b43e
00000020: dcf2 c8bc a087 fd3c a627 c9be 1a9d d5bc
00000030: bad4 acbe 1b13 e03c f061 02bd 4986 03bd

conv2.lin.weight f4 [16, 16]
-9.947e-41 -6.2701e-41 -3.2819e-17 0.0008825745 1.33587e-40 0.0016730279 3.4188014e-15 0.0032972004
3.4358475e-08 -0.022360018 -1.3972218e-06 -1.6996732e-24 0.0015087634 0.0021218285 -2.3982e-41 0.0013954726
-1.6985e-41 -6.8605142e-37 6.3006996e-17 0.0069888206 -1.800379e-35 0.0028733446 -2.499911e-14 0.018098325
-1.8490438e-08 -0.011835516 -0.00014747155 -1.7708886e-23 0.004755653 0.013844923 -4.7783e-41 0.004056356
-9.139e-41 -3.4847172e-21 1.2138257e-16 9.4252464e-05 7.5226e-41 -0.008571405 9.826105e-13 0.0013047995
-7.472861e-09 0.011105336 -1.4207491e-06 1.5706222e-23 -0.0032300963 0.000634308 -1.21676e-40 -0.003477718
-9.1724073e-10 0.11533394 0.0009535142 0.045437913 0.06582182 -0.5450604 1.1742487e-11 -2.1436517
-0.13060182 0.6084141 0.0002527984 -0.288862 -1.814465 -2.1177266 -2.4623807e-06 -1.6625832
1.1e-44 9.5751e-41 7.720004e-17 -0.0006160868 1.30538e-40 -0.0025135698 -2.9193445e-13 0.0074125533
-4.0723873e-09 -0.013288813 -2.9667933e-07 -1.3217452e-22 0.0030964925 0.0073167705 5.065e-41 0.0033641518
-6.2281446e-13 0.08906542 1.6257118e-05 -0.004490277 0.03780733 -0.36567745 -9.159679e-13 -1.8676522
-0.12709317 0.52981216 -8.335836e-06 -0.24723242 -1.4669546 -1.7834657 -2.7708662e-08 -1.2037101
1.27154e-40 1.3522306e-21 -3.488139e-17 -7.496054e-05 9.705e-42 0.0052858535 8.3014616e-14 -0.0010321431
-2.1926425e-08 -0.013148168 1.62244e-07 -4.7515206e-23 0.0026497366 -0.0004718909 -9.593e-42 0.002768101
-9.708817e-08 0.13426 0.0070644715 0.09400313 0.0915043 -0.8040148 1.581206e-11 -2.5707707
-0.13258848 0.8931439 -0.00075229874 -0.31308866 -2.1433368 -2.4694552 -2.7697877e-05 -1.8190299
1.9875e-41 -3.278647e-14 -1.1728145e-16 7.60179e-06 1.24648e-40 -0.0055846176 -4.02008e-14 -0.003301748
-7.239687e-09 0.0046063727 -8.343763e-08 2.1841547e-25 -0.0050760303 -0.003653032 1.412e-41 -0.005281199
2.3008e-41 5.8673427e-20 1.332504e-16 -8.247101e-05 -2.6293e-41 0.0083846655 -1.05890394e-13 -0.0009159206
-1.037438e-08 -0.010315826 1.3672794e-06 3.3698563e-23 0.00339982 -0.00027082697 -9.9126e-41 0.0036309946
1.1230884e-08 -0.1299527 -0.004799135 0.13659313 -0.086721234 0.7298034 9.755623e-12 2.397762
0.13263585 -0.8120254 -1.1702947e-05 0.308295 1.9227678 2.4293013 1.4940964e-05 1.8509058
-4.1757e-41 -2.7738073e-18 9.358044e-17 8.282615e-05 -3.2709e-41 -0.004403351 -1.9504038e-14 0.001762222
1.919826e-08 0.010177491 -1.3164977e-07 -4.638298e-23 -0.0020777243 0.0012216703 -2.6695e-41 -0.0021930109
5.934417e-10 -0.121159025 -0.0019253546 0.015694708 -0.0708953 0.60411406 8.12754e-12 2.306564
0.13133998 -0.7645717 6.666229e-05 0.2941584 1.7055981 2.1788652 2.0650925e-06 1.7388498
5.2263e-41 5.653218e-19 1.1633049e-16 -8.1007915e-05 1.30793e-40 0.0053140693 -2.979574e-14 -0.0013350465
1.7236815e-08 -0.010017316 1.6795738e-07 -3.1442106e-23 0.0026059311 -0.0007521238 -1.3996e-41 0.002750402
2.7967e-41 -4.1220514e-21 -3.116789e-17 7.7217264e-05 1.27152e-40 -0.007659777 8.9579074e-14 0.0006491579
4.6550372e-09 0.011131503 -8.1075166e-07 -5.723345e-23 -0.0034193108 3.239652e-05 6.56e-41 -0.0036198825
-2.839e-41 -3.530787e-21 1.3312432e-16 9.2906295e-05 1.46036e-40 -0.0086110225 -2.1025784e-13 0.0012296035
-7.483724e-09 0.010969418 -1.5452827e-06 2.1134289e-23 -0.0032825866 0.00056120264 3.7185e-41 -0.0035300886
00000000: 4815 0180 c9ae 0080 d659 17a4 925c 673a
00000010: 6374 0100 8049 db3a c159 7627 d815 583b
00000020: 8b91 1333 5b2c b7bc 2d88 bbb5 7f81 0398
00000030: b3c1 c53a 600e 0b3b da42 0080 4ae8 b63a
00000040: 592f 0080 8273 6983 c448 9124 7a02 e53b
00000050: fa72 bf85 b94e 3c3b 062c e1a8 f042 943c
00000060: e7d4 9eb2 c1e9 41bc 98a2 1ab9 1445 ab99
00000070: 4fd5 9b3b d1d5 623c 3385 0080 2eeb 843b
00000080: c2fe 0080 1ea6 839d d0f1 0b25 68a9 c538
00000090: b3d1 0000 146f 0cbc 464a 8a2b ce05 ab3a
000000a0: fe61 00b2 28f3 353c 91b0 beb5 b9e6 9719
000000b0: 06b0 53bb b047 263a 2f53 0180 6dea 63bb
000000c0: 1421 7cb0 3334 ec3d 41f5 793a 1b1d 3a3d
000000d0: 97cd 863d 1489 0bbf 7693 4e2d 9731 09c0
000000e0: 7cbc 05be 07c1 1b3f 078a 8439 b8e5 93be
000000f0: 6440 e8bf d588 07c0 613f 25b6 87cf d4bf
00000100: 0800 0000 ea0a 0100 dc02 b224 e380 21ba
00000110: e36b 0100 b4ba 24bb 3058 a4aa 01e5 f23b
00000120: 19ed 8bb1 52b9 59bc 4c47 9fb4 08ca 1f9b
00000130: 86ee 4a3b 85c1 ef3b 318d 0000 1a79 5c3b
00000140: 834e 2fab ee67 b63d e55f 8837 2c23 93bb
00000150: dcdb 1a3d 133a bbbe 39e9 80ab 3a0f efbf
00000160: b624 02be c5a1 073f 25da 0bb7 7f2a 7dbe
00000170: 2bc5 bbbf 9b48 e4bf fe03 eeb2 2c13 9abf
00000180: 7462 0100 e357 cc1c addc 20a4 2234 9db8
00000190: 0e1b 0000 f434 ad3b abee ba29 fa48 87ba
000001a0: b858 bcb2 6a6b 57bc 4b35 2e34 fac4 659a
000001b0: 34a7 2d3b 2068 f7b9 be1a 0080 0769 353b
000001c0: c97e d0b3 747b 093e 157d e73b b784 c03d
000001d0: 9b66 bb3d ead3 4dbf 9815 8b2d 8287 24c0
000001e0: 46c5 07be 14a5 643f ea35 45ba 284d a0be
000001f0: 6e2c 09c0 8e0b 1ec0 bd58 e8b7 f9d5 e8bf
00000200: 6737 0000 3aa8 13a9 6037 07a5 e112 ff36
00000210: 785b 0100 2bff b6bb 5e0c 35a9 2462 58bb
00000220: f6c0 f8b1 0ef1 963b 522e b3b3 5031 8716
00000230: d454 a6bb b567 6fbb 5c27 0000 e80d adbb
00000240: 2340 0000 e989 8a1f 94a0 1925 49f4 acb8
00000250: 4b49 0080 d65f 093c a871 eea9 641a 70ba
00000260: 013b 32b2 b603 29bc 5d83 b735 cdf4 221a
00000270: 84cf 5e3b c8fd 8db9 5314 0180 fbf5 6d3b
00000280: f3f1 4032 5212 05be 1042 9dbb 12df 0b3e
00000290: e79a b1bd 65d4 3a3f 6c9f 2b2d ef74 1940
000002a0: b1d1 073e e6e0 4fbf c657 44b7 d8d8 9d3e
000002b0: 411d f63f ac79 1b40 f4aa 7a37 7bea ec3f
000002c0: 6774 0080 bdab 4ca2 24c8 d724 f3b2 ad38
000002d0: 2e5b 0080 fc49 90bb 40ad afa8 5cfa e63a
000002e0: 6ce9 a432 7ebf 263c 9d5b 0db4 594b 609a
000002f0: 6e2a 08bb 7420 a03a 6a4a 0080 9eb8 0fbb
00000300: bf1f 2330 3922 f8bd 2e5c fcba 3092 803c
00000310: 8e31 91bd 38a7 1a3f 30fb 0e2d bf9e 1340
00000320: fd7d 063e f9ba 43bf 0bcd 8b38 ee9b 963e
00000330: 0a51 da3f 8772 0b40 0596 0a36 a192 de3f
00000340: b091 0000 82da 2621 b31e 0625 cbe2 a9b8
00000350: 996c 0100 a521 ae3b 2630 06a9 bafc aeba
00000360: 2810 9432 ab1f 24bc c657 3434 710b 189a
00000370: 45c8 2a3b 2c2a 45ba 0427 0080 1740 343b
00000380: f64d 0000 09ba 9b9d 8dbc 0fa4 b4ef a138
00000390: 7362 0100 defe fabb d2b6 c929 402c 2a3a
000003a0: 24f2 9f31 e860 363c 6ea2 59b5 ca61 8a9a
000003b0: 8416 60bb 80e1 0738 deb6 0000 8d3b 6dbb
000003c0: 244f 0080 ad63 859d 5d7b 1925 b0d6 c238
000003d0: 1797 0100 3f15 0dbc b2ba 6caa a62a a13a
000003e0: c491 00b2 13b9 333c 8267 cfb5 f765 cc19
000003f0: aa20 57bb ac1d 133a a867 0000 0f59 67bb

linear.weight f4 [1, 16]
0.00605565 0.0063948343 -0.0064686807 2.3644392 -0.007726323 1.3879377 0.0048876107 3.7161043
-0.005307265 0.0057319906 -3.34765 -0.0041709454 -2.7412102 0.0044735232 -0.005374202 -0.0063976394
00000000: 796e c63b c28b d13b 3af7 d3bb f952 1740
00000010: 182d fdbb f1a7 b13f 4028 a03b a7d4 6d40
00000020: 91e8 adbb 6cd3 bb3b e63f 56c0 6dac 88bb
00000030: fd6f 2fc0 a296 923b 131a b0bb 4aa3 d1bb
