RL gym coherence/models/Taxi_GCN_UUS_URS_7.pt (torch, 4150 bytes, 5 tensors)

conv1.bias f4 [16]
0	0x99cd997a	-2.1258492e-23
1	0xbfba6e27	-1.4564866
2	0xa36d4455	-1.2862266e-17
3	0xb906e178	-0.0001286323
4	0xbfb969ab	-1.4485372
5	0xbc71803d	-0.014740047
6	0xa7048fa4	-1.8396548e-15
7	0xbf955913	-1.1667808
8	0xa37570f3	-1.33053945e-17
9	0xbda4fee2	-0.080564275
10	0x950600a8	-2.7061602e-26
11	0xaeefb4d4	-1.0900583e-10
12	0xb7f9b139	-2.9765639e-05
13	0xb224a450	-9.583417e-09
14	0xaf8c6094	-2.5534475e-10
15	0xbf3757f6	-0.7161859

conv1.lin.weight f4 [16, 1]
0	0xae29f93f	-3.8647526e-11
1	0x3f75d5aa	0.9602915
2	0xb4512a30	-1.947999e-07
3	0xb90942b6	-0.0001309019
4	0x3f72fbf2	0.9491569
5	0x3b57b2d0	0.0032912977
6	0xb53e2ec2	-7.084856e-07
7	0x3f0811ca	0.53152144
8	0xb1b7eba1	-5.352789e-09
9	0xbd2f9e23	-0.04287542
10	0x95acba52	-6.976421e-26
11	0xb6d687f0	-6.393522e-06
12	0xbc8113aa	-0.015756447
13	0xb70d9006	-8.437788e-06
14	0xb7df7389	-2.6637472e-05
15	0x3e39988d	0.181246

conv2.bias f4 [16]
0	0x3fd2a2af	1.6455897
1	0x3fcd3f65	1.6034971
2	0xbe1c512a	-0.15265337
3	0x3de4721e	0.111545786
4	0xbfd825d6	-1.6886547
5	0xbff1bf8a	-1.8886578
6	0x3f8530cc	1.0405517
7	0x3d56eb83	0.052470695
8	0xbc4d1493	-0.012517112
9	0xbfce8525	-1.6134382
10	0x3fe81196	1.8130367
11	0xbc9a94f6	-0.018869858
12	0xbe9d6974	-0.30744517
13	0xbe95f212	-0.29286247
14	0xbfd3f930	-1.6560421
15	0x4005d110	2.0908852

conv2.lin.weight f4 [16, 16]
0	0x00009821	5.4574e-41
1	0xbfa1c60f	-1.2638568
2	0xa60da903	-4.9148256e-16
3	0xb89a1547	-7.3472555e-05
4	0xbf92b62b	-1.1461843
5	0x36358a70	2.7051683e-06
6	0xa7dc9f97	-6.1235294e-15
7	0xbeeb11cd	-0.45912018
8	0x89732430	-2.9267076e-33
9	0x3caca052	0.02107254
10	0x13fdbb96	6.4051153e-27
11	0x80005290	-2.9618e-41
12	0xb3ed38b2	-1.1046485e-07
13	0x005fdef6	8.804355e-39
14	0x00005f6e	3.4234e-41
15	0xbe1d17ed	-0.15341158
16	0x000002cb	1.002e-42
17	0xbf7d2890	-0.9889002
18	0x000018a4	8.84e-42
19	0xb97024b6	-0.0002290186
20	0xbf477088	-0.77906084
21	0x39012640	0.00012316648
22	0x8000422d	-2.374e-41
23	0xbe1eec37	-0.15519796
24	0x800013ce	-7.105e-42
25	0x3cb90fda	0.022590566
26	0x141a119b	7.778485e-27
27	0xa6f52ade	-1.7011909e-15
28	0xb7e1a332	-2.6898084e-05
29	0x2c7b35a0	3.5699013e-12
30	0x00000660	2.287e-42
31	0x3c68c4fb	0.01420712
32	0x000082b7	4.6892e-41
33	0x3dc0e086	0.094178244
34	0x80007ac3	-4.4039e-41
35	0xb49e4a0f	-2.9483678e-07
36	0x3ddd9c7f	0.10820865
37	0xb5e70c2a	-1.7214381e-06
38	0x0000e665	8.265e-41
39	0x3c37fbc0	0.0112294555
40	0x80012e93	-1.08543e-40
41	0xa711eb04	-2.0250195e-15
42	0x0eb788f2	4.5244857e-30
43	0x0cdbe4df	3.388004e-31
44	0x31a63bd6	4.8380384e-09
45	0x97255fd8	-5.3435347e-25
46	0x00000824	2.92e-42
47	0xb8e30f45	-0.00010827048
48	0x000080c3	4.6191e-41
49	0xbd948db9	-0.07253594
50	0x00019d87	1.48346e-40
51	0x34a7d662	3.1262158e-07
52	0xbd9fc267	-0.07800751
53	0x358058ae	9.562552e-07
54	0x800064e3	-3.6191e-41
55	0xbbf92b3a	-0.00760403
56	0x8000006b	-1.5e-43
57	0x1f9ff1be	6.773905e-20
58	0x0f3ace06	9.210187e-30
59	0x0144e62d	3.6164658e-38
60	0xaea81fc0	-7.6453954e-11
61	0x149a4658	1.5577772e-26
62	0x00013806	1.11933e-40
63	0xb7e91912	-2.7787439e-05
64	0x0000ecaf	8.4906e-41
65	0x3f5ef4e0	0.870924
66	0x800087c2	-4.8701e-41
67	0x38f6b0a2	0.000117630945
68	0x3f6e19a3	0.9300787
69	0x3756e08b	1.28076745e-05
70	0x0000bb3a	6.7164e-41
71	0x3eedd809	0.46453884
72	0x8014ec0a	-1.921385e-39
73	0xbcb4a30c	-0.022050403
74	0x9436977e	-9.2185284e-27
75	0x00011d77	1.02405e-40
76	0x365a3e30	3.252073e-06
77	0x80004761	-2.5606e-41
78	0x8000ccf0	-7.3518e-41
79	0x3cd637c2	0.026149634
80	0x8000597b	-3.21e-41
81	0x3f9aa9d9	1.2083083
82	0x80004fab	-2.858e-41
83	0x394b2495	0.00019373216
84	0x3f66950e	0.9007119
85	0x37b6f4c0	2.1810061e-05
86	0x80006a27	-3.808e-41
87	0x3e8449ce	0.25837559
88	0x0000ca3a	7.2545e-41
89	0xbcd7546e	-0.026285376
90	0x139cb0b2	3.955417e-27
91	0x00016d39	1.31017e-40
92	0x3963d5dd	0.00021728077
93	0x0eacde46	4.2615315e-30
94	0x000037d7	2.0032e-41
95	0x3bf161e8	0.0073664077
96	0x000100ba	9.2096e-41
97	0xbf0d641a	-0.5523087
98	0x00012054	1.03433e-40
99	0xb95e140c	-0.00021179038
100	0xbf14262f	-0.57870764
101	0xb78ecc12	-1.7022747e-05
102	0x8000c717	-7.142e-41
103	0xbd81bf54	-0.06335321
104	0x0000ddc7	7.9559e-41
105	0x3afc93d4	0.001927013
106	0x943d71fe	-9.5645425e-27
107	0x00005ca6	3.3236e-41
108	0x33c027e6	8.947954e-08
109	0x0000d639	7.6849e-41
110	0x80002160	-1.1973e-41
111	0x3b4a6b9d	0.0030886896
112	0x00016ca9	1.30815e-40
113	0x3cd1158e	0.025522973
114	0x8000a9fb	-6.0978e-41
115	0x37afba4c	2.0948377e-05
116	0x3d366d47	0.04453781
117	0x36d7ee14	6.4352153e-06
118	0x00019b73	1.476e-40
119	0x3cafff07	0.021483911
120	0x00008385	4.718e-41
121	0x000081b5	4.653e-41
122	0x9256dcb9	-6.7798555e-28
123	0x9a94e76e	-6.158526e-23
124	0x2f6423e8	2.0749236e-10
125	0x2225318f	2.2387906e-18
126	0x0000b066	6.328e-41
127	0x3a093554	0.0005234082
128	0x000078e1	4.3363e-41
129	0x3ce97831	0.028499695
130	0x800006b8	-2.41e-42
131	0x33c3b0fe	9.11259e-08
132	0x3d158c75	0.036510903
133	0xb68839ee	-4.0598597e-06
134	0x0000b240	6.3944e-41
135	0x3c70a4e8	0.014687754
136	0x000087d9	4.8733e-41
137	0x80007a0e	-4.3785e-41
138	0x91600f51	-1.7675204e-28
139	0x80012502	-1.05111e-40
140	0xb072e482	-8.8363816e-10
141	0x071faea3	1.2013152e-34
142	0x8000c5e8	-7.0995e-41
143	0xb75a5887	-1.3014424e-05
144	0x00008385	4.718e-41
145	0x3f5de1e2	0.86672795
146	0x00017e99	1.3725e-40
147	0x3926b3f1	0.00015898027
148	0x3f5c9ddb	0.8617837
149	0x3a11c856	0.00055611634
150	0x8000d6a2	-7.6996e-41
151	0x3e942a7e	0.2893867
152	0x8000903d	-5.1743e-41
153	0xbc935116	-0.017983
154	0x9376551c	-3.1091527e-27
155	0xaac0db9d	-3.4258439e-13
156	0xb1ee708e	-6.9395076e-09
157	0xae7ba61c	-5.7218327e-11
158	0x00015e98	1.2577e-40
159	0xbb3420bb	-0.002748533
160	0x00012eef	1.08672e-40
161	0xbf7ff424	-0.99981904
162	0x8000490b	-2.6203e-41
163	0xb971c0c4	-0.00023055362
164	0xbf82ec86	-1.0228431
165	0xb78c7bda	-1.6746973e-05
166	0x80014a8b	-1.18576e-40
167	0xbe843b9e	-0.25826734
168	0x8000e494	-8.1998e-41
169	0x3cc3d6e5	0.02390618
170	0x15075f1c	2.733806e-26
171	0x0000baba	6.6985e-41
172	0xb8b01bed	-8.3975356e-05
173	0x0000d10c	7.4992e-41
174	0x00016fa1	1.3188e-40
175	0x3c8ea2bf	0.017411588
176	0x00019144	1.43947e-40
177	0xbd297331	-0.04136962
178	0x00008e71	5.1098e-41
179	0xb6c18308	-5.7671023e-06
180	0xbd4a4de9	-0.049390707
181	0xb7096384	-8.189007e-06
182	0x80015550	-1.2244e-40
183	0x3b02204c	0.0019855676
184	0x80008476	-4.7518e-41
185	0x00011385	9.8838e-41
186	0x12a62ba0	1.0486827e-27
187	0x8000529e	-2.9637e-41
188	0x2f7d540a	2.3040073e-10
189	0x80008956	-4.9267e-41
190	0x00003443	1.8748e-41
191	0xb9187022	-0.00014537622
192	0x00008e0c	5.0957e-41
193	0x3e24d8f5	0.16098388
194	0x80007325	-4.1306e-41
195	0x36d1fa29	6.257808e-06
196	0x3e49a2fb	0.19691078
197	0x3458011b	2.011697e-07
198	0x80008f4b	-5.1404e-41
199	0x3c829ba2	0.015943352
200	0x80002f77	-1.7027e-41
201	0xafc0a72d	-3.5043382e-10
202	0x0d39f400	5.730123e-31
203	0x00009ef9	5.7029e-41
204	0xb2a0d70a	-1.872424e-08
205	0x80017f7d	-1.3757e-40
206	0x00017d76	1.36842e-40
207	0xb8abba78	-8.188648e-05
208	0x800074db	-4.192e-41
209	0x3e54880a	0.2075502
210	0x00073bea	6.64342e-40
211	0x369ad4b5	4.61432e-06
212	0x3e0a740f	0.13520835
213	0xb5920fb5	-1.0882419e-06
214	0x00005968	3.2073e-41
215	0x3c06b9ea	0.008223036
216	0x000183f9	1.39178e-40
217	0xaf7ccdfb	-2.2992445e-10
218	0x11b067a1	2.783177e-28
219	0x0002a3b2	2.42394e-40
220	0x30eef948	1.7387629e-09
221	0x0c096a50	1.0586088e-31
222	0x00005605	3.0858e-41
223	0xb961b03d	-0.00021523326
224	0x00002abc	1.533e-41
225	0x3f440653	0.7657215
226	0x80014710	-1.17328e-40
227	0x39540839	0.00020220959
228	0x3f88f254	1.0698953
229	0xb954d7af	-0.00020298244
230	0x8000089c	-3.088e-42
231	0x3e53013b	0.20605938
232	0x0000c848	7.1847e-41
233	0xbcb25a47	-0.021771563
234	0x94465a4a	-1.0014252e-26
235	0x25c956a4	3.4926652e-16
236	0x382bd2df	4.0965966e-05
237	0xaae46303	-4.056964e-13
238	0x800047ef	-2.5805e-41
239	0x3bbbc7b8	0.0057305954
240	0x0000f0db	8.6403e-41
241	0xbfa51087	-1.2895669
242	0x0ec5f833	4.8803257e-30
243	0xb90e62af	-0.00013578938
244	0xbf90dc49	-1.1317226
245	0xb819c080	-3.6657322e-05
246	0x00006fbe	4.0086e-41
247	0xbecbe473	-0.3982273
248	0x000036dd	1.9681e-41
249	0x3cf9bda5	0.030485937
250	0x1530bc12	3.5691278e-26
251	0x8000651b	-3.627e-41
252	0xba45944d	-0.0007537052
253	0x81725c86	-4.4514762e-38
254	0x0000cc5a	7.3308e-41
255	0xbba0665e	-0.0048950156

linear.weight f4 [1, 16]
0	0x3fecf5e9	1.8512546
1	0x40161b66	2.3454223
2	0x3bb08db8	0.005387988
3	0xbb741836	-0.0037245876
4	0xc00cb9b1	-2.1988337
5	0xc036e503	-2.8577278
6	0x3f4481fc	0.7676084
7	0xbd36c0f3	-0.044617604
8	0x3bfa83c2	0.0076451013
9	0xc0032c72	-2.0495877
10	0x4027613f	2.6153104
11	0x3d0bc981	0.034127716
12	0xbc97e5be	-0.018542167
13	0xbc8885a8	-0.016665295
14	0xc01b8e4c	-2.43056
15	0x40541dfa	3.3143296
