RL gym coherence/models/Taxi_GCN_UUS_URS_13.pt (torch, 4160 bytes, 5 tensors)

conv1.bias f4 [16]
00000000: 8805 6fb6 673d e1bf 21c8 5dbd 9ae0 77be
00000010: b90d f8bf 7636 31be af9f e3bd 42d5 02bb
00000020: 74b9 f1a9 9d49 11bb 2d9a 65bd 1552 fcbf
00000030: 4fd6 809d 0ff3 ba9a 52c2 8ba4 10f7 9eb7
-3.5616995e-06 -1.7596864 -0.054145936 -0.24206772 -1.9379188 -0.17305931 -0.111144416 -0.0019963537
-1.0734721e-13 -0.002216912 -0.056055237 -1.971255 -3.4102908e-21 -7.732048e-23 -6.061083e-17 -1.8950115e-05

conv1.lin.weight f4 [16, 1]
00000000: 81b0 3935 8239 4c3f 346a 4d3c cf01 86be
00000010: c03a 6e3f ff8f 46be 7d43 29be 0a67 e439
00000020: 6bdb ffa9 d49a 27bc 5795 98bd c77a 763f
00000030: 345f 319e ddb0 059d 8550 1bab f5f5 5735
6.917472e-07 0.7977525 0.012537528 -0.26173255 0.93058395 -0.19390868 -0.16529651 0.0004356432
-1.1362338e-13 -0.010229785 -0.07450359 0.96281093 -9.3899895e-21 -1.769384e-21 -5.5178805e-13 8.0451656e-07

conv2.bias f4 [16]
00000000: 3a86 8dbd e159 963d ba12 2e3f da3e 233f
00000010: fa4f 3dbf c349 b53d 739e 00bf 5676 4ebd
00000020: 1d5a 33bd 7b80 95bd 331e a4bd ba46 a63d
00000030: e75b 31bf 2dab 48bf a1b2 a9bd 4706 183f
-0.06910367 0.07341362 0.67997324 0.6376778 -0.7395016 0.088519596 -0.50241774 -0.050405823
-0.04378711 -0.07299896 -0.080135725 0.08118959 -0.69280857 -0.78386194 -0.08286024 0.5938458

conv2.lin.weight f4 [16, 16]
00000000: 1e40 1730 ebdb 0d3c e2dd 90b6 76f8 a505
00000010: c502 843c 10ea d18b b68a 463c 38fc 7bb5
00000020: d669 1726 cb1c f6b2 287c 4500 e6b6 9b3c
00000030: 3a0d 471b 4e22 a518 251d 0180 02b2 0080
00000040: b95e 1431 b39a f6bb ed1c bf35 12f2 018a
00000050: 65eb 67bc 0277 0390 1864 3bbc 591b f534
00000060: ce61 1da6 dce3 ceb2 53a5 1200 d93c 83bc
00000070: e0de de1a 5bec 9c98 8084 1219 dc7b d710
00000080: 5326 81b3 96d2 c6bf 04df 09bb 61d1 133e
00000090: 8449 00c0 94ac 0a3e d4fa 163e 7cd2 9638
000000a0: 3bb4 9029 715b b0b4 8bca 54b9 87ce 05c0
000000b0: 853d 679d f4f3 2a9b cbd2 71aa 5fba 75a6
000000c0: 5d24 40b3 efab d5bf a1a7 7abb 2e8b 1a3e
000000d0: 04c6 d1bf 3c0c 113e 7019 173e 724b 9639
000000e0: f977 6129 0090 6ab4 be3d a5b9 c54c 01c0
000000f0: 6e12 439d 002a 8597 19f8 0cb2 5647 c32c
00000100: 2e44 bb33 2693 f53f bcbe afbc a657 41be
00000110: e997 0740 f2da 27be 45bb 17be 1fd2 feb8
00000120: 2958 a0a9 2d3c 6c35 5f0a 433b 4cfd 1540
00000130: 8106 4b9d f94c 471c 3e58 78ad cc47 9f29
00000140: 726e 8b2f 04f2 d0bb 3382 c836 c450 9f83
00000150: 2b98 3abc 575b 6709 20b5 fdba 19bc af35
00000160: 3367 8fa5 d0f1 05b3 be11 4a00 c817 68bc
00000170: 2c95 879a 3b4b f819 34c2 0080 fe93 0080
00000180: 5458 1733 9493 983f 599a 5c39 b8df d4bd
00000190: ad46 a43f 2b23 d2bd 4ba6 0ebe 437b 6b37
000001a0: 16f3 e6a8 fe7d 9cb4 3875 d636 891e c93f
000001b0: 5c51 279d cda3 d39b 47b9 842d 0536 6429
000001c0: 5bf9 3630 bf30 343d 2823 22b6 8755 c003
000001d0: f4a7 453d 633f e10a a80a 7a3a a7ed 1db5
000001e0: 1056 47a6 49d4 2bb3 a95e 0b00 d93d 4c3d
000001f0: 6fa6 251b 4c73 a799 dada 0080 2fba 0080
00000200: f104 3630 5106 243d aa5a 87b5 e805 4084
00000210: 7754 413d 5488 208b 1f4c 01bb 13aa fab4
00000220: 64ee 2f25 38a9 59b2 bd8b 1880 5c55 4a3d
00000230: 04dc 1e1b ac96 4419 4001 0100 2620 0000
00000240: 7001 15b1 4d51 913c 8549 bcb5 b0b4 b204
00000250: 69ef c13c fbb5 f68a 15ff a43c b130 f6b4
00000260: 59dd 1d26 9bc1 a1b2 e6b6 4580 8364 d73c
00000270: 95eb 879b 9cba f217 237c d113 9a48 f003
00000280: 4b72 01b1 56c4 d13c 92dc 3eb6 6a97 5b86
00000290: 94c5 f23c e772 670c 34d9 5a3c 3c21 74b5
000002a0: a2a4 1526 e378 5eb2 dc7d 3f80 f48f 043d
000002b0: 48f7 b71b d8da 3e19 4e87 0080 7738 0000
000002c0: a65b 75af 22b3 c9bc d3c3 5a36 94e7 ac06
000002d0: 6410 e9bc 6184 f08c 1711 24bc 9b89 9d35
000002e0: 1a75 1125 04cf 45b3 4eca 4980 2752 ffbc
000002f0: 90d2 2019 7392 d399 2d87 0100 1ee8 0080
00000300: f490 a033 66b5 e83f ddf3 263b 56e2 32be
00000310: 06aa 0240 97dc 1ebe 6263 15be 73bb b538
00000320: be20 a7a9 1821 44b5 1944 b43a a949 fa3f
00000330: 6995 0a1d b832 c39b a458 05ab dbfc a525
00000340: 078c 7634 3e3c ee3f cd38 333a 8747 47be
00000350: 77da 0f40 07b3 27be e37d 0fbe a110 3038
00000360: 2e35 e3a9 7236 5d35 8a86 8a3b c669 1940
00000370: 6ddc 0c9c 1ef5 a89b 04ce 0280 ab41 0000
00000380: 74b1 83b0 994f af3c 3cd9 3db6 3be7 9107
00000390: e178 cf3c c0e2 b28d 366f 473c ebe3 8db5
000003a0: 8795 0ca5 d279 51b2 be3d 3d00 f4b5 e53c
000003b0: cb62 839b 4205 7d19 f979 0000 4a3a 0100
000003c0: 2187 5eb3 b260 a4bf fc99 1fba 5bc3 033e
000003d0: 1e39 d5bf 20b9 fb3d 3d2a 0e3e 0257 a7b7
000003e0: 3895 4129 bd45 ef34 5da9 84b8 6845 e8bf
000003f0: 2810 809b 63e5 771c 9fb2 d32c b28a eaa5
5.5024596e-10 0.00865839 -4.317365e-06 1.5607796e-35 0.016114602 -8.085605e-32 0.012118032 -9.3871813e-07
5.2532083e-16 -2.8651263e-08 6.381188e-39 0.019008111 1.6465168e-22 4.268614e-24 -1.0229e-40 -6.3857e-41
2.1590678e-09 -0.007525766 1.4239027e-06 -6.2566524e-33 -0.0141552435 -2.5926875e-29 -0.011437438 4.5654704e-07
-5.4602867e-16 -2.4085175e-08 1.712346e-39 -0.016020225 9.217712e-23 -4.0563713e-24 7.574781e-24 8.499338e-29
-6.014002e-08 -1.5533016 -0.0021037469 0.1443534 -2.004487 0.13542396 0.14744121 7.191763e-05
6.4261496e-14 -3.2849087e-07 -0.00020293349 -2.0907304 -3.06044e-21 -1.4140896e-22 -2.1478233e-13 -8.525403e-16
-4.4736556e-08 -1.6693095 -0.0038246887 0.15092155 -1.6388555 0.14164823 0.14755797 0.0002866644
5.0064096e-14 -2.1845335e-07 -0.00031517254 -2.0203106 -2.5817563e-21 -8.605526e-25 -8.205483e-09 5.5501532e-12
8.720268e-08 1.9185531 -0.021453254 -0.18881091 2.1186469 -0.16392115 -0.14817531 -0.00012150802
-7.120721e-14 8.800442e-07 0.002976082 2.343585 -2.6870189e-21 6.594306e-22 -1.4116762e-11 7.073473e-14
2.536243e-10 -0.0063765068 5.9756217e-06 -9.363723e-37 -0.011388819 2.7848561e-33 -0.0019356348 1.309326e-06
-2.4876476e-16 -3.1186403e-08 6.802191e-39 -0.014165826 -5.607569e-23 2.5672984e-23 -6.9667e-41 -5.309e-41
3.523776e-08 1.1920037 0.00021038334 -0.103942335 1.2834069 -0.10260614 -0.13930623 1.4035791e-05
-2.5640551e-14 -2.9148936e-07 6.391343e-06 1.5712444 -2.2144328e-21 -3.5012876e-22 1.5088942e-11 5.0673024e-14
6.656557e-10 0.0439918 -2.4160345e-06 1.1304382e-36 0.048255876 2.1690555e-32 0.0009538331 -5.883289e-07
-6.915863e-16 -4.0007112e-08 1.044148e-39 0.04986367 1.3702258e-22 -1.7313963e-23 -7.8509e-41 -6.679e-41
6.6218236e-10 0.040045086 -1.008467e-06 -2.2572204e-36 0.047199693 -3.091744e-32 -0.001972921 -4.6689874e-07
1.52596e-16 -1.2669538e-08 -2.25418e-39 0.04939781 1.3140545e-22 1.01633904e-23 9.2284e-41 1.1533e-41
-2.168317e-09 0.017738963 -1.4028489e-06 4.2013534e-36 0.02367373 -2.3757392e-32 0.020141164 -4.5856498e-07
5.47703e-16 -1.8830908e-08 -6.402261e-39 0.026293045 -2.2486118e-22 1.568599e-24 5.2881426e-27 1.4122601e-36
-1.8836939e-09 0.025606316 -2.8440595e-06 -4.1300564e-35 0.029635228 1.783017e-31 0.013357449 -9.0945446e-07
5.191788e-16 -1.2949587e-08 -5.830786e-39 0.032363847 3.0434612e-22 9.866965e-24 -4.8538e-41 2.0256e-41
-2.231518e-10 -0.02462155 3.2598516e-06 6.503948e-35 -0.028450198 -3.7057528e-31 -0.01001384 1.173746e-06
1.2616421e-16 -4.6055916e-08 -6.776564e-39 -0.031167103 8.314329e-24 -2.1876039e-23 1.40327e-40 -8.3268e-41
7.4769474e-08 1.8180358 0.0025474944 -0.17469153 2.0416274 -0.15513836 -0.14588693 8.665668e-05
-7.42197e-14 -7.306385e-07 0.0013753205 1.9553729 1.8341391e-21 -3.229282e-22 -4.7374106e-13 2.879428e-16
2.2961477e-07 1.8612134 0.0006836772 -0.1946088 2.247709 -0.16376887 -0.14012866 4.1977157e-05
-1.009005e-13 8.2408144e-07 0.004227464 2.397081 -4.660701e-22 -2.7951672e-22 -2.57575e-40 2.3557e-41
-9.58194e-10 0.02140026 -2.8289642e-06 2.195308e-34 0.025326194 -1.1024685e-30 0.012172511 -1.0571652e-06
-1.2193726e-16 -1.21931e-08 5.624114e-39 0.028040864 -2.1735976e-22 1.3080855e-23 4.3756e-41 1.12746e-40
-5.1811302e-08 -1.2842009 -0.0006088314 0.12867491 -1.6658056 0.12291169 0.138833 -1.9948468e-05
4.2984035e-14 4.456796e-07 -6.325797e-05 -1.8146181 -2.1186264e-22 8.202192e-22 6.0168116e-12 -4.0686513e-16

linear.weight f4 [1, 16]
00000000: fc8f 15bd a1e2 393d b296 1e40 b9b6 1e40
00000010: 6407 6dc0 a004 4a3d 9b4e b3bf cc58 87bc
00000020: 5fba 44bc 24f7 1ebd b000 26bd 3503 2a3d
00000030: c1cf 47c0 f299 7fc0 0f60 35bd e0a0 fc3f
-0.036514267 0.045382146 2.4779477 2.4799025 -3.703576 0.049320817 -1.4008363 -0.016521834
-0.012007325 -0.03880991 -0.040528 0.041506965 -3.1220553 -3.993771 -0.04428106 1.9736595
