RL gym coherence/models/Taxi_GCN_UUS_URS_3.pt (torch, 4150 bytes, 5 tensors)

conv1.bias f4 [16]
000000 40 66 09 be d9 fe 48 be b0 94 13 be 89 d1 07 b7
       -0.13417912 -0.19628467 -0.14412189 -8.095413e-06
000010 21 c9 03 bb 19 e8 82 be 90 1d 6c be ab bd fe bf
       -0.0020108896 -0.255677 -0.23058152 -1.9901632
000020 15 37 e0 bf 8c 87 a5 91 6a 3d 2c 97 76 09 f1 bf
       -1.751681 -2.6115947e-28 -5.5653713e-25 -1.8831012
000030 32 31 04 9e be 4a 05 b6 3d 98 0c be 88 87 e5 bf
       -6.998195e-21 -1.986205e-06 -0.1372995 -1.7931986

conv1.lin.weight f4 [16, 1]
000000 b7 67 0e be 1e 72 60 be 3d 6b 0a be c5 83 f6 35
       -0.13906752 -0.21918532 -0.1351747 1.8366778e-06
000010 2b e7 54 ba 55 16 8a be b2 b8 5d be 40 c5 78 3f
       -0.0008121605 -0.26970163 -0.21652487 0.9717598
000020 ad 9e 46 3f bc c5 ad 8f c6 94 a1 9f 2b b7 60 3f
       0.7758587 -1.7135282e-29 -6.843228e-20 0.8777949
000030 0b a2 19 a0 69 50 16 b7 2f d8 34 be 75 2c 4e 3f
       -1.301322e-19 -8.959419e-06 -0.17660592 0.80536586

conv2.bias f4 [16]
000000 32 42 2b 3f af fa 15 bf b8 df f0 3b bd cf 2c bf
       0.6689788 -0.5858564 0.007350888 -0.67504483
000010 41 7c b1 bb 14 11 90 3e e4 cf 1c bf 75 90 8c 3e
       -0.0054164235 0.2813803 -0.61254716 0.27453962
000020 fa 8a 1d bf 7e 50 71 bb b3 85 16 bf 84 ad 25 3f
       -0.61540186 -0.0036821659 -0.5879776 0.6471789
000030 98 76 28 3f 46 2f 20 bf a4 01 15 3d 9d c2 f5 3e
       0.6580596 -0.62572134 0.036378518 0.4800004

conv2.lin.weight f4 [16, 16]
000000 18 19 0d bd 0b af 2e 3e 8e 03 b2 bd 69 e3 8c 33
       -0.03444776 0.17058961 -0.08692084 6.560624e-08
000010 12 68 0f 38 6a 08 28 3e 36 08 5b be 39 2a 02 c0
       3.419078e-05 0.1640946 -0.21389851 -2.033827
000020 3b 9c 79 bf a4 de 32 11 80 bd 00 00 f4 a0 de bf
       -0.97504014 1.411033e-28 6.798e-41 -1.7392869
000030 84 e7 26 19 42 25 e7 23 08 61 e9 3d e5 cc ad bf
       8.628753e-24 2.506085e-17 0.1139546 -1.3578154
000040 28 8f 9d 3c 63 75 22 be cc ef a5 3d 3b 43 0f b2
       0.019233301 -0.15865092 0.08102378 -8.338982e-09
000050 91 84 62 ba 39 e3 0a be 40 d3 58 3e d2 8c d5 3f
       -0.000864097 -0.13563241 0.21174335 1.66836
000060 2a 33 35 3f c4 86 db 10 25 0d 00 00 63 e6 d5 3f
       0.70781195 8.658791e-29 4.715e-42 1.6710933
000070 6e 7c 20 9a 5b 19 a7 30 18 be d6 bd c7 2d 96 3f
       -3.3187738e-23 1.2158056e-09 -0.10485476 1.173272
000080 71 6f 00 00 c5 40 2b 39 3e 71 56 99 72 2d 05 31
       3.9978e-41 0.0001633196 -1.108641e-23 1.937988e-09
000090 8c 7c 48 27 50 2c d8 02 eb 09 47 0a 77 50 02 bc
       2.7823093e-15 3.1763782e-37 9.583367e-33 -0.007953755
0000a0 38 5e e6 ba 99 4e 3f 8c 5c 01 00 00 06 a2 be bb
       -0.0017575687 -1.4737757e-31 4.88e-43 -0.0058176545
0000b0 11 2a 49 15 be f5 46 81 a9 d9 5e 1c e8 cc 1b bb
       4.062481e-26 -3.6543168e-38 7.373496e-22 -0.0023773257
0000c0 9f af 21 3d 24 1f 32 be 01 ec b9 3d d8 3c 1a b3
       0.039474126 -0.17394692 0.09078217 -3.5911256e-08
0000d0 94 95 68 38 36 10 2d be b9 6e 5e 3e d6 44 03 40
       5.5452416e-05 -0.16900715 0.21721925 2.0510764
0000e0 fb ea 8f 3f f7 98 e7 91 f1 13 00 80 4e c3 e8 3f
       1.1243585 -3.6539646e-28 -7.154e-42 1.8184602
0000f0 1e 16 d1 19 92 79 5c ab d2 33 f1 bd 09 d8 96 3f
       2.1619027e-23 -7.8328414e-13 -0.11777462 1.1784679
000100 aa ff 00 80 aa a5 20 aa b4 59 f3 17 d6 75 41 b1
       -9.1715e-41 -1.4268331e-13 1.5726151e-24 -2.8152178e-09
000110 1b bd a6 2d 8a 5f a1 02 82 ae 7c 0b d3 b1 13 bd
       1.8955995e-11 2.371166e-37 4.866472e-32 -0.03605826
000120 f7 97 a0 bc 5a 4a 0e 8c 67 65 00 00 7b b6 ef bc
       -0.019603712 -1.0961656e-31 3.6376e-41 -0.029261818
000130 f1 23 26 16 8b 47 33 0c e8 6c 5a 2e 98 5d b1 bc
       1.3420714e-25 1.3811188e-31 4.966419e-11 -0.021651074
000140 06 f5 68 b8 9e 72 d8 3c 79 6b 29 bb c8 a2 02 31
       -5.5541306e-05 0.026421841 -0.0025851412 1.901002e-09
000150 57 08 a2 b5 29 4e 2f 3c 62 58 d9 bd d5 31 54 bf
       -1.2072368e-06 0.010699787 -0.10612561 -0.8288854
000160 53 21 a9 be 3f eb 26 90 f2 0d 00 00 ce a2 3f bf
       -0.33033237 -3.2918955e-29 5.003e-42 -0.74857795
000170 82 70 75 17 35 98 d1 26 8b 46 f0 3c 04 3c d5 be
       7.9305774e-25 1.4543544e-15 0.029330513 -0.4164735
000180 43 4d ee 3c 49 1e 2a be c7 23 b5 3d 8a f5 3e b2
       0.029089576 -0.16613115 0.088447146 -1.1115285e-08
000190 45 46 93 3a bf 41 1c be 5c 96 5b 3e 6d cd ef 3f
       0.0011236152 -0.15259455 0.21444076 1.8734566
0001a0 21 d5 3e 3f 51 31 03 91 34 24 00 00 a0 4d ea 3f
       0.7454396 -1.0349275e-28 1.2987e-41 1.8304939
0001b0 61 7a 43 9a 3e 76 86 30 80 28 e5 bd 75 6e 7a 3f
       -4.0423912e-23 9.78339e-10 -0.111893654 0.97824794
0001c0 5e 6f 3f b8 3a 37 bb 3c 26 91 f7 ba 96 52 e2 31
       -4.5641667e-05 0.022853483 -0.0018887862 6.5868546e-09
0001d0 3a 02 f4 2f 63 50 1f 3c 1f 30 d5 bd 7f 1d 58 bf
       4.4384924e-10 0.0097237555 -0.10409569 -0.8442001
0001e0 2b ad a0 be a2 47 3a 10 1d 76 01 00 67 f0 35 bf
       -0.31382117 3.6737216e-29 1.34207e-40 -0.7106995
0001f0 90 98 68 97 99 65 f1 93 fa 55 e2 3c 1c 9d c9 be
       -7.5155804e-25 -6.0937136e-27 0.027628887 -0.39377677
000200 1a de a3 3c 63 56 29 be 4e 59 a8 3d cc 3f 2e 32
       0.020003367 -0.1653686 0.082201585 1.0142639e-08
000210 31 cf 03 bc 79 9f 08 be 3d 35 57 3e 5d 48 ea 3f
       -0.008045004 -0.13342084 0.21016403 1.8303334
000220 a1 aa 68 3f bb 72 0b 11 83 0d 00 80 f3 ba e2 3f
       0.9088536 1.1000521e-28 -4.847e-42 1.7713302
000230 ca 33 19 1b f4 d2 08 36 86 38 d6 bd b0 ef 84 3f
       1.2672597e-22 2.038837e-06 -0.1046 1.0385647
000240 aa 25 01 80 e5 2e 26 b6 04 3f ed 97 e2 47 09 b1
       -1.05347e-40 -2.4763224e-06 -1.5331673e-24 -1.9976985e-09
000250 d7 43 10 97 1d 00 98 02 05 02 a1 89 78 91 4d bc
       -4.6614535e-25 2.2334458e-37 -3.876124e-33 -0.0125468895
000260 83 44 f8 bb 6c cb b7 8b 30 18 01 00 ae 3a 29 bc
       -0.0075765266 -7.079511e-32 1.00512e-40 -0.010328932
000270 b0 52 5b 14 ef a1 00 80 69 d2 8d a5 9d 41 0b bc
       1.1072982e-26 -5.8091e-41 -2.460218e-16 -0.00849953
000280 62 17 35 3c 2a 3d 17 be 72 e8 87 3d f4 25 03 b4
       0.011052938 -0.14769426 0.06636132 -1.2214133e-07
000290 e6 d8 39 b1 1f f0 fc bd bb 6e 4b 3e b7 36 e1 3f
       -2.7044336e-09 -0.12350487 0.19866459 1.7594823
0002a0 7c f7 63 3f 96 ac b3 90 9f 5b 00 80 1a 24 c1 3f
       0.89049506 -7.086896e-29 -3.2867e-41 1.5089142
0002b0 b5 f6 da 98 18 57 44 8b 86 88 c6 bd 0b 54 83 3f
       -5.660079e-24 -3.781375e-32 -0.096940085 1.0260023
0002c0 c5 2f 11 bd dd eb 2d 3e 22 22 ac bd 80 e5 01 33
       -0.035445947 0.16984506 -0.08404948 3.0243882e-08
0002d0 5d 36 16 38 12 ae 26 3e d1 70 60 be c7 37 f6 bf
       3.5813417e-05 0.1627734 -0.21918036 -1.9235772
0002e0 5c 86 89 bf a8 1c 8d 11 16 98 00 80 21 0e e8 bf
       -1.0744128 2.2263538e-28 -5.4558e-41 -1.8129312
0002f0 c5 06 62 1a 9c 56 ac 2b ba 9e e7 3d 3e 29 8b bf
       4.6741173e-23 1.2245374e-12 0.113095716 -1.0871961
000300 ec 9b 05 bd d8 92 2b 3e 9c a4 b0 bd 50 47 c5 33
       -0.0326194 0.16755235 -0.08625147 9.186499e-08
000310 8b 6f 0b b6 d1 3a 25 3e 27 a1 63 be dc a1 fc bf
       -2.077754e-06 0.16135718 -0.22229443 -1.9736896
000320 d6 1c 6d bf 4b 75 f9 91 f0 60 01 00 2a aa e3 bf
       -0.92622125 -3.935756e-28 1.2661e-40 -1.7786305
000330 fd 18 07 9a b0 5f c7 1f ee fb e8 3d 1a dd a5 bf
       -2.793753e-23 8.443808e-20 0.11376177 -1.29581
000340 84 f8 e6 3c d2 31 28 be 7e 97 a9 3d eb b7 3b b3
       0.028194673 -0.16425255 0.08280848 -4.3706603e-08
000350 c9 1c 03 38 06 72 1d be 81 e8 5b 3e 31 73 e9 3f
       3.1259642e-05 -0.15375528 0.21475412 1.8238279
000360 ba 4c 58 3f 9e e0 71 10 eb 26 00 00 ad f8 e2 3f
       0.84492075 4.7701908e-29 1.3961e-41 1.773214
000370 fe f3 8f 18 5b b8 c9 a8 c6 7b e4 bd 3c fb 99 3f
       3.7211003e-24 -2.2395434e-14 -0.111564204 1.2029796
000380 d5 50 00 80 b7 39 ca 39 bf cb b6 19 83 24 29 b2
       -2.8997e-41 0.00038571443 1.8900651e-23 -9.8453965e-09
000390 cd ca 42 a8 64 15 43 02 ec 89 7c 8a fc 5e a9 bb
       -1.0813139e-14 1.4332476e-37 -1.2159299e-32 -0.0051687937
0003a0 18 ed f1 3a e0 b3 e4 0d 47 52 00 00 d4 4a 0b ba
       0.00184575 1.4094888e-30 2.9516e-41 -0.00053135795
0003b0 f8 b5 47 15 80 fb af 06 04 4a bd 2a 9e 46 1c 3b
       4.0331278e-26 6.619723e-35 3.3624503e-13 0.0023845802
0003c0 f3 ff a9 ba ac b2 de 3d 6b 1e 09 bd 52 23 15 34
       -0.0012969956 0.10873923 -0.033476274 1.3889556e-07
0003d0 96 16 0d aa ee f6 86 3d 20 7e 34 be 72 ef b5 bf
       -1.2531152e-13 0.06590067 -0.17626238 -1.4213698
0003e0 ef 23 23 bf de 89 9c 90 9f 56 00 80 d4 05 9b bf
       -0.63726705 -6.174357e-29 -3.1074e-41 -1.2111154
0003f0 d0 c1 ee 18 30 2a 00 00 12 da 8d 3d 81 1a 4b bf
       6.171726e-24 1.5134e-41 0.06926359 -0.79337317

linear.weight f4 [1, 16]
000000 a4 45 22 40 c4 d5 e9 bf 7b 09 e2 3b c6 8c 29 c0
       2.5355005 -1.8268361 0.006898103 -2.6492171
000010 fa 5c 96 bc a6 2b 4d 3e bd bb 0a c0 22 c8 3b 3e
       -0.018354882 0.20036182 -2.1677086 0.18338063
000020 95 43 f4 bf 0f 85 f3 bb 92 51 d4 bf a6 64 1c 40
       -1.9083124 -0.0074316333 -1.6587393 2.443643
000030 e2 63 1d 40 f5 9d 0d c0 c0 6b 43 ba b0 10 5a 3f
       2.4592214 -2.212766 -0.00074547157 0.85181713
