RL gym coherence/models/Taxi_GCN_USS_URS_30.pt (torch, 4160 bytes, 5 tensors)

conv1.bias f4 [16]
000000 5b 2b 77 3f d5 b4 50 bf 00 e3 4a 9a 36 24 f3 bb
       0.9655053 -0.8152593 -4.195599e-23 -0.007420088
000010 45 52 53 3c 63 23 9c bd ce 2a fb a1 2b 4e df bd
       0.012898033 -0.07623937 -1.7019752e-18 -0.10903581
000020 d0 d3 ab be 5a c3 ce a6 0f 61 6c bc 3c ce 94 b5
       -0.33560038 -1.4347072e-15 -0.014427437 -1.1086881e-06
000030 5c 72 15 bc 0e 94 6e bf ca 1f 3e bf b9 b3 16 8b
       -0.009121504 -0.93194664 -0.74267256 -2.9024157e-32

conv1.lin.weight f4 [16, 1]
000000 41 2c 97 be 4c 6c 15 3f 1a 09 34 ab b6 88 c7 3a
       -0.2952595 0.5836837 -6.3961477e-13 0.0015223238
000010 74 41 67 bd f9 d4 b9 bd 59 2a 8a ab 6c 9b ef bd
       -0.056458905 -0.090738244 -9.817244e-13 -0.11699566
000020 7c 92 a8 3d a8 27 9a b4 ac 40 46 bd 91 5e 19 b5
       0.08231065 -2.871359e-07 -0.04840152 -5.7134554e-07
000030 c4 cd d2 3a e8 96 2e 3f 4b b9 bb 3e 60 6f f7 a8
       0.0016083051 0.68199015 0.36664805 -2.747081e-14

conv2.bias f4 [16]
000000 b6 16 ef 3e 6a 63 23 3f 5c af 21 3f a7 2b 1b 3f
       0.46697015 0.6382357 0.631582 0.60613483
000010 7b 06 2a bf 08 f8 1b bf 13 4b 39 bf 02 e6 57 bf
       -0.6641614 -0.6092534 -0.7238018 -0.8433534
000020 da b7 6a 3c 1e 89 18 3f 2e 29 4b 3f 9e d0 37 3f
       0.01432606 0.59584224 0.7935971 0.718027
000030 8d 09 3a 3f 3b 77 43 3f 24 16 19 bf 30 cb 45 3c
       0.72670823 0.76353806 -0.5979941 0.012072369

conv2.lin.weight f4 [16, 16]
000000 80 fe 0b 3f 8e 81 1d bf 40 5d 22 99 b7 f4 07 b7
       0.5468521 -0.6152581 -8.394035e-24 -8.103604e-06
000010 c9 03 62 3a 5b 0a 5b bd 6f de 15 81 3e 87 d2 bc
       0.000862178 -0.053476673 -2.7526566e-38 -0.025699254
000020 8c f7 45 bb e5 43 03 00 ca fd 18 aa c9 1b 5c 34
       -0.0030207364 2.99862e-40 -1.3588363e-13 2.0499205e-07
000030 24 fe 45 ba 48 f5 b2 be 72 02 72 be a8 0a 42 08
       -0.00075528235 -0.3495276 -0.23633745 5.839228e-34
000040 45 54 3c 3f 49 31 ec be 33 89 7b 99 6f df f7 b9
       0.73566085 -0.46131352 -1.3004103e-23 -0.00047277982
000050 18 10 80 3b ed 41 8e bd e6 88 2e 89 87 0b 89 bd
       0.0039081685 -0.06946168 -2.1008857e-33 -0.06691652
000060 a0 8f 09 3c 76 17 02 80 09 e2 db b4 cc 81 0f b4
       0.008396059 -1.92087e-40 -4.095639e-07 -1.3365133e-07
000070 7d 77 b2 bb 98 6c 42 bf ad 74 fd be 5d 82 77 89
       -0.005446373 -0.7594695 -0.4950308 -2.979284e-33
000080 9b 31 37 3f 89 35 0e bf b1 dd f2 98 dc e3 bc b5
       0.71560067 -0.5555044 -6.2779385e-24 -1.4073407e-06
000090 f0 90 2e 3b 72 a5 7c bd 20 5b 22 02 aa 50 5e bd
       0.0026636682 -0.06168122 1.1928032e-37 -0.054276146
0000a0 ec 48 50 bb 79 99 02 00 d9 08 4b b2 42 87 5e 35
       -0.0031781746 2.38727e-40 -1.1818167e-08 8.289827e-07
0000b0 f8 7d ce b5 62 35 35 bf 0c 1f 9d be cb 82 40 09
       -1.5384858e-06 -0.7078458 -0.3068775 2.3172658e-33
0000c0 2a 48 43 3f 9e 58 3a bf f1 1f 14 19 bd 41 56 3b
       0.7628199 -0.7279147 7.657871e-24 0.0032692992
0000d0 7a c6 fe 3a 6f 07 82 bd 91 e2 28 12 60 96 31 bd
       0.0019437813 -0.06349074 5.3290717e-28 -0.0433563
0000e0 57 29 f9 ba 40 55 00 80 94 47 60 ac da 5a 71 b3
       -0.0019009513 -3.0582e-41 -3.1872048e-12 -5.6194814e-08
0000f0 ab 40 2e 3d b3 32 0a bf 53 fd cd be 2a a7 76 09
       0.04254214 -0.5398361 -0.40232334 2.9689773e-33
000100 03 ae 5a bf 83 70 48 3f 40 b5 ca 96 60 05 71 3b
       -0.8542177 0.7829668 -3.2749245e-25 0.0036776885
000110 a3 ed 0c bb fd f1 89 3d 3d 38 1f 0a 17 9a 3c 3d
       -0.0021503947 0.06735609 7.666149e-33 0.04604539
000120 f7 44 b3 3d 4d ce 01 80 39 41 57 2e fc 1d e3 33
       0.087533884 -1.65842e-40 4.894327e-11 1.0575965e-07
000130 79 3f b8 3d 6e e7 d6 3e f2 52 87 3e a8 d9 e1 87
       0.089964814 0.41973442 0.2643047 -3.3982164e-34
000140 c4 aa 36 bf 1b 28 36 3f 6a dc 3d 19 22 0e 17 ba
       -0.7135432 0.71154946 9.815583e-24 -0.0005762299
000150 62 a3 c3 ba a4 ea 75 3d 52 ee 36 88 cd fa 16 3d
       -0.0014926011 0.060038224 -5.5048777e-34 0.036860276
000160 ef 2e 11 bc db 65 02 00 eb 1c 3d 29 13 c6 bc 33
       -0.0088612875 2.2021e-40 4.1991513e-14 8.790462e-08
000170 5f 11 e9 bc 03 2c 1a 3f 29 07 6d 3e c6 f3 8b 89
       -0.028450666 0.60223407 0.23147263 -3.3692276e-33
000180 01 a4 4f bf 36 14 3a 3f f9 01 46 98 3c ef aa 37
       -0.81109625 0.7268709 -2.5591896e-24 2.0376981e-05
000190 8a 32 5b bb 8b 05 8f 3d 9d 81 c2 81 e9 64 80 3d
       -0.0033446872 0.06983479 -7.145033e-38 0.06269247
0001a0 cc 5d 7c 3d 46 8c 02 00 f3 2c 62 33 10 e1 35 33
       0.06161289 2.33992e-40 5.2660607e-08 4.234704e-08
0001b0 49 37 7f ba b5 51 23 3f 99 46 eb 3e 68 77 1c 09
       -0.0009735716 0.6379655 0.459523 1.8833962e-33
0001c0 36 3a 7c bf 9f 08 54 3f e1 6a 8e 99 34 62 05 38
       -0.9852632 0.82825655 -1.4725624e-23 3.180113e-05
0001d0 47 a6 ee bb 30 53 9a 3d 84 ff 12 81 9a 06 a5 3d
       -0.0072830054 0.07535398 -2.6999288e-38 0.080579
0001e0 9d a4 fa 3c 85 1d 00 00 02 1d f6 37 08 fe 87 b4
       0.030596072 1.059e-41 2.9338993e-05 -2.5330542e-07
0001f0 74 a8 94 bb 86 d3 5f 3f 50 6a d5 3e 4b db 4d 09
       -0.0045366827 0.87432134 0.41682673 2.4779088e-33
000200 97 d3 93 3c 6c 8b 10 3c ea 34 b9 96 5a fd a8 33
       0.01804523 0.008822303 -2.9921755e-25 7.869194e-08
000210 80 76 31 b9 44 7b 01 30 53 64 05 00 f6 f1 b5 ba
       -0.0001692418 4.71051e-10 4.95167e-40 -0.0013881314
000220 74 db 58 39 e7 26 03 00 ba 19 03 00 7c 85 9a 30
       0.00020681118 2.89462e-40 2.84735e-40 1.1242913e-09
000230 63 ff 2d b4 d9 b4 2f 3c ed 73 49 3b a0 55 09 06
       -1.620479e-07 0.01072427 0.0030739263 2.5829743e-35
000240 99 a2 39 3f f7 da 1e bf 62 32 a5 99 fa 02 6e b7
       0.7251373 -0.62052864 -1.708095e-23 -1.41865985e-05
000250 9b df 01 3b cb 5f 7f bd c6 97 38 01 c4 78 49 bd
       0.0019817117 -0.062347215 3.3904355e-38 -0.049187437
000260 19 c9 f4 3a 42 da 01 80 1f 4e 70 af 20 33 a0 34
       0.0018675654 -1.70132e-40 -2.1855627e-10 2.983952e-07
000270 32 57 62 bb ba b8 1a bf 1c c4 7d be f5 35 9d 09
       -0.0034536836 -0.6043812 -0.24781841 3.7847116e-33
000280 3a b1 80 3f 28 90 4f bf 15 a1 22 99 78 87 07 b8
       1.0054085 -0.8107934 -8.407734e-24 -3.2312673e-05
000290 1f 4a c1 3b 21 cf 96 bd 49 62 a1 02 5c 34 a0 bd
       0.0058987285 -0.073637255 2.3713237e-37 -0.07822487
0002a0 f0 90 51 3d 24 0b 02 00 55 3d bc b6 73 0b 07 35
       0.051163614 1.87667e-40 -5.6099766e-06 5.030808e-07
0002b0 b2 d2 0f 3d 3d 42 73 bf c1 73 52 be d4 ec 8a 89
       0.035113044 -0.95022947 -0.20551969 -3.3445004e-33
0002c0 dc 00 7d 3f e5 74 5d bf 72 bd a2 99 4b 56 bc 3a
       0.98829436 -0.8650649 -1.6826924e-23 0.0014368979
0002d0 f0 51 93 3b 4f ef 95 bd af 1c 10 95 75 c2 90 bd
       0.0044958517 -0.07321035 -2.9103196e-26 -0.0706834
0002e0 56 17 72 3c ac d5 01 00 d9 37 df b4 3d 45 da b3
       0.0147760715 1.68487e-40 -4.157762e-07 -1.01640104e-07
0002f0 ab 91 68 3d 72 1e 4e bf d3 80 46 be 80 fd 8e 89
       0.056779545 -0.80515206 -0.1938508 -3.4423647e-33
000300 31 f8 74 3f 85 ed 3d bf 96 5e f0 99 67 1f 3b 3a
       0.9569121 -0.7419055 -2.4853621e-23 0.0007138163
000310 77 df a2 3b 2d 8b 96 bd 18 cd a1 12 19 4f 97 bd
       0.0049704867 -0.073507644 1.0211088e-27 -0.073881336
000320 51 45 14 3d 3e ef 02 00 63 68 b9 b5 03 de 3f b4
       0.036198918 2.69495e-40 -1.3813955e-06 -1.7869029e-07
000330 5d ea 9e 3c 87 63 4d bf c2 69 14 bf 53 46 94 89
       0.019398862 -0.8022999 -0.57973874 -3.5695837e-33
000340 39 61 4c 3f b4 99 fd be d0 9e e5 99 c5 96 7f b7
       0.7983585 -0.4953133 -2.3742189e-23 -1.5234288e-05
000350 e2 02 28 3b 7f 7a 8a bd 0c fe be 81 ba 91 5d bd
       0.0025636484 -0.067616455 -7.0159516e-38 -0.054094054
000360 6e 05 f3 bc a6 0e 03 00 75 58 ff b0 08 fe ab b3
       -0.029665675 2.80761e-40 -1.8578833e-09 -8.009016e-08
000370 ae 62 4e bd 62 b5 4a bf 01 31 ee be 50 08 04 87
       -0.050387077 -0.7918302 -0.46521762 -9.933019e-35
000380 02 5f 2f bf e4 40 d3 3e 46 01 a1 19 f6 b7 e2 36
       -0.68504345 0.41260445 1.6647524e-23 6.7567407e-06
000390 a1 21 1b bb 57 71 70 3d b0 79 da 01 48 8f 5d 3d
       -0.0023671167 0.05870184 8.0255166e-38 0.05409172
0003a0 a6 fe c7 39 de 5d 03 00 b1 ae 93 31 6f 13 28 b5
       0.00038145966 3.0918e-40 4.298123e-09 -6.2613157e-07
0003b0 e4 1c 1c 35 7d 38 45 3f 31 b3 91 3e 76 4b 91 89
       5.815657e-07 0.7703932 0.28457025 -3.4978443e-33
0003c0 ee e3 70 3c 64 26 dc 3b d5 69 b4 18 48 ed 64 33
       0.01470278 0.0067184437 4.6635772e-24 5.3301193e-08
0003d0 85 be 28 b9 0f f8 c9 2e ae 2d 05 00 10 53 f6 38
       -0.00016092703 9.184486e-11 4.75564e-40 0.00011745666
0003e0 96 bd 4a 39 ca 42 00 00 c3 31 01 80 58 91 d3 b0
       0.00019334847 2.396e-41 -1.09687e-40 -1.539358e-09
0003f0 04 64 9e b0 26 20 09 3c 09 7a 07 3b e6 ff 17 06
       -1.1524439e-09 0.008369481 0.0020672104 2.8587948e-35

linear.weight f4 [1, 16]
000000 30 25 81 bf 71 5d 0e c0 22 9b ee bf d1 40 b2 bf
       -1.0089474 -2.2244532 -1.8641093 -1.392603
000010 6b 62 ba 3f 0f 1f 9f 3f c9 de 05 40 6d 18 5b 40
       1.4561285 1.2431353 2.0917227 3.4233658
000020 21 71 4a bc 5a 60 c7 bf a7 93 3e c0 e0 1b 1b c0
       -0.012356074 -1.5576279 -2.977762 -2.4235764
000030 2e 61 27 c0 52 d4 e2 bf 58 93 de 3f 29 d7 1b bc
       -2.6153064 -1.7721045 1.7388716 -0.009511747
