RL gym coherence/models/Taxi_GCN_UUS_URS_27.pt (torch, 4160 bytes, 5 tensors)

conv1.bias f4 [16]
000000 c4 87 bd b9 ef 78 c4 b3 72 df 00 80 fa 45 8a ba
       -0.00036150042 -9.148959e-08 -8.0157e-41 -0.0010549419
000010 1e 6b 15 bf f4 47 ab bf 01 90 1f a9 bf c1 b6 bf
       -0.5836657 -1.3381333 -3.5429996e-14 -1.4277877
000020 c2 85 a2 0e 20 eb b8 bb 37 e3 e6 ba 03 c5 60 bd
       4.0064887e-30 -0.0056432635 -0.0017615323 -0.054875385
000030 47 6f 2e b9 c4 4c 8e bf 53 c5 1e b2 79 a6 be bf
       -0.00016635387 -1.1117177 -9.241677e-09 -1.4894553

conv1.lin.weight f4 [16, 1]
000000 64 ad 4d bb bf e6 7f b9 fe 60 25 97 c8 65 77 39
       -0.0031383866 -0.00024404655 -5.3436797e-25 0.00023593672
000010 8f 50 16 3e 72 a1 54 3f 59 e4 8f b4 9a 91 5e 3f
       0.14679168 0.83058846 -2.680197e-07 0.8694092
000020 02 46 4b a5 df 00 34 bd 68 a8 85 bb 94 a0 50 3c
       -1.7631163e-16 -0.043946143 -0.0040789135 0.012733597
000030 87 4f 17 38 ed b0 c5 3e 74 d2 46 b8 32 54 74 3f
       3.607527e-05 0.38611546 -4.740288e-05 0.9544097

conv2.bias f4 [16]
000000 ae bd a5 3c 81 7f 22 be 80 c7 8c 3f 44 bc 09 3e
       0.020232048 -0.15868951 1.0998383 0.13450724
000010 16 04 11 40 ca eb fa 3f 90 74 04 40 a5 a6 d2 bf
       2.2658744 1.9603207 2.0696144 -1.6457106
000020 49 7c 00 c0 11 5a ba bf 6e 64 cc be 4c 72 50 3e
       -2.0075858 -1.4558736 -0.39920372 0.20356101
000030 01 6d 1b bc 59 13 5d 3d bf 48 44 bf b9 d6 6d 3f
       -0.009486438 0.05397353 -0.766735 0.92905766

conv2.lin.weight f4 [16, 16]
000000 18 bc b1 2d 79 08 00 00 39 7f 00 80 71 ab f6 b4
       2.02061e-11 3.04e-42 -4.5639e-41 -4.594581e-07
000010 fd 7d 39 b9 41 95 86 bd a2 1a 00 80 7c a0 97 bd
       -0.00017689909 -0.06571437 -9.554e-42 -0.07403657
000020 52 e8 f7 0b 19 2e 47 0c 41 fa 73 2c 8b 76 8b b7
       9.5490496e-32 1.5344274e-31 3.4671296e-12 -1.6625292e-05
000030 8c 31 0d b4 ff e9 42 bc 75 3b 01 00 fd 47 9d bd
       -1.3149673e-07 -0.011896609 1.13165e-40 -0.07679746
000040 52 f6 8c 2e e3 3c 00 80 ee 5b 01 80 bf 5f 97 32
       6.410218e-11 -2.1842e-41 -1.24814e-40 1.7622254e-08
000050 a1 be 0b 3a 1d 23 87 3d d2 4a 01 00 30 60 80 3d
       0.0005330835 0.06598494 1.18676e-40 0.06268346
000060 f1 1e e6 09 f3 10 00 00 6c 38 4f 35 c0 d1 41 b1
       5.5399583e-33 6.08e-42 7.7195614e-07 -2.8204425e-09
000070 b0 c4 8e 30 34 7c 0a 39 52 3e 0f a6 b4 44 f7 3d
       1.0387762e-09 0.00013206975 -4.969755e-16 0.12073651
000080 b4 1c ad 30 a1 95 01 00 65 16 00 00 10 44 81 37
       1.2595565e-09 1.45512e-40 8.034e-42 1.5409692e-05
000090 09 46 b9 3b a0 52 c4 be 7c b4 ca 87 06 f3 f0 be
       0.005654101 -0.38344288 -3.049966e-34 -0.47060412
0000a0 97 ed 17 0e 4c 70 51 8a 19 27 ad ba 34 47 52 3a
       1.8726582e-30 -1.0084105e-32 -0.0013210505 0.00080214744
0000b0 27 76 0c b3 83 13 23 3d f7 c0 ea 31 59 25 e7 be
       -3.270375e-08 0.03981353 6.832234e-09 -0.45145682
0000c0 8c 81 1e ab 30 e3 00 00 50 9d 00 80 9b 90 01 36
       -5.631266e-13 8.15e-41 -5.6433e-41 1.930667e-06
0000d0 4b d2 3d 3a cc fa 1d 3e a6 b1 00 00 6b d5 1f 3e
       0.0007241114 0.15427703 6.3728e-41 0.15608756
0000e0 ac 83 5a 8d c1 06 00 80 3c 49 21 23 d3 c0 9b 38
       -6.733493e-31 -2.423e-42 8.7433355e-18 7.426892e-05
0000f0 5f 0b ce 34 b7 bc 3d 3d f0 43 01 80 81 be 18 3e
       3.8378764e-07 0.04632255 -1.16207e-40 0.14916421
000100 b3 45 93 31 6e c8 00 80 f8 7d 00 00 7e 88 5c 37
       4.286187e-09 -7.19e-41 4.5189e-41 1.3144801e-05
000110 bc 08 a1 bd d6 22 60 bf 62 98 00 80 f0 cd 83 bf
       -0.07862994 -0.87553155 -5.4665e-41 -1.0297222
000120 ec 88 be 0e 45 26 b0 bb d8 61 d9 b3 24 e9 6c 39
       4.6970467e-30 -0.005375656 -1.01226476e-07 0.00022593566
000130 aa 39 6c 35 9d 21 81 be 6b 3e 00 80 ef 72 99 bf
       8.8000763e-07 -0.25220957 -2.2391e-41 -1.19882
000140 16 87 2d b1 ac 5b 00 80 3e d8 00 80 6e 30 27 b7
       -2.52516e-09 -3.2886e-41 -7.7573e-41 -9.965252e-06
000150 4b 0d 3d 3d 99 f7 4f bf d3 75 00 80 b4 d2 4d bf
       0.046155255 -0.8123718 -4.2267e-41 -0.8039963
000160 83 58 31 0f a2 69 18 b4 26 ac 3d b8 7f a4 93 39
       8.7438205e-30 -1.4194532e-07 -4.5221437e-05 0.00028160584
000170 08 15 a9 35 9b 65 86 bc dc 2a d9 2c c6 c9 73 bf
       1.2597602e-06 -0.016405871 6.1722693e-12 -0.95229757
000180 42 9b 9c 31 77 31 5b 80 17 14 00 80 2e a8 cd 37
       4.5578483e-09 -8.374775e-39 -7.207e-42 2.451622e-05
000190 0d 31 06 bc b5 3c 85 bf f2 7f 10 00 1e ce 38 bf
       -0.008190406 -1.0409151 1.515266e-39 -0.7218951
0001a0 f5 1d 48 0f cf 19 08 bb 38 3a 2e 3a be a2 5e 39
       9.866531e-30 -0.0020767336 0.00066462485 0.00021232196
0001b0 cd 19 81 b6 38 c3 ec bc db 86 b8 32 98 ed 84 bf
       -3.847503e-06 -0.028901681 2.1481744e-08 -1.0385008
0001c0 dd 72 95 b1 c7 b5 00 00 2c 1c 00 80 90 43 95 36
       -4.349529e-09 6.521e-41 -1.0106e-41 4.4484113e-06
0001d0 e9 03 34 bd ef a8 18 3f 96 50 00 00 88 a7 22 3f
       -0.04394904 0.5963277 2.8909e-41 0.6353688
0001e0 11 48 f1 8e 56 b6 27 a0 8a c8 59 b8 20 98 a4 b8
       -5.9480484e-30 -1.420578e-19 -5.19236e-05 -7.848465e-05
0001f0 31 5f eb b5 81 76 ba 3d 5c 3c 64 30 21 8a 4d 3f
       -1.7536569e-06 0.09104634 8.303169e-10 0.80288893
000200 c6 f9 98 31 1d 3f 00 00 e1 87 00 80 11 9b 1a 37
       4.452178e-09 2.2641e-41 -4.8744e-41 9.2152195e-06
000210 1c e7 56 3d 48 04 74 3f 35 5d 4e a0 0d 60 7e 3f
       0.052466497 0.9531903 -1.7479718e-19 0.9936531
000220 c6 9c 14 8f 97 ea 2e 3c 40 7b f5 ba 18 1b 39 3b
       -7.327157e-30 0.010676048 -0.0018728748 0.002824491
000230 a6 93 76 b5 4a d5 a3 3e 91 03 cd ab 08 cc 89 3f
       -9.1857e-07 0.31998664 -1.4567116e-12 1.076539
000240 d6 bd 7a b1 3e 2c 00 00 13 71 00 80 1d 2b 96 b5
       -3.6487697e-09 1.5871e-41 -4.0563e-41 -1.1188419e-06
000250 4b e2 37 bb bc d8 29 3f ae 3f 00 80 8e 80 07 3f
       -0.0028058465 0.66346335 -2.2844e-41 0.52930534
000260 a0 e2 ca 8d c2 2e 04 00 5a 8a 51 35 79 96 7d b8
       -1.2503769e-30 3.84116e-40 7.8059895e-07 -6.046004e-05
000270 ec 86 9f 33 f8 3c fe 3c 52 1d 00 00 61 b4 16 3f
       7.4285566e-08 0.031034932 1.0518e-41 0.58868986
000280 74 8a 8a b0 a7 fc 00 80 df 06 04 00 80 dd 95 33
       -1.0080172e-09 -9.0635e-41 3.69807e-40 6.978644e-08
000290 1d 36 b8 b9 c8 a6 1d 3e d4 73 00 80 f0 c1 3b 3e
       -0.00035135532 0.15395653 -4.1551e-41 0.183357
0002a0 eb 59 ec 8b 6c 15 00 80 1e 08 6e b2 08 74 82 b4
       -9.1039187e-32 -7.685e-42 -1.3855269e-08 -2.429881e-07
0002b0 6c e1 45 32 8c 8e 42 bc 4e b7 d2 99 cb c6 49 3e
       1.1518164e-08 -0.011874806 -2.1787527e-23 0.1970474
0002c0 1c a3 02 2f 20 38 00 80 45 3e 04 00 43 37 e0 b2
       1.1881379e-10 -2.0134e-41 3.8968e-40 -2.6102162e-08
0002d0 1b ee c4 3a 61 a1 9e bd 77 00 01 80 55 0b b8 bd
       0.0015024574 -0.07745624 -9.2002e-41 -0.089865364
0002e0 fc 49 0b 0a 96 12 00 80 02 a9 aa 32 7a b8 63 36
       6.7065215e-33 -6.667e-42 1.986746e-08 3.3933015e-06
0002f0 4f f0 91 b1 24 80 0f 3b 21 68 a7 22 86 2c 06 be
       -4.2473753e-09 0.0021896446 4.537569e-18 -0.13102922
000300 5b 31 14 2e e0 42 00 80 99 b6 00 00 a2 14 5c 33
       3.369514e-11 -2.399e-41 6.5504e-41 5.1241507e-08
000310 f8 83 94 3b bc 71 b2 3d f0 ab 00 00 40 a2 97 3d
       0.0045323335 0.08713099 6.168e-41 0.074039936
000320 6f b0 cb 0b d3 1b 01 00 f5 8c a8 34 e7 c9 1f 36
       7.8458224e-32 1.01817e-40 3.1394998e-07 2.381037e-06
000330 a5 b8 97 32 6a 1d 34 3c 62 c9 7d 28 23 2e bb 3d
       1.766268e-08 0.010993341 1.4087989e-14 0.09139659
000340 94 ca 88 ab 6b f9 00 80 1c 71 00 80 09 17 e4 33
       -9.719608e-13 -8.9474e-41 -4.0576e-41 1.06212674e-07
000350 48 74 5f 3b 11 38 a9 3d bf 4a 00 80 9c 79 81 3d
       0.0034096409 0.08262647 -2.6814e-41 0.06322023
000360 b4 f9 e5 0b 64 5a 00 00 73 00 65 37 fe 05 cd 37
       8.8583303e-32 3.2426e-41 1.3649568e-05 2.4440695e-05
000370 cc c6 8d 32 a2 4e 2d 3c 14 27 61 29 0a 8f 9d 3d
       1.6504963e-08 0.01057783 4.999393e-14 0.07693298
000380 13 58 fe b0 7c fc 00 80 5c 23 00 80 30 81 30 b5
       -1.8505965e-09 -9.0574e-41 -1.2685e-41 -6.57531e-07
000390 75 7c bf ba 3f d6 90 3e 9a 15 00 00 41 07 9c 3e
       -0.0014609235 0.28288457 7.749e-42 0.30474284
0003a0 c8 bf 7b 0c 41 da 33 8c fe 60 b3 31 4e 6a 41 b8
       1.9394049e-31 -1.3855337e-31 5.2206124e-09 -4.611379e-05
0003b0 04 16 37 33 0e a6 d2 bc a0 09 00 80 ac 90 c6 3e
       4.262803e-08 -0.025713947 -3.453e-42 0.3878225
0003c0 5b 7d 34 31 4d 29 00 80 98 e7 23 00 7a cb 5b b5
       2.6264704e-09 -1.4816e-41 3.297323e-39 -8.1879955e-07
0003d0 85 a8 59 3b a6 0e 9c be fe 72 00 00 a6 49 cd be
       0.0033212018 -0.30479926 4.1251e-41 -0.40095252
0003e0 ca 07 c5 0d c7 2d 00 00 f1 14 08 34 40 5a 8e 35
       1.21429375e-30 1.6422e-41 1.2673605e-07 1.0606091e-06
0003f0 78 c9 a0 b3 30 38 a9 3c 71 50 b9 1e de 7d e8 be
       -7.4872275e-08 0.020656675 1.9620907e-20 -0.4540853

linear.weight f4 [1, 16]
000000 ad 84 3e bd fe 86 1f 3c 02 e8 3c 3f 52 16 fe 3d
       -0.04651325 0.0097367745 0.73791516 0.12406601
000010 fd 73 68 40 c1 62 46 40 3a c6 65 40 31 29 0e c0
       3.6320794 3.0997775 3.5902238 -2.2212641
000020 9a 46 28 c0 d8 58 ba bf 20 f5 eb bc 33 0e 88 bb
       -2.6293092 -1.4558363 -0.028803408 -0.0041520833
000030 8a 0e 85 3d 39 35 8a 3d 57 12 83 be f3 1d ee 3e
       0.06496914 0.06748433 -0.2559993 0.46507224
