RL gym coherence/models/Taxi_GCN_USS_URS_9.pt (torch, 4150 bytes, 5 tensors)

conv1.bias f4 [16]
0	0xbc3f7dd8	-0.011687718
1	0x8e08a0ac	-1.6840655e-30
2	0xb18da163	-4.1219876e-09
3	0x9cc0992d	-1.2745089e-21
4	0xbdd574f7	-0.104227
5	0xbf70cda6	-0.94063795
6	0xbf675d58	-0.90376806
7	0xad498311	-1.145463e-11
8	0xbf56636e	-0.8374547
9	0xa8a1dbca	-1.7969909e-14
10	0x96599c75	-1.757849e-25
11	0x9f2a3e2d	-3.605033e-20
12	0xbdfa29a3	-0.12214973
13	0x3f3268eb	0.6969134
14	0xbd4fc3bc	-0.050723776
15	0xa428e00a	-3.661896e-17

conv1.lin.weight f4 [16, 1]
0	0xbd47e7c0	-0.048805
1	0x92a5fb4c	-1.0474913e-27
2	0xb2082bd6	-7.926209e-09
3	0xb19d9dee	-4.587256e-09
4	0xbdef071a	-0.116712764
5	0x3f18aaa8	0.596354
6	0x3f06a9be	0.52602756
7	0xadda9448	-2.484958e-11
8	0x3efbdf65	0.49193874
9	0xb6e66d32	-6.867246e-06
10	0xab382da5	-6.5433276e-13
11	0xb1b7b9c7	-5.3471214e-09
12	0xbdfd877e	-0.12379359
13	0xbe897150	-0.26844263
14	0xbd914d6b	-0.070948444
15	0xa7dcc804	-6.1279124e-15

conv2.bias f4 [16]
0	0xbf4a72f6	-0.79081666
1	0xbe63ff35	-0.22265323
2	0xbf0e458b	-0.55574864
3	0xbf49c609	-0.788178
4	0xbf42e034	-0.76123357
5	0x3ef19a99	0.4718826
6	0x3f498942	0.78725064
7	0xbf3e5e9b	-0.74363106
8	0xbc4de390	-0.012566462
9	0x3f6dc3dd	0.9287699
10	0x3f0b25fa	0.5435482
11	0x3f429162	0.76003087
12	0x3f3fee47	0.7497296
13	0xbf4aeefc	-0.7927091
14	0x3f2bb7dc	0.6707742
15	0xbf4af6eb	-0.79283017

conv2.lin.weight f4 [16, 16]
0	0x391e160b	0.00015076266
1	0x8c0708fb	-1.0402724e-31
2	0xa7bc8490	-5.2324207e-15
3	0x0002b6b1	2.49208e-40
4	0x3d9e8408	0.07740027
5	0x3f171074	0.5900948
6	0x3f41884d	0.75598603
7	0xabc12c0b	-1.3725699e-12
8	0x3f524a41	0.8214455
9	0x91ca8318	-3.1950773e-28
10	0x800372ac	-3.16643e-40
11	0x97bd9c04	-1.2253223e-24
12	0xbdf82f73	-0.12118425
13	0xbf06b0e8	-0.5261369
14	0x3c9a0532	0.018801305
15	0xa1a4dff8	-1.1172356e-18
16	0x80004da3	-2.7851e-41
17	0x88055378	-4.012135e-34
18	0xad329f81	-1.01535455e-11
19	0x8001308b	-1.0925e-40
20	0x319da656	4.5882116e-09
21	0x3de828a8	0.113358796
22	0x3e751e3e	0.23937318
23	0x2911209e	3.222476e-14
24	0x3e3c9bb7	0.18418775
25	0x8fd06a9b	-2.0551446e-29
26	0x161f8934	1.2887211e-25
27	0x29be4c36	8.4509155e-14
28	0xbc8dcf76	-0.01731084
29	0xbb2c3b12	-0.0026280326
30	0x24b3c1c7	7.795715e-17
31	0x9f918ec0	-6.164605e-20
32	0x2aaa6da4	3.0274145e-13
33	0x0a2bad86	8.265987e-33
34	0xb1a711e5	-4.862374e-09
35	0x80033807	-2.95605e-40
36	0x3d0eda79	0.03487632
37	0x3e5be7b4	0.21475106
38	0x3ef1ac9f	0.47202012
39	0x2b077b58	4.813281e-13
40	0x3f500894	0.8126309
41	0x8f8c102c	-1.3811295e-29
42	0x24744a64	5.2972077e-17
43	0xb04e8539	-7.5131684e-10
44	0xbde643e6	-0.11243419
45	0xbe82df68	-0.2556107
46	0x39eb0813	0.0004482871
47	0x26810c9f	8.954594e-16
48	0x379cd471	1.8695575e-05
49	0x8d3077ff	-5.4378627e-31
50	0x8b8ab35e	-5.342555e-32
51	0x00006932	3.7737e-41
52	0x3d90ac97	0.07064169
53	0x3f648138	0.8925967
54	0x3f0a8a92	0.5411769
55	0x2ba93a48	1.2024349e-12
56	0x3f15fde1	0.58590513
57	0x11b7c0a9	2.8991045e-28
58	0x800173a8	-1.33325e-40
59	0x000380dc	3.21733e-40
60	0xbde076f6	-0.1096019
61	0xbf013493	-0.50470847
62	0x3c79eb33	0.01525383
63	0x20154e56	1.264671e-19
64	0x36b95f94	5.5245564e-06
65	0x8c2b80a6	-1.3212075e-31
66	0x0aef754a	2.3058982e-32
67	0x00004d14	2.765e-41
68	0x3d8b12b1	0.067906745
69	0x3f28cd8a	0.6593863
70	0x3f495085	0.7863849
71	0xacb3f4c0	-5.1146587e-12
72	0x3f142bb0	0.5787916
73	0x112d6103	1.3677188e-28
74	0x00028762	2.32237e-40
75	0x80004710	-2.5492e-41
76	0xbde71934	-0.11284104
77	0xbef48516	-0.47757787
78	0x3c4b2da7	0.012401021
79	0xa1896c68	-9.312176e-19
80	0x80008bdb	-5.017e-41
81	0x8aff6927	-2.459516e-32
82	0x8d3c9d7e	-5.8121547e-31
83	0x80033332	-2.93872e-40
84	0xbc1dc367	-0.009629107
85	0xbee4d06d	-0.44690266
86	0xbee8312a	-0.4535001
87	0xab06bf7c	-4.78721e-13
88	0xbe89a528	-0.26883817
89	0x10c5268a	7.776218e-29
90	0x8000ac2c	-6.1764e-41
91	0x0000fb78	9.021e-41
92	0x3dc99be9	0.098441906
93	0x3e08122a	0.13288179
94	0xb50ca617	-5.2395757e-07
95	0xa05342f7	-1.7894552e-19
96	0xb8b64b8c	-8.692508e-05
97	0x8c551c0e	-1.6417366e-31
98	0x1bf037c7	3.9740715e-22
99	0x8000fb86	-9.023e-41
100	0xbd9943ef	-0.074836604
101	0xbf492331	-0.7856932
102	0xbf141795	-0.57848483
103	0x2bf141f2	1.7142383e-12
104	0xbf358353	-0.7090351
105	0x91c0d093	-3.0420803e-28
106	0x0000a55f	5.9324e-41
107	0x80002c84	-1.5969e-41
108	0x3df683bc	0.12036845
109	0x3f07fe8c	0.5312278
110	0xbc90cea2	-0.017676655
111	0xa14ad3fc	-6.872082e-19
112	0x387cd571	6.0280265e-05
113	0x8c06e46e	-1.0391725e-31
114	0xab705661	-8.5385003e-13
115	0x00016204	1.26997e-40
116	0x3d9a5145	0.07535032
117	0x3f265bb9	0.6498371
118	0x3f211a6e	0.62930954
119	0x276fd680	3.3284194e-15
120	0x3f3a51f1	0.7278128
121	0x91c09158	-3.0381834e-28
122	0x8890655b	-8.690513e-34
123	0xa2ac605e	-4.6722726e-18
124	0xbdf91395	-0.12161938
125	0xbf020e85	-0.50803405
126	0x3c90e583	0.017687565
127	0xa20edfa3	-1.936298e-18
128	0x0000356f	1.9168e-41
129	0x880bfc2c	-4.2125218e-34
130	0x06c47bcd	7.3908915e-35
131	0x8001961d	-1.45686e-40
132	0xadd6e900	-2.4432456e-11
133	0xbbcbad48	-0.006215725
134	0xbb856b8a	-0.0040716575
135	0xa8805a3f	-1.4249993e-14
136	0xbb79a91c	-0.0038095182
137	0x0f3d66df	9.338232e-30
138	0x8000c0f3	-6.9217e-41
139	0x8001b126	-1.55384e-40
140	0xb6844321	-3.9417214e-06
141	0xbc271466	-0.010197734
142	0x00026cb1	2.22662e-40
143	0x1bba45d4	3.0816244e-22
144	0xb7863022	-1.5996458e-05
145	0x0c105ba9	1.112094e-31
146	0x8fa2298c	-1.5990437e-29
147	0x80019097	-1.43705e-40
148	0xbd93ab78	-0.072104394
149	0xbf64f131	-0.8943053
150	0xbf6fd394	-0.9368222
151	0xaa5e2c98	-1.9733032e-13
152	0xbf1638da	-0.586805
153	0x91b80474	-2.9032826e-28
154	0x80007db0	-4.5088e-41
155	0x800101be	-9.246e-41
156	0x3def57b4	0.1168665
157	0x3efed52a	0.49772006
158	0xbc44e12f	-0.012016579
159	0x1e98add4	1.616552e-20
160	0x9a9617ae	-6.20768e-23
161	0x0c1acfab	1.1926221e-31
162	0x0b42c510	3.7511294e-32
163	0x000135d0	1.1114e-40
164	0xbce7a639	-0.028277503
165	0xbee10adc	-0.43953598
166	0xbefbfdfe	-0.49217218
167	0xab645e24	-8.113252e-13
168	0xbef566de	-0.47930044
169	0x910ab9d2	-1.0943541e-28
170	0x00014b8b	1.18935e-40
171	0x0001ce69	1.65882e-40
172	0x3de0cd88	0.10976702
173	0x3e5cc8c6	0.21560964
174	0xb8b7beb3	-8.7616405e-05
175	0xa07376cc	-2.0622207e-19
176	0xb91c95fd	-0.00014933194
177	0x0b9e7036	6.102822e-32
178	0x2d3600c2	1.03456705e-11
179	0x800122d0	-1.04324e-40
180	0xbda1b080	-0.07894993
181	0xbf2d6789	-0.6773611
182	0xbf025ca4	-0.5092261
183	0xabcb34b8	-1.443865e-12
184	0xbf661416	-0.898744
185	0x119f1e91	2.5104615e-28
186	0x1a85fe6f	5.541857e-23
187	0xab0a6b9d	-4.917679e-13
188	0x3dfa8054	0.12231508
189	0x3f0d7d01	0.55268866
190	0xbca416c2	-0.020030383
191	0x224bd124	2.7622348e-18
192	0xb4246674	-1.5310962e-07
193	0x8cd0e1c4	-3.2183352e-31
194	0x8b5dc786	-4.2713157e-32
195	0x00029248	2.36147e-40
196	0xbd80e2b1	-0.06293238
197	0xbf468e2b	-0.7756068
198	0xbf0dafc6	-0.55346334
199	0x2c697251	3.317475e-12
200	0xbf1d637c	-0.61479926
201	0x10d27b16	8.302004e-29
202	0x00022236	1.95944e-40
203	0x000196fa	1.45996e-40
204	0x3dec9765	0.11552314
205	0x3ed7f560	0.42179394
206	0xbbf22840	-0.007390052
207	0xa158bb4a	-7.343152e-19
208	0x3985fee4	0.00025557645
209	0x0b0c0c60	2.697233e-32
210	0x3010edf2	5.2725035e-10
211	0x80004f65	-2.8481e-41
212	0x3da66512	0.081247464
213	0x3f6e7972	0.9315406
214	0x3ecf7080	0.40515518
215	0x2be80bd5	1.6487876e-12
216	0x3f3e5ddf	0.74361986
217	0x91cecfe9	-3.2629204e-28
218	0x1d094aa2	1.8170383e-21
219	0x2b90182d	1.0238526e-12
220	0xbdfb3ed0	-0.1226784
221	0xbf05919e	-0.5217532
222	0x3cad9f53	0.021194136
223	0xa254cd29	-2.8839968e-18
224	0xb4d88c89	-4.0335388e-07
225	0x0b8783d3	5.2198456e-32
226	0x29093b65	3.0471627e-14
227	0x8000cff7	-7.4604e-41
228	0xbd81cb2a	-0.063375786
229	0xbed6f778	-0.4198568
230	0xbf6cd5c6	-0.9251369
231	0x2ae9ea6d	4.155178e-13
232	0xbef3af3e	-0.47594637
233	0x910b79a8	-1.1002655e-28
234	0x80014af5	-1.18725e-40
235	0x1ed0145a	2.2031274e-20
236	0x3df4c70a	0.11952026
237	0x3ec812b9	0.39076784
238	0xbbeb8a1b	-0.0071880943
239	0x2177713a	8.383671e-19
240	0x35028f46	4.8637264e-07
241	0x0a0c959f	6.7688954e-33
242	0xabcc6534	-1.4523161e-12
243	0x0000b43a	6.4653e-41
244	0x3d83004f	0.06396543
245	0x3f6c68ed	0.92347604
246	0x3f2ee9cf	0.68325514
247	0x2b833a6f	9.324328e-13
248	0x3f053072	0.52027047
249	0x9144a9cc	-1.5513996e-28
250	0x93405331	-2.4274824e-27
251	0xa50107db	-1.1191628e-16
252	0xbdf51b50	-0.119681
253	0xbecfdad8	-0.40596652
254	0x3bbdc663	0.005791472
255	0xa1da8d1a	-1.4809604e-18

linear.weight f4 [1, 16]
0	0x40428dd9	3.0399077
1	0x3d92d92f	0.07170331
2	0x3f8081e5	1.0039641
3	0x402ea03a	2.7285295
4	0x4022103c	2.5322409
5	0xbf0b73de	-0.54473674
6	0xc03c2632	-2.9398313
7	0x402febdc	2.7487707
8	0x3c14e1b6	0.009087017
9	0xc0343a34	-2.8160524
10	0xbf6e8db6	-0.93184984
11	0xc03cdbdc	-2.9509192
12	0xc00d6b11	-2.2096598
13	0x4047a306	3.1193252
14	0xbffea0c1	-1.9892808
15	0x3fff00e2	1.9922144
