RL gym coherence/models/Taxi_GCN_USS_URS_16.pt (torch, 4160 bytes, 5 tensors)

conv1.bias f4 [16]
00000000: b11d cdbd b87b f890 eb62 d8be 5088 31ab
00000010: 54cf 52ba 07d3 3f96 a9a8 6d3f 30c8 6abf
00000020: c6d9 66bf 098e 8ab4 f7c0 22bf f8cd f6a9
00000030: 69c3 5cbf c720 aab9 4de3 b6a8 54ef 66bd
-0.10015429 -9.800937e-29 -0.42262968 -6.3072204e-13 -0.00080417586 -1.5495446e-25 0.9283548 -0.9171171
-0.90176046 -2.5807847e-07 -0.6357569 -1.09603244e-13 -0.8623567 -0.00032449348 -2.0304635e-14 -0.056380585

conv1.lin.weight f4 [16, 1]
00000000: 30aa eebd 389e 80ab cfd3 df3d 8d69 c2b6
00000010: a9e4 4dbc 6648 60b0 6fd3 92be 314e 143f
00000020: 522d 0d3f 858f 8bb4 4c49 a03e 5ee5 c8b5
00000030: 4087 023f dfac aebc 5356 54b6 6636 b9bd
-0.116535544 -9.138862e-13 0.10929071 -5.7939383e-06 -0.012566724 -8.159361e-10 -0.28676936 0.5793181
0.5514728 -2.5995192e-07 0.3130592 -1.4967916e-06 0.50987625 -0.021322666 -3.164071e-06 -0.09043579

conv2.bias f4 [16]
00000000: 03ea 57bf e662 a83e 78b3 a03b 19a3 38bf
00000010: c39f cbbe 3c89 19bf 7a9a 3c3f 6571 283f
00000020: a869 233f b0f9 bdbc cada 7dbe 7e81 37bf
00000030: 9946 d0be 60f6 3c3f de9c 4a3f a469 353f
-0.8434145 0.32887954 0.004904207 -0.7212387 -0.39770326 -0.5997503 0.7367321 0.65798026
0.63833094 -0.02319035 -0.24790493 -0.71681964 -0.40678862 0.7381344 0.7914561 0.7086432

conv2.lin.weight f4 [16, 16]
00000000: 43db cebd 7556 0280 b7bb 73bc d96f fd86
00000010: 7b86 f1b3 a43e 0000 596f 74bf 524e 7d3f
00000020: 19cf 043f f260 7eb4 0aae dc3e 56d8 0280
00000030: ff1b 743f d209 d63b 0541 0180 2c3f 3dbc
00000040: 84b6 3f3d 0ef4 0000 9643 b53b c7bc 0280
00000050: 5744 0080 d5d4 0080 1298 933e 277e babe
00000060: f19a 4fbe 100e 4a32 7be4 c3bd b09a 0280
00000070: a8e8 aabe 2557 d6b9 7490 0200 1c5f 2c2b
00000080: e570 dc2f 21d2 0080 ae0f bc38 6ac1 0080
00000090: fc29 0080 aa78 5180 5741 8e3b 7eb5 dcb9
000000a0: f1cc 47ba 5613 f62f a639 d9ba 16d1 0000
000000b0: 02ef adba 9ff1 0100 24d3 0080 c505 0180
000000c0: c80b cdbd 4f88 0000 040f f13b 0470 0300
000000d0: 0fb6 86b0 fc2c 0280 a4c4 4ebf fe50 203f
000000e0: 683d 653f 4c22 bab4 06fd 9e3e 1246 0000
000000f0: 3904 1b3f 9170 6d3c 36dd 0000 2aaa 19bc
00000100: f216 93bd fb1d 0000 b3b3 bd3b 4f1a 0180
00000110: 65c4 0080 8527 0100 b181 b1be 969c f33e
00000120: 1206 973e 3e72 aab2 483c 7c3e 5a03 0100
00000130: d314 7f3e 04ee 283b 6c23 0380 5b21 7cb3
00000140: 0f34 c5bd 2efb 0280 f112 77bc f5a5 0000
00000150: 589a 6696 015c 0100 5c37 2fbf 27a4 583f
00000160: 6fb9 103f 81da fcb3 c97c 823e 6724 0080
00000170: 1b5f 983e bf82 333c 0a51 0100 e1c7 02ba
00000180: 77c6 c93d 6675 0080 7c32 f8ba e9ce ec08
00000190: 5fe5 d131 4024 0200 92b9 6e3f 2bc9 79bf
000001a0: cddf 17bf 2b74 8533 cf4a 6bbe 32af 0080
000001b0: 21eb 44bf 6d6f 27bc 6de8 4096 9470 b63b
000001c0: 3ebe c93d 658f 0080 5659 893c 98c7 0080
000001d0: c688 f52e b0ad 0000 1ec7 363f dc86 fdbe
000001e0: e1dc 62bf 16bf d233 c2fa b0be d18e 0080
000001f0: a5ae 0bbf f00e c7bb a760 0200 46b1 d33b
00000200: 11c3 ca3d b2e4 0000 57b4 1abc f715 0080
00000210: ea01 de2e 0860 0000 6edd 543f ab57 29bf
00000220: f0fb 48bf b941 ac33 081c 9fbe 4552 0080
00000230: ae36 e0be 3960 54bc 8d65 0200 ca0b bb3b
00000240: 4124 21b0 e8b7 0100 bb4a eb39 07ae 0000
00000250: 0c75 0280 f10d 0000 288f 7a3c abb5 0f3d
00000260: 68de c63c cfc6 6e30 6673 b73a 04e2 0080
00000270: ba31 a73c 3a56 0280 52eb 0200 3093 0000
00000280: 2830 86bc b760 0200 df9c b23c d3d1 0080
00000290: 0985 0000 ea61 0080 0118 18be 176d 343e
000002a0: bf11 933e 4498 61b1 874c 083e dd63 0380
000002b0: 49ad b33d 80a1 b837 94bc 7301 96f2 58a1
000002c0: 3b05 cfbd f0f9 0180 91bf 3f3d ca18 7f14
000002d0: 81bc 7ab5 9465 0100 731f 59bf 84d8 413f
000002e0: c1e3 653f 76cf c0b3 8d90 083f 0312 0100
000002f0: c0df b73e f177 313c 6e02 0280 5107 83bc
00000300: 8a0b 99bd e551 0100 ab37 f13a b9ce 0100
00000310: 5147 0080 5d93 0000 5f41 d3be 9f2c c13e
00000320: dca2 123f 787b e2b2 d0d1 543e 565d 0280
00000330: 0c9e 1a3e 30f1 323b a4b2 0180 55b2 60b3
00000340: 3919 d03d e07e 0100 153c 7bbd 2a1e 0100
00000350: 7cf3 8c30 af3d 0100 59b0 6b3f cbbf 27bf
00000360: fed0 0cbf 2f0a b933 0841 eebe 4d2a 0000
00000370: 7539 6abf c1b5 0abc 2faa 0580 6b9c b03b
00000380: 74c7 ce3d 891e 0180 8eaf 513d 35f5 8c94
00000390: 112c 1635 27f2 0080 d395 623f 6e70 28bf
000003a0: 369f 7cbf 1a81 0834 3fb0 00bf 6f31 0080
000003b0: adbe 42bf c04e 23bc ca79 0100 594c 523c
000003c0: 118f d03d 2e97 0180 e1ff 98bd 14f5 8492
000003d0: 88cc a435 225e 0180 83a3 543f 710d 82bf
000003e0: 5466 e6be 9cbb 0734 e174 8fbe b08b 0180
000003f0: 20e9 08bf 3c64 edbb 42e3 0000 bf3e 833c
-0.101004146 -2.14686e-40 -0.014876298 -9.533237e-35 -1.1246899e-07 2.2471e-41 -0.95482403 0.9894763
0.51878506 -2.3690862e-07 0.4310153 -2.61278e-40 0.9535522 0.0065319324 -1.1516e-40 -0.011550706
0.04680492 8.755e-41 0.0055317385 -2.51392e-40 -2.4516e-41 -7.635e-41 0.28826958 -0.36424372
-0.20273949 1.1761145e-08 -0.095650636 -2.39162e-40 -0.33380628 -0.00040882188 2.35491e-40 6.1238666e-13
4.0097983e-10 -7.538e-41 8.967459e-05 -6.9384e-41 -1.5061e-41 -7.481961e-39 0.004341285 -0.00042096892
-0.0007621786 4.4760878e-10 -0.0016572967 7.5006e-41 -0.0013270082 1.78513e-40 -7.5743e-41 -9.3905e-41
-0.10012013 4.8898e-41 0.0073565263 3.1569e-40 -9.801527e-10 -1.99808e-40 -0.807688 0.62623584
0.89546824 -3.4670154e-07 0.31052417 2.5136e-41 0.6055332 0.01449217 7.9356e-41 -0.009378949
-0.07182111 1.0755e-41 0.005789244 -1.01273e-40 -7.0453e-41 1.06012e-40 -0.3466926 0.47580403
0.2949682 -1.9842556e-08 0.2463237 9.3038e-41 0.24910288 0.0025776634 -2.88213e-40 -5.870366e-08
-0.0962907 -2.73777e-40 -0.0150802 5.9534e-41 -1.8627954e-25 1.2484e-40 -0.68443847 0.84625477
0.5653295 -1.177441e-07 0.2548583 -1.3059e-41 0.2976006 0.010956465 1.20907e-40 -0.0004988891
0.09852307 -4.2115e-41 -0.0018935944 1.4252378e-33 6.108777e-09 1.96675e-40 0.9325191 -0.9757258
-0.5932587 6.214426e-08 -0.22977756 -6.2848e-41 -0.7692128 -0.010219437 -1.5582977e-25 0.0055676196
0.09850739 -5.144e-41 0.016766232 -7.1601e-41 1.1165606e-10 6.2307e-41 0.7139758 -0.49516952
-0.88618284 9.8136454e-08 -0.34566313 -5.1233e-41 -0.5456336 -0.0060747787 2.18343e-40 0.0064603416
0.09900487 8.204e-41 -0.00944241 -7.88e-42 1.0095731e-10 3.445e-41 0.83150375 -0.66149396
-0.78509426 8.021329e-08 -0.31076074 -2.9513e-41 -0.43791717 -0.012962394 2.201e-40 0.0057081925
-5.862298e-10 1.57809e-40 0.0004487837 6.2429e-41 -2.2566e-40 5.001e-42 0.01529292 0.03508536
0.024275973 8.686642e-10 0.0013996183 -8.1079e-41 0.020409454 -2.14603e-40 2.68088e-40 5.2801e-41
-0.016380385 2.18366e-40 0.021803318 -7.5271e-41 4.7724e-41 -3.5125e-41 -0.14852907 0.1761974
0.28724477 -3.2828362e-09 0.13310443 -3.1133e-40 0.08773286 2.2009714e-05 4.476735e-38 -7.3504706e-19
-0.101084195 -1.81496e-40 0.04681355 1.2879099e-26 -9.3406567e-07 1.28275e-40 -0.8481361 0.75721
0.8980065 -8.9784336e-08 0.53345567 9.8297e-41 0.35912895 0.010831819 -1.84543e-40 -0.0159947
-0.07472904 1.21214e-40 0.0018403431 1.65994e-40 -2.5584e-41 5.2864e-41 -0.41260812 0.37729356
0.57279754 -2.636601e-08 0.20783162 -2.17154e-40 0.15099353 0.0027304403 -1.5592e-40 -5.2316256e-08
0.10161061 1.3735e-40 -0.061336596 1.02656e-40 1.0255543e-09 1.13963e-40 0.9206596 -0.6552703
-0.55006397 8.616586e-08 -0.4653399 1.5175e-41 -0.9149392 -0.008466185 -5.20228e-40 0.00538974
0.100966364 -1.0279e-40 0.051192813 -1.4233105e-26 5.594348e-07 -8.6868e-41 0.88509864 -0.65796554
-0.98680437 1.2712954e-07 -0.5026893 -1.7733e-41 -0.760722 -0.009967506 1.35525e-40 0.0128355855
0.10183538 -1.46069e-40 -0.0747068 -8.390788e-28 1.2278479e-06 -1.25604e-40 0.83062 -1.0160352
-0.44999945 1.2641107e-07 -0.2801886 -1.41946e-40 -0.5348072 -0.007244615 8.1525e-41 0.01602113

linear.weight f4 [1, 16]
00000000: b8ba 3c40 8e8c 6bbe fbdf 00bb 3e30 2840
00000010: c4bc e43e e757 bd3f 689f 11c0 79d0 0ec0
00000020: aa37 0bc0 e0d1 e2bb 4877 db3d 901e 3c40
00000030: a3ad fa3e 3c60 10c0 bf6a 37c0 118b 3bc0
2.9488964 -0.23002836 -0.0019664753 2.6279445 0.44675267 1.4792451 -2.2753544 -2.2314742
-2.1752725 -0.0069219917 0.107161105 2.9393654 0.489606 -2.2558737 -2.8658903 -2.930363
