RL gym coherence/models/Taxi_GCN_UUS_URS_14.pt (torch, 4160 bytes, 5 tensors)

conv1.bias f4 [16]
-0.13862583 -0.012327006 -0.0004110273 -0.03919657 -2.4082308e-29 -8.729282e-08 -2.1315346 -0.02705152
-0.2958338 -2.0355191 -1.4006079e-33 -1.9159987 -0.068928964 -2.3411773e-09 -1.957121 -0.027645921
00000000: eef3 0dbe 36f7 49bc 267f d7b9 958c 20bd
00000010: 3f39 f48f bc75 bbb3 106b 08c0 269b ddbc
00000020: 8777 97be f245 02c0 45b7 e888 723f f5bf
00000030: a12a 8dbd 6de2 20b1 f182 fabf b379 e2bc

conv1.lin.weight f4 [16, 1]
-0.24092223 0.0032531868 2.5548086e-05 0.6101341 -4.5422992e-29 -1.571502e-06 1.1110395 0.6070982
-0.30378476 1.0483559 -1.7405585e-33 0.9642675 -0.09816817 -1.0310015e-07 1.006984 1.0496446
00000000: 51b4 76be 6b33 553b 1950 d637 c031 1c3f
00000010: 6a52 6690 66ec d2b5 8b36 8e3f ca6a 1b3f
00000020: ad89 9bbe 8730 863f 9699 1089 3cda 763f
00000030: 650c c9bd e867 ddb3 dae4 803f c15a 863f

conv2.bias f4 [16]
0.009408645 0.15255202 -0.16535431 0.14540154 -0.18968631 0.18941015 0.16480613 0.15584601
-0.26361474 0.18244088 -0.11331795 -0.15762734 -0.2880347 -0.16861925 -0.19327882 -0.26393485
00000000: b826 1a3c 9936 1c3e a452 29be 24e4 143e
00000010: 213d 42be bcf4 413e f0c2 283e 1996 1f3e
00000020: 83f8 86be c8d1 3a3e 3e13 e8bd 1069 21be
00000030: 4979 93be 86aa 2cbe e2ea 45be 7822 87be

conv2.lin.weight f4 [16, 16]
-7.2499346e-30 8.437669e-07 9.284165e-15 -0.048245855 -2.0544667e-31 -1.51965e-40 -0.10407881 -0.03854878
-1.540001e-10 -0.08345448 -3.985247e-36 -0.066194676 3.066263e-16 1.21965e-40 -0.07500144 -0.0368867
3.3333066e-29 1.0591549e-05 -1.8063e-41 0.095429845 1.984341e-31 2.9027e-40 0.1360661 0.091670975
8.021751e-07 0.1388438 1.19860906e-35 0.1410664 -1.7309e-41 1.7352e-41 0.13906053 0.106638834
1.0052991e-28 -7.774974e-06 3.4674894e-21 -0.10888046 6.3409504e-32 -3.3523e-41 -0.14707379 -0.10461844
-5.485662e-07 -0.14985956 3.8652147e-36 -0.15314755 4.8583e-41 -3.5394e-41 -0.15120588 -0.11397399
2.1102756e-29 9.0061585e-06 -4.6273807e-29 0.09257643 -6.582788e-32 -1.3353e-40 0.13164833 0.087139435
4.0421423e-07 0.13436116 1.5368085e-35 0.13669159 3.2334e-41 -5.0227e-41 0.13471855 0.10537996
-6.5609464e-29 -8.689022e-06 4.033197e-24 -0.12813312 6.7415824e-32 -3.03406e-40 -0.16645274 -0.12588878
-5.9621634e-06 -0.16955365 -1.5066506e-35 -0.17470488 -6.9486e-41 2.094e-41 -0.1730525 -0.1407728
1.1585305e-28 6.178098e-06 2.6594624e-16 0.12572205 -7.3110453e-32 3.09181e-40 0.16411921 0.123056464
1.645195e-06 0.16666521 1.1470889e-35 0.17303681 7.5174e-41 2.5317e-41 0.17132963 0.13745812
2.0863322e-29 1.0171209e-05 1.2374515e-37 0.10657866 -2.3231695e-32 2.9e-42 0.14743486 0.10459264
7.3550984e-07 0.15052742 7.2059124e-36 0.15280509 -3.433e-41 1.5801e-41 0.15087077 0.11467024
-6.0636243e-29 1.0106042e-05 7.885889e-35 0.09675305 5.527148e-32 1.09524e-40 0.13750057 0.09387405
2.6813373e-07 0.14028098 1.6389862e-35 0.14259148 -3.8445e-41 -4.8732e-41 0.14059494 0.10570069
-0.15352076 0.0047242213 -0.00025917773 -0.4788123 -9.541706e-30 6.642433e-08 2.853845 -0.37666422
-0.30529118 2.5539708 1.2560224e-34 2.6416848 -0.12195891 -1.070551e-18 2.8450892 -0.92738914
-4.3664732e-29 -1.1197111e-06 5.5374267e-07 0.10755986 -9.180064e-33 -2.695e-41 0.14227997 0.11082748
8.881224e-07 0.14063074 1.3215966e-35 0.15956971 2.5745e-41 -3.3852784e-29 0.15740056 0.1149558
1.7001249e-28 -5.517151e-06 3.613364e-17 -0.060762037 -1.389243e-31 2.51044e-40 -0.095785536 -0.05977892
3.1529763e-09 -0.097655766 -1.4566688e-35 -0.1000937 1.39551e-40 1.1304e-41 -0.09841302 -0.07868669
-0.056156673 -0.0059894556 0.00022116222 -0.29779166 -3.4517163e-30 4.3541108e-23 1.8624074 -0.299188
-0.26145115 1.8500597 3.6932672e-35 1.8495675 -0.021861233 9.999893e-16 1.8690642 -0.6522619
-0.13454784 -0.0013622524 -0.000113612616 -0.47765383 8.571229e-30 6.3851663e-10 2.7361345 -0.49659753
-0.2984748 2.3313694 2.5151304e-34 2.427191 -0.09058416 2.7631425e-34 2.6300414 -0.7055919
-1.5507926e-28 -1.31937195e-05 4.6701e-41 -0.10924127 -1.2445474e-31 1.13986e-40 -0.15137717 -0.10664912
-1.2191373e-06 -0.15463871 1.5829032e-35 -0.15668222 8.1634e-41 8.7144e-41 -0.15470226 -0.1192564
-7.718648e-07 -1.7659455e-05 -1.5999203e-12 0.06516992 3.858547e-31 -8.694e-42 0.9120688 -0.075455666
-0.01397584 0.7786487 -2.9333786e-36 0.613162 -8.718595e-05 -2.3992e-41 0.69634366 -0.2966761
-0.005287577 -7.4994634e-05 -1.1686512e-13 -0.029676635 3.6716715e-30 4.5283e-41 1.4998455 -0.25024047
-0.16726162 1.3583871 -3.683549e-35 1.1793275 -0.0028895484 4.5105e-41 1.2817701 -0.44783968
00000000: d00b 138f 387f 6235 a73f 2728 729d 45bd
00000010: af57 858c 9ea7 0180 4527 d5bd 53e5 1dbd
00000020: 2d53 29af 2fea aabd 7f83 a984 1391 87bd
00000030: 0ec2 b025 fd53 0100 5b9a 99bd 8216 17bd
00000040: cb04 2910 5bb2 3137 5a32 0080 b970 c33d
00000050: 85ca 800c 2829 0300 e954 0b3e febd bb3d
00000060: 0e55 5735 122d 0e3e 7cea 7e05 b673 103e
00000070: 4030 0080 5f30 0000 e265 0e3e 7665 da3d
00000080: a4df fe10 4271 02b7 80ff 821d b8fc debd
00000090: d89e a40b 735d 0080 839a 16be 3142 d6bd
000000a0: 2f41 13b5 c974 19be 7668 a404 b6d2 1cbe
000000b0: 6e87 0000 aa62 0080 b7d5 1abe 326b e9bd
000000c0: e301 d60f 2819 1737 d6a2 6a90 b698 bd3d
000000d0: 21e6 aa8b 3a74 0180 d2ce 063e 2976 b23d
000000e0: c802 d934 f995 093e e86b a305 e1f8 0b3e
000000f0: 225a 0000 038c 0080 a9f3 093e 73d1 d73d
00000100: fa56 a690 11c7 11b7 d906 9c18 5435 03be
00000110: 8005 af0b c64d 0380 9672 2abe fde8 00be
00000120: 980e c8b6 799f 2dbe ee36 a085 d6e5 32be
00000130: b3c1 0080 5f3a 0000 ad34 31be bf26 10be
00000140: 77dc 1211 754d cf36 bd4e 9925 48bd 003e
00000150: 3bce bd8b df5d 0300 de0e 283e 0705 fc3d
00000160: 78d0 dc35 49aa 2a3e 76f5 7305 9030 313e
00000170: 8ed1 0000 9346 0000 0971 2f3e d2c1 0c3e
00000180: 4894 d30f 03a5 2a37 e46e 2802 ea45 da3d
00000190: 7040 f18a 1608 0000 2af9 163e ab34 d63d
000001a0: da6f 4535 dc23 1a3e b840 1905 f078 1c3e
000001b0: b35f 0080 0c2c 0000 de7d 1a3e 3bd8 ea3d
000001c0: 2cbb 9990 1f8d 2937 94a4 d106 7726 c63d
000001d0: 337e 8f0b 4f31 0100 f3cc 0c3e 0a41 c03d
000001e0: 05f4 8f34 d1a5 0f3e 7349 ae05 8003 123e
000001f0: 2b6b 0080 d887 0080 1ff8 0f3e 9a79 d83d
00000200: 8c34 1dbe a4cd 9a3b 3fe2 87b9 e326 f5be
00000210: 5f87 418f 29a5 8e33 65a5 3640 22da c0be
00000220: 204f 9cbe 4274 2340 3af4 2607 5d11 2940
00000230: 98c5 f9bd 46fc 9da1 f115 3640 6069 6dbf
00000240: 1068 5d90 fb48 96b5 e8a4 1435 5848 dc3d
00000250: 98a9 3e8a 204b 0080 d7b1 113e 85f9 e23d
00000260: 4e67 6e35 8101 103e 4889 8c05 3e66 233e
00000270: c447 0000 6da7 2b90 9d2d 213e f26d eb3d
00000280: 3584 5711 f71f b9b6 13a3 2624 9de1 78bd
00000290: 8455 348c cfbb 0200 352b c4bd beda 74bd
000002a0: bfab 5831 bfff c7bd 4ce6 9a85 edfd ccbd
000002b0: 0385 0100 831f 0000 c48c c9bd 7d26 a1bd
000002c0: 8a04 66bd 3243 c4bb c8e7 6739 2678 98be
000002d0: ac04 8c8e 488d 521a 5e63 ee3f 2b2f 99be
000002e0: eddc 85be c2ce ec3f 265e 4406 a1be ec3f
000002f0: 5416 b3bc 181d 9026 7f3d ef3f a3fa 26bf
00000300: e9c6 09be 9b8d b2ba 4f43 eeb8 0b8f f4be
00000310: 5ed8 2d0f 9d83 2f30 d41c 2f40 0842 febe
00000320: b0d1 98be 2835 1540 ba28 a707 1957 1b40
00000330: 3084 b9bd 6fa4 b707 9952 2840 aca1 34bf
00000340: 1996 4491 985a 5db7 2f82 0000 e3b9 dfbd
00000350: 2e8d 218c bf3d 0100 9e02 1bbe db6a dabd
00000360: 3da1 a3b5 9c59 1ebe b952 a805 4e71 20be
00000370: 90e3 0000 ecf2 0000 456a 1ebe b33c f4bd
00000380: 2532 4fb5 6423 94b7 342b e1ab cf77 853d
00000390: 1c6f fa0c 3c18 0080 577d 693f 8088 9abd
000003a0: ecfa 64bc 8555 473f 548b 7984 2ff8 1c3f
000003b0: 9ad7 b6b8 e142 0080 9443 323f eee5 97be
000003c0: 6943 adbb 7046 9db8 1494 03aa 6a1c f3bc
000003d0: d1f0 940e 3b7e 0000 f0fa bf3f 851f 80be
000003e0: a146 2bbe a1df ad3f dfd9 4386 34f4 963f
000003f0: 945e 3dbb bc7d 0000 0b11 a43f 3e4b e5be

linear.weight f4 [1, 16]
-0.05635688 0.12002269 -0.13544567 0.11813802 -0.1444718 0.14916176 0.13262248 0.12193626
-4.864311 0.14489098 -0.08709821 -1.5780013 -3.7349732 -0.13284121 -0.07774802 -0.48496836
00000000: 79d6 66bd 75ce f53d 45b2 0abe 59f2 f13d
00000010: 6af0 13be dcbd 183e 30ce 073e b8b9 f93d
00000020: 70a8 9bc0 4d5e 143e 8c60 b2bd f2fb c9bf
00000030: cd09 6fc0 8707 08be 5b3a 9fbd c64d f8be
