RL gym coherence/models/Taxi_GCN_UUS_URS_0.pt (torch, 4150 bytes, 5 tensors)

conv1.bias f4 [16]
0	0xbfa33c34	-1.2752748
1	0xb834bf0d	-4.3093274e-05
2	0x915faeed	-1.7645501e-28
3	0x98d84548	-5.5904648e-24
4	0xb7d1e0a7	-2.5019353e-05
5	0xb9dea873	-0.00042468644
6	0xbf8128a4	-1.0090528
7	0xbfb5e54d	-1.4210602
8	0x800113d9	-9.8955e-41
9	0x84f2cabc	-5.708011e-36
10	0xbe099db8	-0.13439071
11	0xbd79a93d	-0.060952414
12	0xbce74b6e	-0.02823421
13	0xbfb6e808	-1.428956
14	0xb7f8d48f	-2.9662884e-05
15	0xbc216917	-0.0098517155

conv1.lin.weight f4 [16, 1]
0	0x3f31b2d4	0.69413495
1	0xbbfe5dbe	-0.00776264
2	0xac6c0f44	-3.3546091e-12
3	0xb1320a64	-2.5908315e-09
4	0xbb972263	-0.0046122535
5	0xbbb84abd	-0.005624144
6	0x3e9311e3	0.28724584
7	0x3f6eff98	0.93358755
8	0x9c99c6bb	-1.0176061e-21
9	0xa98c1823	-6.221436e-14
10	0xbe6ec718	-0.23318136
11	0x3c662cf9	0.014048808
12	0xbd39d97c	-0.045373425
13	0x3f6f590c	0.9349525
14	0xba883bf4	-0.0010393844
15	0x3b11b5a8	0.002223352

conv2.bias f4 [16]
0	0xbf98aebd	-1.1928326
1	0x3d79961c	0.06093417
2	0x3fe077a4	1.7536511
3	0x3e2b9319	0.16755332
4	0xbe232c9a	-0.15934983
5	0x3fe7ef96	1.8119991
6	0xbea59fa9	-0.32348374
7	0xbf87ecac	-1.0619102
8	0x3ffd1bbd	1.977409
9	0x3fe2a031	1.7705137
10	0xbfd2098b	-1.6409162
11	0x3fa6e6f1	1.3039228
12	0xbfdcafdb	-1.7241167
13	0x3fb489ed	1.4104592
14	0x3f46b91a	0.7762619
15	0xbfcf293f	-1.6184462

conv2.lin.weight f4 [16, 16]
0	0x3e9c0694	0.3047377
1	0x00012f25	1.08748e-40
2	0x00005f5f	3.4213e-41
3	0x800110b5	-9.7829e-41
4	0x80004b20	-2.695e-41
5	0xae26dd64	-3.7940664e-11
6	0xbd6aaa24	-0.057291165
7	0x3f350f9c	0.70726943
8	0x00009a2f	5.531e-41
9	0x8435f27b	-2.138779e-36
10	0x3bc8aa46	0.006123814
11	0x3944bd14	0.00018762454
12	0x3de6098a	0.11232288
13	0x3efe34fb	0.49649796
14	0x2ac58e46	3.5092952e-13
15	0x37377540	1.0934949e-05
16	0xbcf03246	-0.029320847
17	0x8000adef	-6.2396e-41
18	0x0001546e	1.22123e-40
19	0x0000313d	1.7663e-41
20	0x800030ed	-1.7551e-41
21	0xadabb2bb	-1.9519822e-11
22	0x3b3b37f9	0.0028567298
23	0xbd2d89dc	-0.0423678
24	0x8001116d	-9.8087e-41
25	0x82126e73	-1.0758083e-37
26	0xb3694438	-5.4311585e-08
27	0xb8c9a395	-9.6148964e-05
28	0x3a299310	0.00064687524
29	0x3c4beb53	0.012446242
30	0x2b78ab83	8.834532e-13
31	0xb6553c46	-3.1774557e-06
32	0xbeaac876	-0.33356065
33	0x945dd972	-1.1200532e-26
34	0x0000c832	7.1817e-41
35	0x8001061f	-9.4031e-41
36	0x800784b0	-6.90448e-40
37	0x0000853e	4.7798e-41
38	0xbd6fdb79	-0.058558915
39	0xbf74df52	-0.9565326
40	0x8000b58b	-6.5125e-41
41	0x845d534e	-2.6016677e-36
42	0xbd8aea8c	-0.067830175
43	0x393ec198	0.00018191931
44	0xbd82adc1	-0.06380797
45	0xbf788906	-0.9708408
46	0x80008baa	-5.0102e-41
47	0x37be4b02	2.2684693e-05
48	0xbd1b08f5	-0.03785034
49	0x89056ba6	-1.6059909e-33
50	0x8000d068	-7.4762e-41
51	0x800035ea	-1.9341e-41
52	0x0000365e	1.9503e-41
53	0x97a3e0dc	-1.0590391e-24
54	0x3b05c6a8	0.0020412598
55	0xbdafc4c3	-0.08582451
56	0x80004287	-2.3866e-41
57	0x013a07b6	3.4168337e-38
58	0xb415b1f2	-1.3941442e-07
59	0x349e0f16	2.944077e-07
60	0xbd5b1fb4	-0.05349703
61	0xbdc37661	-0.09544063
62	0x90f432a4	-9.6319055e-29
63	0x3317f484	3.5379813e-08
64	0x3d3bf7ba	0.045890547
65	0x80003241	-1.8028e-41
66	0x8000c1ff	-6.9593e-41
67	0x80017c26	-1.36372e-40
68	0x800126e7	-1.05791e-40
69	0x2885d44c	1.4858035e-14
70	0xb9eaf02e	-0.00044810906
71	0x3d9a596c	0.07536587
72	0x8002fc12	-2.74097e-40
73	0x8013672c	-1.781886e-39
74	0x30adb960	1.2640093e-09
75	0xb736749d	-1.08751965e-05
76	0x3db75f1f	0.0895369
77	0x3dc867e9	0.09785444
78	0x239ee9f7	1.7229482e-17
79	0xb355c4db	-4.9771966e-08
80	0xbf08c1e7	-0.5342087
81	0xaa2e8e09	-1.5503583e-13
82	0x800027d3	-1.4286e-41
83	0x00003cc8	2.1804e-41
84	0xad9252a7	-1.6634983e-11
85	0x00015da8	1.25433e-40
86	0x3c731b25	0.014838015
87	0xbf6f7c92	-0.93549454
88	0x8000c2ea	-6.9922e-41
89	0x8490f352	-3.407769e-36
90	0xbdbdf9b3	-0.09276142
91	0x37097aa8	8.1943945e-06
92	0xbdb70e5d	-0.089382865
93	0xbf83c43a	-1.0294259
94	0x00015ac5	1.24397e-40
95	0x380be1ca	3.3350465e-05
96	0x3dc32ed4	0.09530416
97	0x00000614	2.18e-42
98	0x80011e20	-1.02642e-40
99	0x00006b20	3.8429e-41
100	0x8000b609	-6.5302e-41
101	0xb1662819	-3.3492198e-09
102	0xbcb59062	-0.022163574
103	0x3e2dc937	0.16971289
104	0x80005a29	-3.2343e-41
105	0x01b66552	6.700163e-38
106	0x30b34000	1.3042154e-09
107	0x3ab0d401	0.0013490916
108	0x3de50b59	0.11183805
109	0x3e2a6938	0.166417
110	0xaca5f8da	-4.71721e-12
111	0x386ce8a1	5.6483437e-05
112	0x3e8223be	0.25417894
113	0x1e8b8578	1.4772399e-20
114	0x80011f97	-1.03168e-40
115	0x800037bd	-1.9995e-41
116	0x00001be2	1.0002e-41
117	0xb26ea3f2	-1.38907e-08
118	0x3b59af2d	0.0033215985
119	0x3f100082	0.56250775
120	0x0000f583	8.8073e-41
121	0x834667b3	-5.830601e-37
122	0x3b6b2010	0.0035877265
123	0x390dae0e	0.00013511648
124	0x3df23a88	0.1182757
125	0x3f047b68	0.51750803
126	0x2fb32721	3.2587713e-10
127	0xb8e231e6	-0.00010785814
128	0xbf107c96	-0.56440103
129	0xa5c9db97	-3.5016742e-16
130	0x8000db9f	-7.8785e-41
131	0x80003b4a	-2.1269e-41
132	0xb010e18d	-5.270742e-10
133	0x0971eea9	2.9121537e-33
134	0xbe636904	-0.22208029
135	0xbf80e18a	-1.0068829
136	0x800073a1	-4.148e-41
137	0x8496e047	-3.5470797e-36
138	0xbdc43816	-0.0958101
139	0x38c47042	9.366918e-05
140	0xbd6225b8	-0.055211753
141	0xbf918b2b	-1.1370596
142	0x000dbc9c	1.261522e-39
143	0x37449c34	1.1718879e-05
144	0xbedf3b78	-0.4360006
145	0xa4ab7fcc	-7.4375925e-17
146	0x00002314	1.2584e-41
147	0x80003771	-1.9889e-41
148	0xa662bba8	-7.8663823e-16
149	0x800095e1	-5.3766e-41
150	0x3ce33154	0.027733482
151	0xbf76ef44	-0.9645884
152	0x80012ef9	-1.08686e-40
153	0x84a49fbd	-3.870291e-36
154	0xbdb67e28	-0.08910781
155	0x36e4c408	6.8177505e-06
156	0xbdbae9ac	-0.091266006
157	0xbf7a1007	-0.97680706
158	0x0000d51b	7.6448e-41
159	0x37d3f9ef	2.5269544e-05
160	0x3f1eef08	0.6208348
161	0x2eb3e7c8	8.18115e-11
162	0x80012292	-1.04237e-40
163	0x000109d2	9.5358e-41
164	0x21de2f75	1.5055867e-18
165	0xadcb3849	-2.3103424e-11
166	0xbd3f74a3	-0.046742093
167	0x3f2e50b2	0.6809188
168	0x00002449	1.3017e-41
169	0x0495b75e	3.5198128e-36
170	0x3dafedc4	0.08590272
171	0xba037a84	-0.00050155097
172	0x3dc8e351	0.09808982
173	0x3f79f3c3	0.97637576
174	0xacc9ffb0	-5.7411506e-12
175	0x3831f574	4.2428685e-05
176	0xbeaa1618	-0.3321998
177	0xa439991b	-4.0245166e-17
178	0x8001522f	-1.21317e-40
179	0x00014249	1.15614e-40
180	0x80006a15	-3.8055e-41
181	0x80003e4b	-2.2347e-41
182	0x3d837aa7	0.064198785
183	0xbf211024	-0.62915254
184	0x0000da59	7.8328e-41
185	0x83cbdc62	-1.1981865e-36
186	0xbca7d729	-0.020488339
187	0x38dac5a5	0.00010431864
188	0xbd8d6cb2	-0.069054976
189	0xbf3867de	-0.7203349
190	0x00015994	1.2397e-40
191	0x37911ebb	1.7299657e-05
192	0x3ecd2e90	0.40074587
193	0x380165bd	3.0850748e-05
194	0x8001287f	-1.06363e-40
195	0x228da290	3.8390246e-18
196	0x38bbee0b	8.961194e-05
197	0x22e48f9b	6.195157e-18
198	0x3eb5e78f	0.35528228
199	0x3f93deaf	1.1552333
200	0x80006fd4	-4.0116e-41
201	0x0334b04b	5.309962e-37
202	0x3d849606	0.06473927
203	0x3a7b0a3b	0.00095764146
204	0x3dd178b4	0.102281004
205	0x3f96b7be	1.1774824
206	0x96fe4494	-4.1079192e-25
207	0x36d14a74	6.237353e-06
208	0xbe980761	-0.2969313
209	0xa6a0ee45	-1.1166813e-15
210	0x00000d75	4.827e-42
211	0x00008928	4.9202e-41
212	0x84ec126d	-5.5500255e-36
213	0x3396a506	7.014937e-08
214	0x3d674add	0.05646788
215	0xbf80613c	-1.0029674
216	0x8000543e	-3.022e-41
217	0x845ae672	-2.5731592e-36
218	0xbd401385	-0.046893615
219	0xba989f4d	-0.0011644155
220	0xbde1c324	-0.11023548
221	0xbefec937	-0.4976289
222	0x31848a30	3.8574157e-09
223	0xb5fc4962	-1.879682e-06
224	0xbe03bb6a	-0.12864462
225	0x97ad8983	-1.1214576e-24
226	0x00010f4d	9.7324e-41
227	0x80008497	-4.7564e-41
228	0x80012af6	-1.07247e-40
229	0x00001f0e	1.114e-41
230	0x397fbf38	0.0002438993
231	0xbeec7d08	-0.4618914
232	0x8000165a	-8.018e-42
233	0x0395e54d	8.810078e-37
234	0x3544e489	7.334825e-07
235	0xb7db505b	-2.6144253e-05
236	0xbdfd8c6b	-0.12380298
237	0xbec055d8	-0.37565494
238	0x80000fc7	-5.66e-42
239	0x339144e0	6.764617e-08
240	0x3f27d4a5	0.65558845
241	0x2a885643	2.421831e-13
242	0x0000674c	3.7056e-41
243	0x80002985	-1.4894e-41
244	0x8c0f17d8	-1.1023494e-31
245	0xaccad034	-5.7643005e-12
246	0xbd3cd113	-0.046097826
247	0x3f76ccdc	0.9640634
248	0x00014c98	1.19312e-40
249	0x0491a838	3.424382e-36
250	0x3d91d56e	0.071207866
251	0xb8c268ff	-9.270198e-05
252	0x3dbe569b	0.092938624
253	0x3f2182c8	0.6309018
254	0x2950ff0b	4.6406492e-14
255	0x37394682	1.1043276e-05

linear.weight f4 [1, 16]
0	0xbf665792	-0.8997737
1	0xbba5468c	-0.0050438102
2	0x4001a2f8	2.0255718
3	0x3bc92748	0.006138716
4	0xbb95d6d1	-0.0045727273
5	0x401adcb9	2.4197218
6	0xbd032f2d	-0.032027412
7	0xbf4d03b8	-0.800838
8	0x401f7b2c	2.4918928
9	0x4016fe66	2.3592772
10	0xc011973e	-2.274856
11	0x3f9c0538	1.2189093
12	0xbff88484	-1.941544
13	0x3fd2ca86	1.6468055
14	0x3e95ea36	0.2928025
15	0xc002930e	-2.0402255
