RL gym coherence/old models/Taxi_GCN_UUS_URS_38.pt (torch, 4480 bytes, 5 tensors)

conv1.bias f4 [16]
-0.016587542 -0.009439733 -0.017480489 -0.008979657 -0.038689494 -0.008895215 -0.003952601 -0.014435909
-0.019773949 -0.011336346 -0.010300872 -0.012606796 -0.012415721 -0.013620546 -0.030729508 -0.015052492
00000000: 99e2 87bc 1ca9 1abc 3e33 8fbc 691f 13bc
00000010: e078 1ebd 3cbd 11bc d284 81bb 9784 6cbc
00000020: fafc a1bc 15bc 39bc fdc4 28bc bc8c 4ebc
00000030: 4f6b 4bbc b628 5fbc 73bc fbbc ba9e 76bc

conv1.lin.weight f4 [16, 6]
0.52394414 0.41438112 0.12171897 0.64632237 0.38343763 0.30816773 0.37380773 0.1553071
0.24637271 0.19955796 0.32136554 0.29546 0.6190074 0.09363048 -0.03715157 0.51055294
0.5951617 0.10592897 -0.020529032 0.27952105 0.41635725 0.022211503 0.19533749 0.38045022
-0.10820143 0.23890187 0.052308943 -0.03949997 0.38121495 0.048584543 0.109126024 0.11431056
0.11955408 0.10142248 0.38991788 0.39552483 0.06620893 0.05606064 0.06122346 0.24038723
0.10862503 0.10771127 0.5351329 0.30463052 -0.033538744 0.5837555 0.22044706 0.39490908
0.6027438 0.6204825 0.59011364 0.4734084 0.08657977 0.59363824 0.14437401 0.107585296
0.5157517 0.31893766 0.47619608 0.16897072 0.21425466 0.12985905 0.26941115 0.28592074
0.28650296 0.47192866 0.23921151 0.16275556 0.54710376 0.1626069 0.29211226 0.5759776
0.15542115 0.3522857 0.22268303 0.4426063 0.25210392 0.63424087 0.10881337 0.23624831
0.6464284 0.58327866 0.28401375 0.101504005 0.30440322 0.2283146 0.02429562 0.024850564
0.0029101036 0.026958864 0.22790642 0.5538494 0.05226853 0.269459 0.06037835 0.7149862
00000000: 3421 063f c329 d43e cc47 f93d 6275 253f
00000010: f051 c43e 29c8 9d3e ba63 bf3e d308 1f3e
00000020: 2149 7c3e ec58 4c3e 068a a43e 8846 973e
00000030: 4577 1e3f 56c1 bf3d 3f2c 18bd 99b3 023f
00000040: 845c 183f 4af1 d83d 802c a8bc 621d 8f3e
00000050: c72c d53e e6f4 b53c 8d06 483e 5fca c23e
00000060: b698 ddbd b1a2 743e e741 563d b8ca 21bd
00000070: 9b2e c33e 9600 473d 777d df3d a81b ea3d
00000080: c5d8 f43d 97b6 cf3d 51a3 c73e 3b82 ca3e
00000090: 8c98 873d d79f 653d 73c5 7a3d 1228 763e
000000a0: cd76 de3d ba97 dc3d 78fe 083f 88f8 9b3e
000000b0: ec5f 09bd 0071 153f e0bc 613e 8631 ca3e
000000c0: 6b4d 1a3f f1d7 1e3f b011 173f 9662 f23e
000000d0: bc50 b13d adf8 173f c8d6 133e ae55 dc3d
000000e0: 4e08 043f cc4b a33e f9cf f33e a906 2d3e
000000f0: 9365 5b3e c5f9 043e 42f0 893e 3464 923e
00000100: 84b0 923e a2a0 f13e ddf3 743e 65a9 263e
00000110: fe0e 0c3f 6c82 263e bd8f 953e 4573 133f
00000120: b926 1f3e cb5e b43e 0507 643e 4b9d e23e
00000130: c413 813e 9c5d 223f 8bd9 de3d 14eb 713e
00000140: 557c 253f c051 153f 406a 913e 55e1 cf3d
00000150: bdda 9b3e 4dcb 693e 9c07 c73c 6993 cb3c
00000160: 70b7 3e3b d6d8 dc3c 4d60 693e 13c9 0d3f
00000170: 8717 563d 88f6 893e 4a4f 773d 5609 373f

conv2.bias f4 [16]
-0.4463041 -0.40209326 -0.3235971 0.36914715 0.5843051 0.4664783 0.40765473 -0.3994389
0.4867613 -0.5533184 -0.3296899 0.40406254 -0.4049515 -0.35549268 -0.5667697 0.5232069
00000000: f981 e4be 2bdf cdbe 85ae a5be db00 bd3e
00000010: 0595 153f 3ed6 ee3e 1fb8 d03e 4183 ccbe
00000020: c738 f93e 46a6 0dbf 1dcd a8be 49e1 ce3e
00000030: ce55 cfbe 2303 b6be d217 11bf e3f0 053f

conv2.lin.weight f4 [16, 16]
0.21181746 0.07750814 -0.11632925 0.3293985 -0.11381557 -0.067494944 0.12013981 0.29518306
0.55390084 0.41912532 0.03995189 0.473884 0.38615254 0.061086472 -0.040358447 0.0025842167
0.3381168 -0.042760726 0.28873548 0.42879787 0.30930388 0.0626299 0.07467721 0.17203657
-0.18815465 -0.20646305 0.18290858 -0.15930884 -0.09010954 0.14142391 0.01778983 -0.07038195
0.5259641 -0.06428533 0.50995857 0.128894 0.030941501 0.19400814 0.09006651 0.5127367
0.5129913 -0.06505758 0.17193252 0.33310127 0.36219776 0.20419371 -0.022146674 0.51734453
-0.5079658 -0.23241717 -0.44721544 0.08682411 -0.14070177 -0.27315122 0.060615487 -0.277015
-0.43751496 -0.10780177 -0.28945372 0.15528941 0.021260828 -0.26405537 0.16446465 -0.31849346
0.020635262 -0.19563785 -0.42732084 -0.014067234 -0.036141966 -0.058427542 -0.07551879 -0.37542233
0.004280491 -0.20599265 -0.35068935 -0.43960285 -0.049314488 -0.30248272 -0.11857375 -0.24644066
-0.22371171 -0.21844186 -0.4406997 -0.036706164 -0.03674063 -0.032990966 -0.07139098 -0.3474443
-0.1423477 -0.35494277 -0.2396758 -0.15857872 -0.36909705 -0.23232631 -0.1774356 -0.3568728
-0.20541704 -0.024110518 -0.15382208 0.048435785 -0.117274985 -0.43005878 0.049114652 0.09319588
-0.36462864 -0.088123 -0.31497452 0.017354636 -0.5105034 -0.5043799 -0.07264737 -0.16399172
0.26365182 0.43125987 0.28177202 0.48843437 -0.122251615 -0.12805647 -0.005490565 -0.08193839
0.51558346 -0.16262414 0.4035591 0.471292 -0.12176479 0.10506046 -0.0020310164 -0.089147076
-0.36671045 -0.116475336 -0.008516945 -0.1885535 -0.1365766 -0.40873575 -0.020117922 -0.22590859
-0.42717808 -0.42480755 -0.14474739 0.027113575 -0.14756209 -0.34210098 -0.056757554 -0.051091418
0.18007219 0.14284746 0.39485276 0.3279497 0.23070627 0.08571073 0.05713084 0.04523201
0.16205858 0.37369934 0.13902754 0.40038127 0.41612595 0.23503548 0.016620321 0.17549536
0.48618945 0.10208069 0.09768523 0.003632564 0.24175623 -0.062670186 -0.09390222 0.48299634
0.29389054 0.46724993 -0.005955241 0.08454604 0.11760535 0.5054877 -0.0048348303 0.3426828
-0.37190032 -0.20459689 -0.3035197 0.19052401 0.17008248 -0.23238572 -0.179598 -0.4319763
-0.14354935 0.08510775 -0.44306126 -0.20554534 -0.44489905 0.10389189 -0.002196386 -0.23700656
0.52709126 0.2268759 -0.0021431488 -0.1648864 -0.05339786 0.12690184 0.13860834 -0.075788565
0.3498903 0.11791297 0.055745043 -0.03855986 0.10220263 0.37372643 -0.027619023 -0.0951499
0.46071956 0.18456039 0.29064274 0.054824512 -0.21243703 -0.10797801 0.08841435 0.47918525
0.35106578 0.09157479 0.35199437 0.24261977 0.07761127 0.05286449 0.09057944 0.45572826
0.13109545 0.13950695 0.3304798 0.2626139 0.14469467 0.22196293 0.050234854 0.14278749
0.30397224 0.35452196 0.20275961 0.3554153 0.040414646 0.34712464 0.062500395 0.27116722
-0.31778795 -0.24332717 -0.27214774 0.022264894 -0.102418475 0.039332025 -0.07509344 -0.121495254
-0.50601244 -0.13178892 -0.1993414 -0.026191525 -0.3484033 -0.18509944 -0.14884579 -0.47805643
00000000: ade6 583e 96bc 9e3d 083e eebd eca6 a83e
00000010: 2318 e9bd ca3a 8abd dc0b f63d 3c22 973e
00000020: 72cc 0d3f 9897 d63e 98a4 233d eca0 f23e
00000030: c9b5 c53e cf35 7a3d e64e 25bd f65b 293b
00000040: a51d ad3e df25 2fbd 23d5 933e 658b db3e
00000050: 145d 9e3e 1b44 803d 5df0 983d 5b2a 303e
00000060: 9dab 40be 0d6b 53be 634c 3b3e db21 23be
00000070: 5a8b b8bd 6ed1 103e fabb 913c 6924 90bd
00000080: 95a5 063f 07a8 83bd a58c 023f cafc 033e
00000090: 0879 fd3c 12aa 463e ca74 b83d b642 033f
000000a0: 6653 033f e93c 85bd 140f 303e 408c aa3e
000000b0: fc71 b93e 2818 513e f16c b5bc b170 043f
000000c0: 0c0a 02bf c4fe 6dbe 6cf9 e4be d7d0 b13d
000000d0: 2014 10be 7ada 8bbe f247 783d e9d4 8dbe
000000e0: f601 e0be 2dc7 dcbd 4733 94be 3004 1f3e
000000f0: 302b ae3c 4432 87be 6c69 283e 9311 a3be
00000100: 480b a93c 4a55 48be ccc9 dabe 417a 66bc
00000110: 9909 14bd b851 6fbd 98a9 9abd 5b37 c0be
00000120: 5c43 8c3b bdef 52be 8e8d b3be a013 e1be
00000130: fdfd 49bd 04df 9abe cbd6 f2bd f15a 7cbe
00000140: af14 65be 39af 5fbe 64a3 e1be 3459 16bd
00000150: 587d 16bd 8921 07bd 6f35 92bd 38e4 b1be
00000160: 98c3 11be 0fbb b5be 936d 75be 7662 22be
00000170: 4afa bcbe f3e6 6dbe aeb1 35be 08b8 b6be
00000180: d858 52be 6c83 c5bc 8983 1dbe 9a64 463d
00000190: de2d f0bd aa30 dcbe 722c 493d 7bdd be3d
000001a0: 9bb0 babe d579 b4bd 5744 a1be 4f2b 8e3c
000001b0: 5ab0 02bf 0b1f 01bf 25c8 94bd 72ed 27be
000001c0: 5ffd 863e 18ce dc3e 6c44 903e 1214 fa3e
000001d0: 0e5f fabd 3c21 03be 33ea b3bb 51cf a7bd
000001e0: 47fd 033f f186 26be 4c9f ce3e 2f4d f13e
000001f0: d15f f9bd f029 d73d cd1a 05bb be92 b6bd
00000200: 79c1 bbbe 9f8a eebd a88a 0bbc 2b14 41be
00000210: bcda 0bbe d045 d1be 57ce a4bc 9554 67be
00000220: 16b7 dabe 6080 d9be a938 14be 4a1d de3c
00000230: 841a 17be dc27 afbe 9c7a 68bd 3c45 51bd
00000240: d864 383e 9b46 123e 242a ca3e 06e9 a73e
00000250: 443e 6c3e 1b89 af3d 0702 6a3d 3345 393d
00000260: aff2 253e 8555 bf3e 3c5d 0e3e c6fe cc3e
00000270: 760e d53e 24ad 703e 5727 883c 0eb5 333e
00000280: d3ed f83e ae0f d13d 320f c83d 5010 6e3b
00000290: f28e 773e 3a59 80bd cf4f c0bd 4c4b f73e
000002a0: d278 963e 623b ef3e 2f24 c3bb 7926 ad3d
000002b0: 13db f03d a467 013f 7f6d 9ebb 1f74 af3e
000002c0: b869 bebe d981 51be ef66 9bbe ba18 433e
000002d0: 1a2a 2e3e 86f6 6dbe 8ae8 37be ff2b ddbe
000002e0: 9afe 12be f94c ae3d edd8 e2be 7a7a 52be
000002f0: cfc9 e3be 45c5 d43d 3ef1 0fbb d9b1 72be
00000300: 74ef 063f 2852 683e 1274 0cbb fbd7 28be
00000310: b7b7 5abd 8ef2 013e 58ef 0d3e 0937 9bbd
00000320: d224 b33e 5b7c f13d ea54 643d f2f0 1dbd
00000330: 9d4f d13d 1259 bf3e 4a41 e2bc f3dd c2bd
00000340: 6fe3 eb3e 66fd 3c3e 20cf 943e ab8f 603d
00000350: 1889 59be 9323 ddbd 9512 b53d c557 f53e
00000360: e5be b33e 908b bb3d 9b38 b43e 5171 783e
00000370: a8f2 9e3d 6f88 583d b781 b93d 3755 e93e
00000380: e33d 063e e9da 0e3e a634 a93e 5475 863e
00000390: d72a 143e 404a 633e 10c3 4d3d e236 123e
000003a0: 40a2 9b3e e783 b53e 37a0 4f3e fff8 b53e
000003b0: d489 253d 52ba b13e 3500 803d 6ed6 8a3e
000003c0: 1ab5 a2be c22a 79be f356 8bbe de64 b63c
000003d0: c7c0 d1bd 9e1a 213d 97ca 99bd 81d2 f8bd
000003e0: 088a 01bf adf3 06be 2720 4cbe 9c8f d6bc
000003f0: eb61 b2be b58a 3dbe 086b 18be d0c3 f4be

linear.weight f4 [1, 16]
-0.6921018 -0.6275309 -0.49102563 0.60125506 0.79158545 0.5303219 0.7473885 -0.89838254
0.57810915 -0.56421167 -0.6173682 0.8134874 -0.8113139 -0.67379653 -0.5434983 0.6971676
00000000: 952d 31bf dda5 20bf b667 fbbe daeb 193f
00000010: 58a5 4a3f 2dc3 073f da54 3f3f 66fc 65bf
00000020: f6fe 133f 2d70 10bf d80b 1ebf b640 503f
00000030: 45b2 4fbf ee7d 2cbf b422 0bbf 9379 323f
